models/ebm-goal-directed-model.pt (torch, 293307 bytes, 13 tensors)

graphconv1.linear_edge.bias f4 [256]
0.010645533 0.020998983 0.019180994 0.0005248185 -0.00055605156 -0.007060021 0.008390806 -0.012480174
-0.014551564 -0.018127603 -0.02036718 -0.013879286 -0.0024749194 -0.0016866178 0.005224004 0.015577173
-0.0045481417 -0.0015868316 -0.007566675 -0.006109244 -0.012303022 -0.010352574 -0.011795194 -0.01651413
-0.015200343 -0.012391616 -0.013635717 0.012433943 0.011060862 0.021309908 0.021584041 -0.019214677
-0.0002411952 -0.0025127558 0.007753312 0.009606741 0.01514904 0.01955186 0.019706136 -0.0002119162
-0.015582953 -0.019801537 -0.01214622 -0.0024286686 -0.010005508 -0.012032474 -0.0068365727 0.008673073
0.00768305 0.013987623 0.0068812366 -0.0011055564 -0.0051799947 -0.0021994652 0.00032007205 0.0034383582
-0.012246872 -0.014829943 -0.01014796 -0.007297438 0.0060632564 0.017914956 0.002267428 -0.016625067
-0.00029957667 0.0074113808 0.008068315 -0.01603991 -0.010952106 -0.017004764 -0.023773514 0.015706806
-0.010353951 -0.007290839 -0.01049378 0.007927539 0.0001970392 0.0031068537 -0.003779616 0.010505753
0.0005678372 -0.003285647 0.0028289836 0.036137506 -0.016868668 -0.02267701 -0.023207083 0.0024987261
-0.008240662 0.00056244445 -0.00032157014 -0.009568985 -0.005750943 0.0054834327 0.003760014 0.017731057
-0.0040232195 0.00093639764 0.00472388 -0.009575359 0.0011748844 0.0028693979 0.009896622 0.019498207
0.012178375 0.003150047 0.0035027845 0.015718708 -0.007934901 -0.012793889 -0.01518385 -0.00017314224
0.006481247 0.0008782924 0.0028748647 0.015851548 0.0026904459 0.014356509 0.0132442545 -0.0028699199
-3.559998e-05 0.0060905605 0.009203619 -0.02679542 0.0008355116 0.001876898 -0.013494118 -0.013364468
-0.01931238 -0.01577726 -0.019239748 -0.02175359 -0.010382586 -0.007754714 -0.014191949 0.0036668703
-0.0037141552 0.0041594123 -0.00482524 0.015252341 0.0065047666 0.0111700455 0.013583396 0.0031979275
-0.010375375 -0.008970389 -0.008391444 0.019154498 0.00082678423 0.009807013 0.014698585 -0.009314571
0.0038135408 0.0052912896 0.009056094 -0.006224348 -0.0052617923 -0.0038786805 -0.0041032988 0.006906517
-0.003055352 -0.0035450403 -0.00394879 0.017825045 0.0014974418 -0.0010083903 1.5341659e-05 0.012456738
0.0015212962 0.006365757 0.007791201 0.001072874 -0.017845811 -0.0111112 -0.012972165 0.00012899755
0.006756755 0.011023728 0.011137123 -0.030411534 0.003239508 -0.0007325839 -0.01342862 -0.0068155783
0.01955023 0.01512247 0.011162955 -0.004211378 0.011066129 0.005468587 -0.008002151 0.007468805
-0.024819257 -0.018380051 -0.014719919 0.009965027 0.012447665 0.01933695 0.011097175 0.019373104
0.012260175 0.010616387 0.004767794 -0.020166757 -0.0013036302 0.0039802305 -0.00912405 0.0045689573
-0.011470611 -0.006794062 -0.012272163 -0.02677682 -0.00058129226 -0.00059077155 0.0020287586 -0.026847351
-0.016656496 -0.008570378 -0.0012084456 -0.02107138 -0.007568382 -0.0033530158 -0.0044830227 -0.013190652
-0.011714739 -0.012551138 -0.020350145 0.009361237 -0.0074854316 -0.0073637525 -0.007834692 -0.036266483
-0.00815313 -0.010241804 -0.012754316 -0.009818807 0.009020083 5.1184772e-05 -0.0008610118 0.021373574
-0.0042597405 -0.0028355566 -0.005136021 -0.0002668125 -0.0037366487 -0.0055782185 -0.011444813 -0.012364592
-0.0062961914 -0.009814841 -0.012072075 0.025445813 0.010368386 0.011840536 0.012523981 0.017503522
00000000: 9a6a 2e3c 0f06 ac3c 7621 9d3c f993 093a
00000010: fdc3 11ba c057 e7bb 9779 093c a579 4cbc
00000020: af69 6ebc 5780 94bc 13d9 a6bc f265 63bc
00000030: 4232 22bb 8111 ddba 1f2e ab3b 6637 7f3c
00000040: 9408 95bb 3cfd cfba dff1 f7bb 0e30 c8bb
00000050: 9d92 49bc d89d 29bc a140 41bc a448 87bc
00000060: dc0a 79bc 3406 4bbc 5868 5fbc bdb7 4b3c
00000070: 9e38 353c 1e92 ae3c 04d1 b03c 1968 9dbc
00000080: 58e9 7cb9 0cad 24bb 7f0f fe3b 9865 1d3c
00000090: ae33 783c 392b a03c c36e a13c d235 5eb9
000000a0: a44f 7fbc d536 a2bc f000 47bc 4c2a 1fbb
000000b0: 24ee 23bc db23 45bc 5405 e0bb 8119 0e3c
000000c0: 18c2 fb3b 582c 653c ff7b e13b 51e8 90ba
000000d0: f2bc a9bb e724 10bb 58cf a739 1456 613b
000000e0: 1ba7 48bc 4af9 72bc a143 26bc 591f efbb
000000f0: 48ae c63b 63c2 923c 2199 143b 4b31 88bc
00000100: 8010 9db9 2bdb f23b f730 043c 2166 83bc
00000110: 7670 33bc 934d 8bbc acc0 c2bc 8fab 803c
00000120: 9ea3 29bc fee7 eebb 1aee 2bbc 82e2 013c
00000130: 4f9c 4e39 5b9c 4b3b 6fb3 77bb 5220 2c3c
00000140: e9da 143a 0254 57bb 7866 393b ec04 143d
00000150: 2930 8abc 23c5 b9bc c81c bebc abc1 233b
00000160: d703 07bc 0271 133a 6a98 a8b9 3bc7 1cbc
00000170: 6872 bcbb 5eae b33b 916a 763b b940 913c
00000180: 36d5 83bb 9578 753a c7ca 9a3b f7e1 1cbc
00000190: 94fe 993a 820c 3c3b 7125 223c b4ba 9f3c
000001a0: cf87 473c 0571 4e3b f98e 653b 85c4 803c
000001b0: 6301 02bc 769d 51bc afc5 78bc 848d 35b9
000001c0: a460 d43b 353d 663a 3a68 3c3b 1bdb 813c
000001d0: 3152 303b 9037 6b3c 6efe 583c 4415 3cbb
000001e0: 3051 15b8 5393 c73b c7ca 163c 1282 dbbc
000001f0: 3c06 5b3a 3f02 f63a 6f16 5dbc a4f6 5abc
00000200: ff34 9ebc 503f 81bc ad9c 9dbc 9634 b2bc
00000210: b91b 2abc 421b febb 5985 68bc e04f 703b
00000220: 2f69 73bb ae4b 883b 0c1d 9ebb f4e4 793c
00000230: f025 d53b 9102 373c e48c 5e3c 5294 513b
00000240: 7afd 29bc 8af8 12bc 447c 09bc e5e9 9c3c
00000250: 8dbc 583a 98ad 203c 55d2 703c 249c 18bc
00000260: 99ec 793b 8e62 ad3b 0360 143c 9ef5 cbbb
00000270: 1d6b acbb 7631 7ebb f774 86bb 1050 e23b
00000280: 4d3c 48bb e853 68bb da64 81bb d405 923c
00000290: cf45 c43a f72b 84ba f6b1 8037 5917 4c3c
000002a0: 3b66 c73a d797 d03b 554d ff3b ad9f 8c3a
000002b0: 6131 92bc c00b 36bc 3489 54bc 8443 0739
000002c0: c567 dd3b de9c 343c 7b78 363c 9c21 f9bc
000002d0: ed4d 543b e00a 40ba b703 5cbc 3755 dfbb
000002e0: ce27 a03c 3dc4 773c d4e4 363c 99ff 89bb
000002f0: b64e 353c d531 b33b 741b 03bc e1bc f43b
00000300: c151 cbbc c391 96bc d12b 71bc 5a44 233c
00000310: 4bf1 4b3c 8668 9e3c edd0 353c 58b4 9e3c
00000320: e7de 483c 5bf0 2d3c 283b 9c3b c134 a5bc
00000330: 92de aaba 986c 823b 0a7d 15bc 31b7 953b
00000340: 3bef 3bbc b9a0 debb 2f11 49bc 105b dbbc
00000350: dd61 18ba 02de 1aba ecf4 043b faee dbbc
00000360: 3473 88bc c56a 0cbc b564 9eba e39d acbc
00000370: 3100 f8bb 45be 5bbb 52e6 92bb 9b1d 58bc
00000380: 2def 3fbc 4aa3 4dbc 59b5 a6bc e05f 193c
00000390: 5a48 f5bb a24b f1bb 145d 00bc 2a8c 14bd
000003a0: b594 05bc 3dcd 27bc 7bf7 50bc 10df 20bc
000003b0: f8c8 133c 3baf 5638 86b5 61ba a217 af3c
000003c0: 4b95 8bbb bfd4 39bb 114c a8bb f8e2 8bb9
000003d0: 90e2 74bb 7dc9 b6bb 0683 3bbc dc94 4abc
000003e0: 4850 cebb 6dce 20bc f4c9 45bc bd73 d03c
000003f0: 2ae0 293c cffe 413c 6231 4d3c 8c63 8f3c

graphconv1.linear_edge.weight_orig f4 [256, 10]
-2.0002494 -0.913988 0.7646035 -0.7304259 2.177476 -0.500163 -1.5033127 0.7444773
-0.4067518 0.029333407 1.584207 1.6881168 1.4796761 0.19764154 -1.4897267 0.95826197
-0.09970031 -0.057373147 0.21568958 0.10526115 0.76058936 -0.27459285 0.220573 -0.25528425
1.5576752 0.15737285 1.6163568 -0.061419353 0.8802802 -2.0070472 0.2250381 0.3884143
-0.4613724 0.23178916 0.64683914 -0.123685375 1.4141934 0.88597655 1.0979111 2.254372
0.08043987 0.0055653243 0.30127752 1.1804264 1.0079473 1.2980307 1.0933704 0.34834993
0.91263866 -1.2154018 -0.93297595 -0.24391653 0.87738055 0.7474957 -0.051374882 -1.2586406
-2.459412 0.677134 -1.3736778 -0.84836864 -1.0132295 0.1591643 0.12095157 -0.28393435
0.7349112 1.0884538 0.49089375 -0.5224599 -1.603344 -1.1383625 0.6518527 0.7262101
-2.711948 -2.6661866 -0.25541666 0.38018036 2.1736743 0.14046444 -0.2593406 0.21642712
1.3716443 0.5640302 0.8501547 -1.1060255 -0.7833811 0.13627145 -0.833578 1.5613673
-0.98059183 0.052811068 -0.6980237 1.9509766 -0.40401122 0.8298524 -0.84600407 0.09676424
0.5840002 0.611495 -1.8117242 0.04284855 -0.10576904 -0.13852356 -1.024831 0.049614508
-0.27176934 -0.5365514 -0.3010789 1.4220152 -0.55566686 -1.2846053 2.749616 0.18313079
-0.002541482 -0.5511225 0.69545114 0.058421724 -1.1090746 1.15774 1.3870689 -1.4570312
0.63426167 0.70901185 -1.1544216 -1.6075581 0.4434164 2.0190563 0.2611463 -0.26154062
0.4921832 -0.3814774 -1.0479634 -0.09989907 -1.9512192 1.0407829 0.07472719 -0.018886006
0.39700934 1.0135896 0.21166876 -0.21758501 0.22033791 0.15854608 0.08696634 0.28416422
1.6209579 0.38909853 -0.28352857 -0.37090892 -0.47823882 1.0044503 -0.39533758 -0.11028599
-1.3833164 1.0847535 -0.10708377 0.73599297 -0.2722455 0.7977217 1.0392398 -1.0236019
-0.6111312 0.7481895 -0.94405955 0.45109698 0.032794263 0.8593403 0.8621666 0.6447359
-0.10570326 0.2254528 0.529747 0.18925723 -0.6100588 -0.27843052 0.6793322 0.77992773
-2.7366834 -0.7415617 1.4736235 -0.5750405 0.46710473 0.8924438 1.3150681 1.6939358
0.9879182 -1.992095 0.6498068 -0.30589876 1.3933896 -0.6703147 1.5620625 0.7388513
-0.38221768 -0.75439984 -0.13941635 0.070887074 -1.339602 -0.35845914 -0.6176019 -1.0434797
0.036241043 0.5884898 -1.2196208 -1.0956075 0.83569443 0.048890185 0.3003086 -0.3506091
-0.6819536 0.9526416 -0.5512802 -0.34020156 1.8034955 0.6010657 -0.89257395 0.35154152
0.49003205 0.37261268 0.10999251 2.224454 0.57655585 -0.06463845 -0.91041934 -0.55842257
-1.3021033 0.5524878 0.17731129 1.5556735 1.8293998 0.9651029 0.71389973 2.1493244
0.35983834 1.0551702 -0.7777265 -0.08205822 -0.3560156 -0.6277037 -0.22789991 0.033857293
-0.66772205 -1.9581794 -0.24789327 0.026913537 0.42362285 1.063059 0.884063 -0.798376
1.3376203 1.3074659 -0.60484415 1.3857682 -0.82518214 0.2565356 1.3327059 -0.9790699
00000000: 1604 00c0 1efb 69bf 0ebd 433f 31fd 3abf
00000010: c45b 0b40 af0a 00bf 8d6c c0bf 1096 3e3f
00000020: c641 d0be 9d4c f03c 4cc7 ca3f 3614 d83f
00000030: 0766 bd3f 8b62 4a3e 5daf bebf a850 753f
00000040: ad2f ccbd 1b00 6bbd bbdd 5c3e 2893 d73d
00000050: fcb5 423f 6f97 8cbe e3dd 613e 9eb4 82be
00000060: e761 c73f 5926 213e c8e4 ce3f dc92 7bbd
00000070: 0b5a 613f 7673 00c0 6370 663e 3dde c63e
00000080: 0139 ecbe 235a 6d3e 4097 253f c24e fdbd
00000090: 4a04 b53f 5ccf 623f 5a88 8c3f a147 1040
000000a0: a9bd a43d 535d b63b 0c41 9a3e 3618 973f
000000b0: 6b04 813f df25 a63f 90f3 8b3f ec5a b23e
000000c0: b0a2 693f 4992 9bbf 83d7 6ebf 41c5 79be
000000d0: 039c 603f e15b 3f3f 786e 52bd 231b a1bf
000000e0: 0267 1dc0 a758 2d3f add4 afbf b02e 59bf
000000f0: 81b1 81bf f7fb 223e 75b5 f73d d85f 91be
00000100: 2423 3c3f 7452 8b3f 6d56 fb3e efbf 05bf
00000110: 603a cdbf ddb5 91bf d2df 263f e8e8 393f
00000120: 8e90 2dc0 cda2 2ac0 f9c5 82be 00a7 c23e
00000130: 7b1d 0b40 e9d5 0f3e 4bc8 84be 129f 5d3e
00000140: 0a92 af3f 4864 103f bda3 593f 3e92 8dbf
00000150: aa8b 48bf be8a 0b3e 5e65 55bf e2da c73f
00000160: 1108 7bbf 6b50 583d aeb1 32bf 9ab9 f93f
00000170: 8fda cebe 3571 543f b993 58bf 542c c63d
00000180: 0981 153f f08a 1c3f 94e6 e7bf f681 2f3d
00000190: 709d d8bd 1fd9 0dbe aa2d 83bf 9538 4b3d
000001a0: 5a25 8bbe 6f5b 09bf 0327 9abe 9804 b63f
000001b0: 2f40 0ebf f26d a4bf b5f9 2f40 a386 3b3e
000001c0: fe8e 26bb 5d16 0dbf 1609 323f 9e4b 6f3d
000001d0: 28f6 8dbf d330 943f 798b b13f 0080 babf
000001e0: f95e 223f cd81 353f 16c4 93bf 77c4 cdbf
000001f0: 7907 e33e 3838 0140 f8b4 853e a7e8 85be
00000200: 70ff fb3e 0151 c3be aa23 86bf e297 ccbd
00000210: 8dc1 f9bf 6038 853f 920a 993d d3b6 9abc
00000220: cf44 cb3e 4ebd 813f b2bf 583e 9bce 5ebe
00000230: 43a0 613e e759 223e 691b b23d f97d 913e
00000240: 8c7b cf3f ec37 c73e a82a 91be c6e7 bdbe
00000250: b8db f4be d491 803f b069 cabe 9fdd e1bd
00000260: 8310 b1bf 34d9 8a3f bc4e dbbd 096a 3c3f
00000270: c363 8bbe 7d37 4c3f cf05 853f 6305 83bf
00000280: 1873 1cbf 5989 3f3f e3ad 71bf 2ff6 e63e
00000290: 4753 063d bafd 5b3f f3b6 5c3f 690d 253f
000002a0: f37a d8bd 19dd 663e 809d 073f a6cc 413e
000002b0: d02c 1cbf 728e 8ebe b7e8 2d3f 58a9 473f
000002c0: d225 2fc0 fdd6 3dbf b29f bc3f db35 13bf
000002d0: 5a28 ef3e 3277 643f 2754 a83f e3d2 d83f
000002e0: 35e8 7c3f f8fc febf bd59 263f c39e 9cbe
000002f0: 975a b23f bf99 2bbf aaf1 c73f 5c25 3d3f
00000300: 09b2 c3be 5920 41bf 29c3 0ebe 3e2d 913d
00000310: 1478 abbf f587 b7be 281b 1ebf be90 85bf
00000320: 7d71 143d 44a7 163f 891c 9cbf de3c 8cbf
00000330: 12f0 553f 1341 483d 0cc2 993e 0983 b3be
00000340: 8394 2ebf 52e0 733f b320 0dbf e62e aebe
00000350: f1d8 e63f 71df 193f ba7f 64bf 40fd b33e
00000360: 7be5 fa3e 17c7 be3e c143 e13d 745d 0e40
00000370: 2a99 133f 2a61 84bd 3e11 69bf c8f4 0ebf
00000380: 52ab a6bf d76f 0d3f 1791 353e 4f20 c73f
00000390: c629 ea3f fc10 773f 22c2 363f 888e 0940
000003a0: bb3c b83e d10f 873f 1519 47bf 240e a8bd
000003b0: ad47 b6be 31b1 20bf 985e 69be f2ad 0a3d
000003c0: d5ef 2abf 9fa5 fabf bcd7 7dbe c779 dc3c
000003d0: 18e5 d83e 5112 883f f451 623f 5f62 4cbf
000003e0: 2437 ab3f 0b5b a73f 11d7 1abf da60 b13f
000003f0: 233f 53bf a258 833e 1b96 aa3f 53a4 7abf

graphconv1.linear_edge.weight f4 [256, 10]
-0.104709774 -0.047845807 0.040026065 -0.038236957 0.11398794 -0.026182542 -0.07869645 0.038972203
-0.021292934 0.0015354117 0.082930714 0.08837027 0.07745883 0.0103467135 -0.07798527 0.05016294
-0.005218955 -0.0030029712 0.011291137 0.005510663 0.03981558 -0.014374749 0.011546584 -0.013363548
0.081542104 0.008237858 0.08461419 -0.003214993 0.04608151 -0.10506598 0.011785457 0.020334627
-0.024150725 0.012134107 0.03386124 -0.0064739655 0.07403084 0.046379495 0.057474084 0.11802407
0.004211122 0.00029129244 0.015771428 0.061793867 0.052764628 0.0679499 0.057236515 0.01823579
0.047775414 -0.063624494 -0.04883974 -0.012768523 0.045929786 0.039130177 -0.0026893527 -0.06588779
-0.12874696 0.035446845 -0.071910195 -0.04441111 -0.053041473 0.008331796 0.0063315094 -0.014863279
0.03847152 0.05697857 0.025697762 -0.027349776 -0.08393281 -0.05959147 0.03412882 0.038017344
-0.14196555 -0.13957043 -0.01337076 0.019901812 0.11378888 0.007353471 -0.013576094 0.01134196
0.07180286 0.0295259 0.044504274 -0.057898723 -0.04100899 0.0071332175 -0.043636553 0.081735656
-0.0513326 0.0027647854 -0.036540642 0.102130994 -0.02114943 0.04344156 -0.044287134 0.005065622
0.030571572 0.03201085 -0.094841294 0.002242995 -0.00553669 -0.007251378 -0.053648423 0.0025970805
-0.014226709 -0.028087446 -0.015761152 0.07444039 -0.029088432 -0.06724748 0.14393272 0.009584055
-0.00013541059 -0.028851183 0.036405813 0.0030572994 -0.058058195 0.060606193 0.072611235 -0.07628671
0.033202324 0.037115365 -0.06043266 -0.08415286 0.023212086 0.10569384 0.013670944 -0.013690712
0.025765227 -0.019969307 -0.054859012 -0.0052292543 -0.10214346 0.054483164 0.003911971 -0.0009879828
0.0207827 0.053059645 0.011080497 -0.011390623 0.011534301 0.008299599 0.0045525273 0.014875696
0.0848549 0.020368628 -0.0148422895 -0.01941649 -0.025035134 0.052581675 -0.020692207 -0.00577252
-0.072413996 0.056785587 -0.0056056646 0.038528483 -0.014251769 0.041759644 0.05440276 -0.053577166
-0.031992078 0.039166696 -0.04942022 0.023614231 0.0017167516 0.044985395 0.04513321 0.033750974
-0.005533433 0.011802089 0.027731048 0.009907004 -0.031935964 -0.014575023 0.035562 0.040827427
-0.14326142 -0.038819324 0.07714226 -0.030102214 0.024452558 0.046718422 0.06884214 0.08867496
0.051716235 -0.104283005 0.03401637 -0.016013637 0.07294199 -0.035090286 0.08176772 0.038676508
-0.020009723 -0.039491776 -0.0072983773 0.0037099195 -0.07012605 -0.018764516 -0.032330528 -0.054633092
0.0018968778 0.030806528 -0.06384554 -0.05735349 0.04374744 0.0025591934 0.015720785 -0.018353833
-0.035699323 0.049869556 -0.02885855 -0.017808884 0.094410636 0.0314647 -0.046724956 0.018403172
0.025652377 0.019505508 0.0057579093 0.1164469 0.030182058 -0.0033836155 -0.04765914 -0.029232807
-0.06816329 0.02892223 0.0092819305 0.08143724 0.09576656 0.05052169 0.03736812 0.11251324
0.018836185 0.05523655 -0.040712968 -0.0042960714 -0.018636785 -0.032859348 -0.011930213 0.0017647508
-0.03495418 -0.1025079 -0.012976805 0.0014087437 0.022176115 0.05564993 0.04627942 -0.04179403
0.07002257 0.06844393 -0.03166242 0.072543345 -0.04319699 0.013428941 0.06976542 -0.051252387
00000000: 1472 d6bd f7f9 43bd 5ff2 233d 5b9e 1cbd
00000010: 8272 e93d c57c d6bc 9b2b a1bd 51a1 1f3d
00000020: 856e aebc de3f c93a 94d7 a93d 79fb b43d
00000030: bca2 9e3d 4385 293c beb6 9fbd a877 4d3d
00000040: c503 abbb 7fcd 44bb 76fe 383c cb92 b43b
00000050: a915 233d 1184 6bbc e22d 3d3c c8f2 5abc
00000060: 8cff a63d 15f8 063c 344a ad3d a2b2 52bb
00000070: f7bf 3c3d d52c d7bd ca17 413c ce94 a63c
00000080: bed7 c5bc 22ce 463c 15b2 0a3d 8f23 d4bb
00000090: 7b9d 973d 6df8 3d3d f269 6b3d 9bb6 f13d
000000a0: 74fd 893b 9cb8 9839 1533 813c 911b 7d3d
000000b0: b91f 583d 5129 8b3d d670 6a3d 3963 953c
000000c0: 27b0 433d 8f4d 82bd 2e0c 48bd 1133 51bc
000000d0: df20 3c3d f746 203d da3f 30bb 2df0 86bd
000000e0: 3ed6 03be b630 113d a745 93bd 6de8 35bd
000000f0: 0442 59bd 1682 083c 8d78 cf3b 1c85 73bc
00000100: 5094 1d3d 5c62 693d 1d84 d23c a30c e0bc
00000110: f7e4 abbd 2f16 74bd a9ca 0b3d 13b8 1b3d
00000120: 6b5f 11be 8deb 0ebe 0811 5bbc 2009 a33c
00000130: 250a e93d 63f5 f03b 446e 5ebc a1d3 393c
00000140: 610d 933d 4de0 f13c 1d4a 363d 3627 6dbd
00000150: 0bf9 27bd c4bd e93b 3ebc 32bd 0665 a73d
00000160: 2242 52bd 6731 353b a4ab 15bd 0e2a d13d
00000170: 9241 adbc c7ef 313d 6d66 35bd 84fd a53b
00000180: 3c71 fa3c cf1d 033d 273c c2bd 36ff 123b
00000190: 1f6d b5bb f89c edbb 73be 5bbd c833 2a3b
000001a0: 2417 69bc a517 e6bc 881d 81bc 3474 983d
000001b0: dd4a eebc 0cb9 89bd 1963 133e 7106 1d3c
000001c0: 01fd 0db9 5159 ecbc 431e 153d f95c 483b
000001d0: 6ece 6dbd 333e 783d 33b5 943d 353c 9cbd
000001e0: 29ff 073d 4806 183d 3d88 77bd 5658 acbd
000001f0: 4627 be3c 0376 d83d 18fc 5f3c 024f 60bc
00000200: 9911 d33c ac96 a3bc d8b3 60bd 2a5a abbb
00000210: 9730 d1bd bd29 5f3d fe2f 803b 347f 81ba
00000220: 7b40 aa3c 1255 593d f98a 353c bc9f 3abc
00000230: 5dfa 3c3c 0bfb 073c 5e2d 953b 31b9 733c
00000240: 68c8 ad3d 1cdc a63c 132d 73bc 550f 9fbc
00000250: 7b16 cdbc e25f 573d b482 a9bc 6827 bdbb
00000260: ca4d 94bd 0198 683d b9af b7bb 0bd0 1d3d
00000270: 4080 69bc 290c 2b3d 6ed5 5e3d bb73 5bbd
00000280: 200a 03bd 426d 203d db6c 4abd a272 c13c
00000290: a004 e13a 9b42 383d 9add 383d 763e 0a3d
000002a0: cd51 b5bb 8d5d 413c 392c e33c fd50 223c
000002b0: 49cf 02bd 14cc 6ebc 76a9 113d a93a 273d
000002c0: 1fb3 12be 0301 1fbd c3fc 9d3d eb98 f6bc
000002d0: bb50 c83c d15b 3f3d 1cfd 8c3d 389b b53d
000002e0: 67d4 533d 5492 d5bd c054 0b3d 082f 83bc
000002f0: 9c62 953d d5ba 0fbd d675 a73d 426b 1e3d
00000300: 6eeb a3bc 21c2 21bd 3a27 efbb 1f22 733b
00000310: 3f9e 8fbd 0bb8 99bc 046d 04bd f3c6 5fbd
00000320: a8a0 f83a f95d fc3c 73c1 82bd 7eeb 6abd
00000330: 8430 333d 24b8 273b e0c8 803c c75a 96bc
00000340: 7439 12bd 0544 4c3d c468 ecbc f0e3 91bc
00000350: 5d5a c13d 21e1 003d ab62 3fbd 40c2 963c
00000360: ef24 d23c 04ca 9f3c d8ac bc3b b67b ee3d
00000370: 5d40 f73c a6bf 5dbb 3b36 43bd a479 efbc
00000380: 3299 8bbd 50ee ec3c 3d13 183c 91c8 a63d
00000390: 4221 c43d d5ef 4e3d 500f 193d 576d e63d
000003a0: 584e 9a3c b83f 623d a4c2 26bd 0fc6 8cbb
000003b0: 2cac 98bc 8697 06bd f176 43bc 364f e73a
000003c0: 1d2c 0fbd a9ef d1bd aa9c 54bc 98a5 b83a
000003d0: afaa b53c 2ef1 633d 7d8f 3d3d 3830 2bbd
000003e0: fe67 8f3d 552c 8c3d 74b0 01bd 9b91 943d
000003f0: 54ef 30bd 1005 5c3c 2ce1 8e3d 06ee 51bd

graphconv1.linear_edge.weight_u f4 [256]
0.034264628 -0.08691928 -0.04526 0.06886288 -0.02837513 0.038845874 -0.057226032 -0.03472375
-0.044631038 0.015317602 0.033052627 -0.07755613 -0.11583119 0.07777157 -0.016987786 0.018013379
0.012693941 -0.083778135 0.05117479 -0.09049219 -0.01545627 0.051543858 0.02861526 -0.03719183
0.027792208 0.06703244 -0.055976186 -0.030817151 -0.026051229 0.043921843 -0.0084800795 0.020934902
-0.0016439956 0.027767483 -0.060690988 -0.09056077 -0.120267026 0.022336353 -0.098078124 0.07583496
0.10096771 0.07919671 0.05281833 0.07630123 0.039221805 0.04617861 0.14522335 -0.04407219
-0.06719826 0.055482265 -0.060776446 -0.04812946 -0.07789944 -0.021316066 -0.07871564 -0.083225876
0.04650076 -0.00983302 -0.04869254 0.040026184 0.08114925 0.0897748 -0.09501851 -0.046373527
0.022589946 -0.021544812 0.021940503 0.075148396 0.013861191 0.040178515 0.026958201 0.088339314
0.024268448 0.11054144 0.0064380057 0.024529522 -0.07159606 0.026389677 -0.05556312 -0.008049755
0.038942993 0.034774378 -0.0961245 0.08417399 -0.010382991 -0.055120558 -0.012808794 -0.020979712
0.022740582 0.035098188 -0.08563731 -0.08150711 -0.0710387 -0.015287045 0.07252104 0.06656897
-0.020823713 -0.031763054 -0.009647959 -0.040046263 0.070647076 -0.07094585 -0.0697229 0.041628223
0.08141386 -0.10174221 0.10809002 -0.072692014 0.02570767 0.117345475 -0.03476433 0.09408483
-0.0043796073 -0.017310333 0.121541835 -0.029923575 -0.017263342 0.06279121 -0.034291748 -0.0554855
0.058245864 0.014580437 -0.051452424 -0.010256656 0.04104648 -0.04150487 0.08095746 -0.08156244
0.09439676 0.09719817 0.034993686 0.09361393 -0.07768356 -0.048908282 -0.06995629 -0.00516017
-0.07830133 0.028870368 0.12749366 0.035185438 0.08401773 0.08426329 0.0027439285 -0.0027353868
-0.028514845 -0.02711624 0.023430362 0.005360022 -0.063012615 0.0054586018 -0.05062751 -0.050043155
0.01284722 -0.057238895 0.10434195 0.013292828 0.103038356 0.007932895 0.035378095 0.11741418
-0.04426177 0.005245241 0.04995401 -0.089221016 0.09362588 0.018172296 -0.09335014 0.064404525
-0.0009360349 -0.013577868 -0.019318504 0.014721581 0.11196369 -0.015637223 0.0686936 0.026736513
-0.186512 0.04382023 -0.047161937 -0.052497342 0.041175347 -0.08095457 -0.05589446 -0.068892695
-0.08215113 0.055960003 -0.023726774 -0.08258338 0.088011734 0.032111384 0.07328658 0.025129778
0.059838556 0.048571035 0.06466706 0.020034254 -0.11353409 -0.03420759 0.07763632 0.0022538924
-0.031637628 0.055582292 -0.04011763 -0.02591213 0.01195138 0.11187087 -0.04241395 0.035374027
0.039955437 -0.01993103 -0.060881235 0.046951134 0.050531805 0.036240496 0.077594906 -0.036995437
-0.023286402 -0.042127226 -0.014999093 -0.018692495 -0.049949463 -0.041262202 0.1245487 -0.042400707
0.065196134 0.020453028 -0.039916325 0.09346907 0.08623283 -0.13605362 -0.058754306 -0.1128129
-0.04671817 -0.10372647 0.024693897 -0.0472739 0.14049052 0.06889323 0.027922047 -0.040958222
-0.088658944 0.009963528 -0.07100508 -0.011751036 0.06089255 0.0018249436 -0.10618641 -0.007177519
0.08264842 -0.02869715 -0.15373603 -0.013307496 -0.018792056 -0.027036808 0.022100303 -0.036383335
00000000: 1159 0c3d bc02 b2bd 8d62 39bd fb07 8d3d
00000010: f672 e8bc da1c 1f3d d865 6abd 7e3a 0ebd
00000020: 09cf 36bd aef6 7a3c 3162 073d c0d5 9ebd
00000030: e738 edbd b346 9f3d f829 8bbc cb90 933c
00000040: 3ffa 4f3c df93 abbd a89c 513d f853 b9bd
00000050: 4c3c 7dbc a71f 533d 8d6a ea3c 7656 18bd
00000060: 7cac e33c 4e48 893d 4947 65bd 4074 fcbc
00000070: 6369 d5bc 64e7 333d 08f0 0abc ac7f ab3c
00000080: 577b d7ba a278 e33c 1d97 78bd ed77 b9bd
00000090: 8f4e f6bd bafa b63c 2fdd c8bd 5c4f 9b3d
000000a0: 29c8 ce3d e231 a23d 0858 583d d243 9c3d
000000b0: 0ba7 203d c825 3d3d 6eb5 143e 0a85 34bd
000000c0: 3e9f 89bd 5f41 633d b9f0 78bd 6623 45bd
000000d0: be89 9fbd 089f aebc aa35 a1bd 5472 aabd
000000e0: 9577 3e3d ad1a 21bc d471 47bd 7ff2 233d
000000f0: 9431 a63d dadb b73d 1199 c2bd 2bf2 3dbd
00000100: 8d0e b93c bf7e b0bc 92bc b33c 67e7 993d
00000110: 0d1a 633c 3a92 243d 72d7 dc3c 3eeb b43d
00000120: a0ce c63c 8d63 e23d e8f5 d23b 23f2 c83c
00000130: f5a0 92bd 2a2f d83c 2796 63bd 1fe3 03bc
00000140: b082 1f3d 946f 0e3d ecdc c4bd 6a63 ac3d
00000150: 6c1d 2abc 18c6 61bd fadb 51bc a5dd abbc
00000160: 754a ba3c 1ec3 0f3d 9d62 afbd 33ed a6bd
00000170: bd7c 91bd 8476 7abc e985 943d 5055 883d
00000180: 7e96 aabc fa19 02bd 7912 1ebc 8d07 24bd
00000190: 6aaf 903d 0f4c 91bd e1ca 8ebd 5b82 2a3d
000001a0: 4fbc a63d 385e d0bd 4d5e dd3d 8ddf 94bd
000001b0: e498 d23c d352 f03d 0b65 0ebd 8caf c03d
000001c0: cf82 8fbb 66ce 8dbc edea f83d 4922 f5bc
000001d0: da6b 8dbc ae98 803d 8175 0cbd c344 63bd
000001e0: 3793 6e3d c9e2 6e3c c7bf 52bd 890b 28bc
000001f0: 5b20 283d 0301 2abd 06cd a53d 350a a7bd
00000200: 1753 c13d d60f c73d 8a55 0f3d a9b8 bf3d
00000210: 8f18 9fbd 0d54 48bd 3e45 8fbd a516 a9bb
00000220: 735c a0bd 8d81 ec3c b38d 023e 9b1e 103d
00000230: 7d11 ac3d 3b92 ac3d 7bd3 333b 2d44 33bb
00000240: f797 e9bc e022 debc 08f1 bf3c 20a3 af3b
00000250: c20c 81bd 12de b23b cb5e 4fbd 0dfa 4cbd
00000260: 257d 523c 5573 6abd 3bb1 d53d 29ca 593c
00000270: c605 d33d f9f8 013c 9fe8 103d d876 f03d
00000280: d44b 35bd 45e0 ab3b 939c 4c3d 82b9 b6bd
00000290: edbe bf3d 11de 943c 5c2e bfbd 85e6 833d
000002a0: 3d60 75ba b575 5ebc d741 9ebc c932 713c
000002b0: 384d e53d a219 80bc 3baf 8c3d 8806 db3c
000002c0: 00fd 3ebe d77c 333d e02c 41bd 7407 57bd
000002d0: 7ba7 283d 82cb a5bd 97f1 64bd 9d17 8dbd
000002e0: da3e a8bd 5136 653d a75e c2bc 7a21 a9bd
000002f0: 7f3f b43d 3a87 033d 4617 963d f7dc cd3c
00000300: 4619 753d 6cf2 463d 2a70 843d e01e a43c
00000310: 9084 e8bd 421d 0cbd caff 9e3d 0ab6 133b
00000320: 7596 01bd 42aa 633d 6252 24bd ad45 d4bc
00000330: b9cf 433c 8e1c e53d 40ba 2dbd 5be4 103d
00000340: 50a8 233d 6646 a3bc 9a5e 79bd d54f 403d
00000350: 70fa 4e3d ea70 143d 14ea 9e3d 8788 17bd
00000360: 20c3 bebc 998d 2cbd c1be 75bc 0121 99bc
00000370: cf97 4cbd 8e02 29bd 6413 ff3d 5dac 2dbd
00000380: 8d85 853d 1c8d a73c 4d7f 23bd b66c bf3d
00000390: d79a b03d a451 0bbe 5ba8 70bd 730a e7bd
000003a0: 8d5b 3fbd 8b6e d4bd db4a ca3c 47a2 41bd
000003b0: bfdc 0f3e e517 8d3d c7bc e43c cfc3 27bd
000003c0: d292 b5bd 113e 233c 1d6b 91bd 6b87 40bc
000003d0: 776a 793d f232 ef3a 4378 d9bd 6531 ebbb
000003e0: 9343 a93d 4916 ebbc fa6c 1dbe af07 5abc
000003f0: ccf1 99bc 4c7c ddbc b20b b53c b106 15bd

graphconv.0.linear_edge.bias f4 [256]
0.0029891015 0.00752797 -0.006842825 -0.044972967 0.012636429 0.008340894 -0.0048185526 -0.040763576
-0.012610447 -0.0075383573 -0.0054406314 0.0010583255 5.1110896e-05 0.0027659654 0.006075416 -0.00031455114
0.0013835297 0.0058081904 -0.009675346 -0.038104303 0.012441111 0.016918914 0.01859582 -0.0009756355
0.0015372875 -0.0036106755 -0.007878692 -0.0002691613 -0.0027867237 -0.00073442963 -0.0064411242 -0.055119164
-0.020987427 -0.012190605 -0.01136523 0.0036050507 -0.0011330257 -0.0022292403 0.004159721 0.00061654137
0.0012935773 0.005521316 0.0016606344 -0.00024055394 0.0019067563 0.0015487566 -0.009101788 -0.0477033
0.0072178305 0.0018130515 -0.0071142307 -0.0038525735 -0.0020572846 -0.0011487181 0.0038401266 0.00076758163
-0.012251314 -0.0036934419 -0.004283383 0.0011084714 -0.005419607 -0.008465946 -0.0048774667 0.0014055603
-0.0057240464 -0.0049565807 0.00092409615 0.0010222475 0.0024082349 0.007007942 -0.007213376 -0.046515316
0.0018584663 -0.003585093 -0.0038423878 -0.00024984754 -0.0006784192 0.0038305758 -0.012941448 -0.061248492
0.00019962419 -6.776163e-05 -0.007312461 -0.00028914056 -0.000642949 -0.009281431 -0.0020887495 0.00036391837
-0.009428561 -0.010488406 -0.0041859676 0.0010599322 -0.00177748 0.0012687354 -0.014677908 -0.061023373
0.002074021 0.002925652 0.0023284303 -0.00025913102 -0.007661273 0.00059958437 -0.0067116683 0.0022959718
-0.0037652554 -0.012930372 -0.008877842 0.0009523671 0.0047839414 0.0021913443 -0.014015852 -0.045961026
0.003678349 0.00041593573 -0.0065843356 -0.046140976 0.0018803753 0.0038548687 0.0010900788 7.793494e-05
0.001329194 0.0006859493 -0.010937934 -0.04981496 -0.014318212 -0.017783517 -0.0006102977 0.035579067
-0.008644825 -0.0028450084 -0.005041528 -0.0002944357 -0.00189022 0.0001639855 0.0022079465 8.988868e-06
0.0028727192 -0.00025213556 -0.0139999 -0.05224463 -0.0032666055 -0.0022783433 -0.005433099 0.00017575301
-0.005067848 -0.0042645694 0.00042712397 0.0014008662 -0.016128318 -0.015286771 -0.006156656 0.028833551
-0.010043589 -0.010994827 -0.0042607244 0.0008208896 -0.0011677312 -0.006735188 -0.00729861 0.00031160744
-0.0026172516 -0.0044575147 -0.0013578772 0.0004908718 -0.00016220933 0.0026464954 -0.003938534 0.00023305001
-0.003178453 -0.0011502675 0.00081042515 0.001217698 -0.0065465015 -0.0076874336 0.005082676 0.00032944357
0.0023923866 0.007169906 -0.0071525904 -0.046594057 0.0010958503 -0.0076519516 -0.006298756 -0.00039964524
0.0014163438 0.0055528996 0.0012976802 -0.00012270907 0.010588459 0.00849682 -0.011318214 -0.04764177
0.0033614158 0.0034615172 0.0019179049 -0.00046976883 -0.016472833 -0.0141503345 -0.009983191 0.0035346013
0.008302625 0.0042450815 -0.005885825 -0.01935602 0.010103445 0.005625575 -0.012369407 -0.043876942
-0.031722173 -0.016908664 -0.012636536 0.0056193033 0.00020540202 0.00030472752 -0.00025622005 -0.00012202544
-0.012349447 -0.0065927804 -0.005115513 0.0011833338 0.0015052115 0.006093233 0.003122807 -0.00044453994
0.00022204155 -0.0010474154 0.0028720978 0.00019910147 0.01535969 0.021440944 0.025717152 -0.0014913541
0.0009245319 -0.0035575032 -0.008009408 0.0004224762 -0.0019711405 0.006021993 0.0069350796 0.0006240497
0.0039370675 0.0037331756 -0.0047709276 -0.04225898 -0.004811136 -0.0043410165 0.00067120895 0.0011469459
-0.0004995565 -0.00453573 0.0010606708 0.00019424479 -0.00678997 0.006374132 -0.0140741225 -0.06126222
00000000: cde4 433b 30ad f63b c739 e0bb 9335 38bd
00000010: 0609 4f3c 3fa8 083c f3e4 9dbb b5f7 26bd
00000020: 0c9c 4ebc 5304 f7bb 5347 b2bb 83b7 8a3a
00000030: e85f 5638 3345 353b 4914 c73b 57ea a4b9
00000040: 8e57 b53a a252 be3b 5885 1ebc 4213 1cbd
00000050: cdd5 4b3c 8999 8a3c 4356 983c cac1 7fba
00000060: cf7e c93a 15a1 6cbb a115 01bc 381e 8db9
00000070: 77a1 36bb bd86 40ba 1110 d3bb a2c4 61bd
00000080: d3ed abbc 1abb 47bc 3b35 3abc b742 6c3b
00000090: 0982 94ba 7218 12bb 454e 883b 649f 213a
000000a0: 408d a93a 28ec b43b a5a9 d93a 353d 7cb9
000000b0: 20ec f93a a6ff ca3a aa1f 15bc 8964 43bd
000000c0: 8d83 ec3b eaa3 ed3a 7e1e e9bb 757b 7cbb
000000d0: 82d3 06bb 9590 96ba a2aa 7b3b 8837 493a
000000e0: bcb9 48bc ac0d 72bb 9f5b 8cbb 214a 913a
000000f0: f596 b1bb c0b4 0abc 28d3 9fbb c73a b83a
00000100: c890 bbbb d06a a2bb 0b3f 723a effc 853a
00000110: 7ad3 1d3b e1a2 e53b 2f5e ecbb d886 3ebd
00000120: c897 f33a e1f3 6abb 92d0 7bbb f8fd 82b9
00000130: f1d7 31ba 660a 7b3b 5e08 54bc b3df 7abd
00000140: 3652 5139 401b 8eb8 5e9d efbb ca97 97b9
00000150: 948b 28ba 2511 18bc 67e3 08bb 4ccc be39
00000160: 407a 1abc 90d7 2bbc 712a 89bb 6ced 8a3a
00000170: 55fa e8ba b24b a63a 9c7b 70bc a5f3 79bd
00000180: 4cec 073b 4cbc 3f3b 9498 183b fadb 87b9
00000190: 6a0b fbbb 6d2d 1d3a 8eed dbbb 0478 163b
000001a0: 81c2 76bb e9d9 53bc 5e74 11bc 46a8 793a
000001b0: 9cc2 9c3b a89c 0f3b bea2 65bc a141 3cbd
000001c0: 7510 713b f311 da39 69c1 d7bb 52fe 3cbd
000001d0: ed76 f63a f7a1 7c3b fae0 8e3a 0171 a338
000001e0: 5a38 ae3a 47d1 333a 0535 33bc c60a 4cbd
000001f0: ef96 6abc bdae 91bc 63fc 1fba 5bbb 113d
00000200: 06a3 0dbc 5273 3abb 6733 a5bb 7e5e 9ab9
00000210: 42c1 f7ba 86f3 2b39 32b3 103b e5ce 1637
00000220: 3b44 3c3b 1031 84b9 d65f 65bc 77fe 55bd
00000230: 8c14 56bb 4250 15bb 2308 b2bb 574a 3839
00000240: 3110 a6bb cdbd 8bbb 9cef df39 459d b73a
00000250: 891f 84bc 5d75 7abc c6bd c9bb 5734 ec3c
00000260: de8d 24bc a623 34bc 8c9d 8bbb f830 573a
00000270: 8f0e 99ba dab2 dcbb 2e29 efbb 3e5f a339
00000280: 3286 2bbb 5810 92bb ccfa b1ba d9ad 003a
00000290: bc16 2ab9 d370 2d3b d10e 81bb e35e 7439
000002a0: 984d 50bb 93c4 96ba b672 543a 2a9b 9f3a
000002b0: 0984 d6bb dee6 fbbb 948c a63b 2bb9 ac39
000002c0: 96c9 1c3b 88f1 ea3b 4760 eabb 69d9 3ebd
000002d0: a2a2 8f3a 39bd fabb cc65 cebb 7a87 d1b9
000002e0: 9da4 b93a 19f5 b53b ec16 aa3a 77ab 00b9
000002f0: 377b 2d3c 3f36 0b3c 0870 39bc 0424 43bd
00000300: 334b 5c3b 9fda 623b 3662 fb3a 4e4b f6b9
00000310: 09f2 86bc ced6 67bc 8a90 23bc c5a4 673b
00000320: bc07 083c 531a 8b3b e1dd c0bb 8490 9ebc
00000330: eb88 253c be56 b83b 0ea9 4abc 4fb8 33bd
00000340: 1cef 01bd 0a84 8abc 7909 4fbc 2222 b83b
00000350: 2f61 5739 d6c3 9f39 4655 86b9 e9e7 ffb8
00000360: 5655 4abc 4008 d8bb 09a0 a7bb 181a 9b3a
00000370: 844a c53a bea9 c73b 02a8 4c3b 2411 e9b9
00000380: d3d3 6839 6e49 89ba ce39 3c3b e5c5 5039
00000390: 36a7 7b3c eba4 af3c c7ac d23c 8a79 c3ba
000003a0: 495c 723a 0025 69bb e439 03bc cc7f dd39
000003b0: 402e 01bb 2354 c53b aa3f e33b 4497 233a
000003c0: 8402 813b 4ba8 743b 7155 9cbb c117 2dbd
000003d0: bca6 9dbb 163f 8ebb 12f4 2f3a 1e55 963a
000003e0: abf4 02ba 76a0 94bb 3506 8b3a 30ae 4b39
000003f0: 667e debb 18de d03b 2697 66bc 18ee 7abd

graphconv.0.linear_edge.weight_orig f4 [256, 64]
-0.007908256 -0.010580637 0.023888584 -0.007368751 0.009149753 0.0036662812 0.007358545 -0.00553594
-0.00064100086 -0.0063108695 -0.0010058938 0.006906943 0.00470694 -0.0040843813 0.0027845767 0.015109159
-0.003944125 0.0008938584 -0.0036266986 0.00044155473 -0.0119164325 0.003848312 -0.005232765 -0.0025319133
-6.0854705e-05 -0.0001510586 0.0034842715 -0.0017387695 -0.007986391 -0.0056155575 -0.0055675358 0.010911778
0.011245952 -0.0051916023 -0.0035940718 -0.0061869062 -0.0044849818 -0.007234351 -0.011878687 0.005693641
-0.0026628394 -0.004450299 -0.016004497 0.00035479743 0.0057473714 0.0125734825 0.00624661 0.01587702
0.0035043028 -0.006628611 0.008816482 0.00835235 0.0116624385 -0.0057315375 -0.000251201 0.0034282352
-0.004221313 -0.0031755797 0.0019903844 -0.009800917 -0.0031489045 0.009788076 -0.0010698285 -0.008542578
-0.0037840717 0.0005036258 0.021678254 -0.00072497217 0.008357538 0.010320601 0.011529151 -0.002392348
-0.006531404 -0.0015981398 0.0006617593 0.0025147113 0.0077014486 0.0030901637 -0.0008648925 0.0052889423
0.0014627805 0.0028520897 -0.0011758205 -0.0042807073 -0.009906034 0.003072924 -0.00186355 -0.00055997644
0.0048974035 -0.0055028936 -0.0047756718 -0.0009417563 -0.0050554504 0.00084069656 -0.008103981 0.014021343
0.012145718 -0.0022139638 -0.0039221933 -0.001000257 -0.011261914 0.00037853516 -0.0043940623 0.007243387
-0.0017869995 -0.0064310427 -0.001296189 0.0047972067 0.0075793983 0.01298819 -0.00062620756 0.00937731
-0.0010717671 0.002926133 0.0024923868 0.012584048 0.0023041423 0.0017649741 0.0031057785 0.006037915
-0.0064921 0.009230978 0.0073432606 -0.002800139 0.0045361626 0.0046549407 -0.0011234679 -0.00097177917
-0.0047172364 -0.006060626 0.013666941 -0.00022660842 0.0036088557 0.006211023 0.0077213347 -0.00084598345
-0.0030200684 -0.002366813 -0.002535265 0.004179134 -0.005134911 0.00019839076 0.008786502 -0.0053043333
0.0016347927 0.0033395274 0.0009309055 -0.004231825 -0.0057750526 0.0053259837 0.0017876993 -0.002006437
-0.0030285693 -0.0055245636 0.0037758616 0.008260179 -0.0047867293 0.0030695805 -0.0016155833 0.015061287
0.0052861366 -0.0012269696 0.0034556312 0.004508608 -0.001795425 -0.002451765 -0.00056526816 0.00042932338
-0.0019114452 -0.00883211 0.004435668 0.0024704977 -0.0011417875 0.007849879 0.0007308691 -0.005116869
0.005055655 -0.0015743012 0.0031598902 -0.00027608487 0.0053127124 -0.0005970127 -0.002918156 0.00046764105
-0.006603917 -0.0029552164 0.00072892575 -0.0011556975 0.0012087143 0.0064048893 -0.0019125154 0.0021170222
0.0031567428 -0.009148985 0.012759187 -0.010844488 0.002714553 0.0009566316 0.0030699102 -0.0011798306
-0.00045495603 -0.005457246 -0.0047542695 -0.004554646 0.010843596 -0.0015456551 0.008686176 0.006458044
0.005272331 0.0050335205 -0.005487311 -0.006015199 -0.00058309146 0.0032004062 -0.0060456614 -0.0008723654
0.0017419427 0.0059651677 0.00736006 -0.00571407 0.0011149355 -0.0039394284 -0.0067720367 0.0064673545
0.008175396 -0.0023427142 -0.0014184143 -0.0062443507 -0.0042379685 -0.004204061 -0.003410126 -0.0042330483
-0.0031992877 0.0014758396 -0.010722068 0.0030673775 0.0056026275 -0.0032218385 0.018292539 0.011231555
0.00015735868 -0.009083615 0.010395366 0.00551919 0.002170586 -0.003256441 0.0019913395 -0.0037662575
-0.0019850347 -0.009405137 0.0034002475 -0.007840493 0.004461781 0.012509781 -0.004729392 -0.0045861267
00000000: a191 01bc 685a 2dbc feb1 c33c 9075 f1bb
00000010: d8e8 153c fe45 703b f31f f13b d566 b5bb
00000020: d708 28ba 69cb cebb 32d8 83ba a353 e23b
00000030: ad3c 9a3b 46d6 85bb 727d 363b 688c 773c
00000040: b83d 81bb d251 6a3a e8ad 6dbb 7980 e739
00000050: 243d 43bc f633 7c3b 9d77 abbb 75ee 25bb
00000060: 3e3e 7fb8 7c65 1eb9 6058 643b 6ce7 e3ba
00000070: 5ad9 02bc b602 b8bb e06f b6bb 50c7 323c
00000080: f140 383c 511e aabb 858a 6bbb 88bb cabb
00000090: c1f6 92bb 220e edbb d39e 42bc b991 ba3b
000000a0: 0883 2ebb d0d3 91bb dd1b 83bc 1b04 ba39
000000b0: 7254 bc3b 0201 4e3c 5db0 cc3b 8610 823c
000000c0: 72a8 653b d234 d9bb 0173 103c 4cd8 083c
000000d0: d013 3f3c 9fcf bbbb a1b3 83b9 3eac 603b
000000e0: f152 8abb 631d 50bb 1c71 023b 0694 20bc
000000f0: da5d 4ebb 2b5e 203c 7d39 8cba 2bf6 0bbc
00000100: 30fe 77bb c105 043a 9896 b13c 0f0c 3eba
00000110: 0eee 083c bd17 293c c4e4 3c3c f0c8 1cbb
00000120: 6305 d6bb ac78 d1ba ea79 2d3a dbcd 243b
00000130: 6f5c fc3b 5884 4a3b f4b9 62ba dd4e ad3b
00000140: c5ba bf3a 20ea 3a3b fd1d 9aba 2d45 8cbb
00000150: eb4c 22bc 1c63 493b 5d42 f4ba 62cb 12ba
00000160: 667a a03b 9e51 b4bb 3d7d 9cbb 32e0 76ba
00000170: 31a8 a5bb 3162 5c3a 8fc6 04bc c6b9 653c
00000180: d5fe 463c 2618 11bb be85 80bb 0e1b 83ba
00000190: e483 38bc 2176 c639 11fc 8fbb ef59 ed3b
000001a0: c139 eaba 7fbb d2bb e3e4 a9ba e331 9d3b
000001b0: 9a5c f83b 6bcc 543c 1428 24ba 4aa3 193c
000001c0: 897a 8cba 5ec4 3f3b 5057 233b 532d 4e3c
000001d0: 1801 173b b456 e73a 518a 4b3b b4d9 c53b
000001e0: afbb d4bb 873d 173c bc9f f03b 8982 37bb
000001f0: 17a4 943b 7988 983b 5441 93ba ffbe 7eba
00000200: 0c93 9abb 3798 c6bb 4eeb 5f3c bc9d 6db9
00000210: 8d82 6c3b d685 cb3b 4003 fd3b fdc4 5dba
00000220: 57ec 45bb 881c 1bbb b026 26bb 1ef1 883b
00000230: c142 a8bb 1d07 5039 43f5 0f3c f9cf adbb
00000240: 8a46 d63a f9db 5a3b 0308 743a 1fab 8abb
00000250: a73c bdbb 9785 ae3b 3c51 ea3a 6d7e 03bb
00000260: f67a 46bb 6607 b5bb 7274 773b b455 073c
00000270: ffd9 9cbb 042b 493b fbc1 d3ba 9ec3 763c
00000280: 5437 ad3b 45d2 a0ba df77 623b f2bc 933b
00000290: 7754 ebba caad 20bb 812e 14ba cf16 e139
000002a0: 7589 faba 8eb4 10bc 1459 913b 13e8 213b
000002b0: 08a8 95ba c79c 003c cc97 3f3a 69ab a7bb
000002c0: e8a9 a53b c858 ceba 2916 4f3b 7cbf 90b9
000002d0: 4316 ae3b d880 1cba 893e 3fbb b82d f539
000002e0: ac65 d8bb 4eac 41bb 6115 3f3a c67a 97ba
000002f0: b96d 9e3a 1be0 d13b 5ead faba bdbd 0a3b
00000300: 5be1 4e3b a0e5 15bc e90b 513c 14ad 31bc
00000310: a4e6 313b 76c6 7a3a 8c30 493b 8ca4 9aba
00000320: 2a87 eeb9 b3d2 b2bb b4c9 9bbb 243f 95bb
00000330: 57a9 313c 9497 caba 7650 0e3c 009e d33b
00000340: 85c3 ac3b 3bf0 a43b e7ce b3bb 251b c5bb
00000350: 9bda 18ba e8bd 513b af1a c6bb 73af 64ba
00000360: e651 e43a 7477 c33b a82c f13b 183d bbbb
00000370: 0723 923a 5216 81bb f6e7 ddbb 1aec d33b
00000380: 19f2 053c 3988 19bb 16ea b9ba 699d ccbb
00000390: a8de 8abb 38c2 89bb 6c7c 5fbb 62b5 8abb
000003a0: 24ab 51bb f670 c13a 9dab 2fbc 0e06 493b
000003b0: 3f96 b73b 7b25 53bb 3cda 953c 8e04 383c
000003c0: a600 2539 71d3 14bc 5351 2a3c 52da b43b
000003d0: 6440 0e3b 046a 55bb 2281 023b 51d3 76bb
000003e0: 5b17 02bb 0118 1abc b0d6 5e3b 6975 00bc
000003f0: 2234 923b d3f5 4c3c 04f9 9abb 3847 96bb

graphconv.0.linear_edge.weight f4 [256, 64]
-0.007942535 -0.010577163 0.023898521 -0.007358169 0.009159117 0.0036652682 0.00736884 -0.005538833
-0.0006395849 -0.0063173235 -0.0010017663 0.006920838 0.00472078 -0.004079804 0.0027721731 0.01511769
-0.003967632 0.0008886507 -0.0036236064 0.0004457705 -0.011916795 0.003868421 -0.005225351 -0.0025273464
-5.744637e-05 -0.00015372636 0.0034832172 -0.0017369398 -0.007997439 -0.0056419694 -0.0055618975 0.01091566
0.011248662 -0.0051854844 -0.0035964916 -0.006187473 -0.0044757505 -0.0072554033 -0.011886204 0.00569192
-0.0026583595 -0.004455421 -0.016007693 0.00035135093 0.0057761543 0.012581811 0.0062735146 0.015895667
0.003503369 -0.00663637 0.008847535 0.008376875 0.011665458 -0.005730653 -0.00025629715 0.0034360704
-0.004215565 -0.0031640884 0.0019947405 -0.00979387 -0.0031406335 0.009819037 -0.0010558604 -0.008548438
-0.0037911525 0.0005052253 0.021679299 -0.00072276633 0.008358709 0.010320067 0.011530637 -0.0023929763
-0.0065311557 -0.0015999237 0.00066263933 0.0025168054 0.0077039567 0.0030908613 -0.0008674449 0.0052899364
0.0014579322 0.0028514024 -0.0011756315 -0.0042797173 -0.009906257 0.0030771731 -0.0018620229 -0.000559018
0.004897685 -0.0055035236 -0.0047760727 -0.0009409091 -0.00505697 0.0008347984 -0.00810303 0.014022035
0.01214629 -0.0022130243 -0.003921773 -0.0010006467 -0.011259249 0.0003741267 -0.0043948223 0.0072430633
-0.0017861623 -0.0064319978 -0.0012964684 0.00479682 0.0075849514 0.0129894065 -0.00062069495 0.009380279
-0.0010719731 0.0029251494 0.002499064 0.012588947 0.0023049887 0.0017651021 0.0031053314 0.0060389317
-0.0064906557 0.009233132 0.007343762 -0.0027984309 0.00453747 0.004661481 -0.0011206593 -0.0009727444
-0.004716719 -0.006060632 0.01366695 -0.00022677856 0.0036088354 0.006211033 0.0077212164 -0.0008459247
-0.0030200882 -0.0023666746 -0.0025352966 0.004178983 -0.00513508 0.00019835404 0.008786622 -0.0053042793
0.0016350737 0.0033395372 0.0009308697 -0.004231861 -0.005775077 0.0053256433 0.0017876364 -0.0020064767
-0.003028461 -0.0055245114 0.0037758201 0.008260051 -0.004786721 0.0030700257 -0.0016155764 0.015061228
0.005286158 -0.0012269847 0.0034555667 0.0045085973 -0.0017956872 -0.002451433 -0.0005652519 0.00042933872
-0.0019115333 -0.008832094 0.004435671 0.0024704838 -0.00114222 0.007849835 0.0007304844 -0.00511705
0.005055619 -0.0015743149 0.003159403 -0.0002764702 0.0053126905 -0.00059700327 -0.0029181293 0.0004676136
-0.0066040163 -0.00295521 0.00072888914 -0.0011559096 0.0012086668 0.0064043906 -0.0019126824 0.0021170364
0.0028621932 -0.0090307 0.012921503 -0.010595748 0.0029426855 0.00092226604 0.0033297115 -0.0012829204
-0.000411186 -0.005639561 -0.0046007754 -0.0042351414 0.0111510875 -0.0012778434 0.008322142 0.0066179666
0.0049732397 0.0048129363 -0.005328683 -0.0057793716 -0.00060388044 0.0034534934 -0.005741975 -0.0006389837
0.0018093035 0.005766477 0.0072599025 -0.0056893704 0.00083108124 -0.004161918 -0.006537018 0.0066084065
0.008230514 -0.0021020588 -0.0014576674 -0.006297862 -0.0041129603 -0.0044579576 -0.0036584106 -0.004286187
-0.0030229066 0.0012510912 -0.010826776 0.002875898 0.005861519 -0.0029718594 0.018582592 0.011577648
0.000105734725 -0.00931627 0.01062861 0.0057685664 0.0023264147 -0.003238712 0.0017610632 -0.0035430873
-0.0018876587 -0.009053424 0.0036133188 -0.0077099907 0.0047190594 0.012758447 -0.0044892807 -0.004805921
00000000: 6821 02bc d64b 2dbc d5c6 c33c cc1c f1bb
00000010: 1f10 163c ff34 703b 4f76 f13b 197f b5bb
00000020: d1a9 27ba 8d01 cfbb b34d 83ba 32c8 e23b
00000030: c6b0 9a3b e0af 85bb 59ad 353b 30b0 773c
00000040: e902 82bb 57f4 683a 077a 6dbb 4eb6 e939
00000050: a93e 43bc 5685 7d3b 6c39 abbb d6a1 25bb
00000060: 92f2 70b8 9b31 21b9 b046 643b 07aa e3ba
00000070: b107 03bc 45e0 b8bb 9440 b6bb 99d7 323c
00000080: 4f4c 383c ffea a9bb 1eb3 6bbb 49c0 cabb
00000090: 51a9 92bb bcbe edbb 5abe 42bc 4983 ba3b
000000a0: df37 2ebb c8fe 91bb 9122 83bc 8635 b839
000000b0: e545 bd3b f123 4e3c 0e92 cd3b a137 823c
000000c0: c798 653b e875 d9bb 40f5 103c 293f 093c
000000d0: 7a20 3f3c 34c8 bbbb 9f5f 86b9 b22f 613b
000000e0: b922 8abb 985c 4fbb 31ba 023b 7876 20bc
000000f0: 16d3 4dbb 07e0 203c cc64 8aba bf0e 0cbc
00000100: fc74 78bb 1971 043a c998 b13c 0778 3dba
00000110: f7f2 083c 8015 293c ffea 3c3c 7bd3 1cbb
00000120: 4e03 d6bb 88b4 d1ba f9b4 2d3a fdf0 243b
00000130: 7971 fc3b 0c90 4a3b 3e65 63ba 3457 ad3b
00000140: 1618 bf3a 98de 3a3b a617 9aba df3c 8cbb
00000150: da4d 22bc 66aa 493b 1f0f f4ba 108b 12ba
00000160: c27c a03b e756 b4bb 9a80 9cbb 57a7 76ba
00000170: f0b4 a5bb 5fd6 5a3a 92c2 04bc adbc 653c
00000180: 3c01 473c 6308 11bb 3782 80bb 2228 83ba
00000190: b778 38bc 7026 c439 7102 90bb 3857 ed3b
000001a0: a91d eaba 82c3 d2bb 43ee a9ba a52e 9d3b
000001b0: 2f8b f83b 85d1 543c 22b6 22ba beaf 193c
000001c0: 7381 8cba ddb3 3f3b 56c7 233b df41 4e3c
000001d0: 4b0f 173b 005b e73a d182 4b3b 3be2 c53b
000001e0: 91af d4bb 9046 173c f1a3 f03b e165 37bb
000001f0: 0faf 943b 56bf 983b 16e3 92ba c6ff 7eba
00000200: b58e 9abb 4498 c6bb 58eb 5f3c 68cb 6db9
00000210: 3682 6c3b ec85 cb3b 4202 fd3b 0cc1 5dba
00000220: acec 45bb 361a 1bbb 3827 26bb daef 883b
00000230: 2c44 a8bb 42fd 4f39 c4f5 0f3c 85cf adbb
00000240: f84f d63a 23dc 5a3b 9c05 743a 6cab 8abb
00000250: db3c bdbb bc82 ae3b 204f ea3a 187f 03bb
00000260: 2579 46bb f606 b5bb c073 773b 2a55 073c
00000270: edd9 9cbb 7c32 493b c0c1 d3ba 5ec3 763c
00000280: 8237 ad3b c6d2 a0ba ca76 623b dbbc 933b
00000290: 445d ebba 39a8 20bb 6a2d 14ba de18 e139
000002a0: 6a8c faba 7db4 10bc 1b59 913b d7e7 213b
000002b0: 8bb6 95ba 989c 003c fa7d 3f3a edac a7bb
000002c0: 9ba9 a53b 3e59 ceba fd0d 4f3b 34f3 90b9
000002d0: 1416 ae3b 3680 1cba 163e 3fbb 092a f539
000002e0: 8166 d8bb 32ac 41bb ec12 3f3a e481 97ba
000002f0: 216c 9e3a ecdb d13b f9b2 faba fabd 0a3b
00000300: a293 3b3b 80f5 13bc b6b4 533c ca99 2dbc
00000310: 12da 403b 3ac4 713a 4a37 5a3b aa27 a8ba
00000320: 7394 d7b9 11cc b8bb 1ac2 96bb f1c6 8abb
00000330: 0db3 363c 4f7d a7ba 9859 083c 87db d83b
00000340: 8ff6 a23b d6b5 9d3b 3c9c aebb e260 bdbb
00000350: bb4d 1eba 0154 623b 2d27 bcbb 7881 27ba
00000360: 2726 ed3a b7f4 bc3b 7ae4 ed3b e66d babb
00000370: ebdc 593a b360 88bb 7b34 d6bb 558b d83b
00000380: 47d9 063c b2c2 09bb 340f bfba 4c5e cebb
00000390: 03c6 86bb 0f14 92bb f2c1 6fbb 2473 8cbb
000003a0: f51b 46bb a8fb a33a ca62 31bc 9079 3c3b
000003b0: fc11 c03b 87c3 42bb 853a 983c 2db0 3d3c
000003c0: e6bd dd38 45a3 18bc 9f23 2e3c 3e06 bd3b
000003d0: c376 183b 9240 54bb 7ad3 e63a 2433 68bb
000003e0: 516b f7ba d054 14bc 6ecd 6c3b 17a4 fcbb
000003f0: 57a2 9a3b ce08 513c d11a 93bb fd7a 9dbb
