models/energy_epoch_final.pt (torch, 293307 bytes, 13 tensors)

graphconv1.linear_edge.bias f4 [256]
000000 1e 31 c8 3b ab 99 9d 3b d1 11 06 3c 93 71 a3 39
       0.006109371 0.0048095784 0.008182959 0.00031174402
000010 ba c7 61 bc 93 55 1b bc 9a b7 45 bb b0 f1 a2 bc
       -0.013780529 -0.009480852 -0.003016925 -0.019890636
000020 78 8a b0 b8 9d 5b 89 3b 1b d6 05 bc ca 5f e6 bb
       -8.418126e-05 0.0041918294 -0.0081687225 -0.007030462
000030 1d a1 fa b9 23 b8 0c bc 85 7a 94 ba b7 2a 03 3d
       -0.00047803755 -0.0085888235 -0.0011328018 0.032023158
000040 4a 63 a9 bb 13 72 2a bb dc dd 14 bc b9 f3 09 bc
       -0.005169307 -0.0026007935 -0.0090860985 -0.008419924
000050 e9 a3 da bb 17 f9 52 bb 44 35 c8 bb 8e 34 4a bc
       -0.0066723716 -0.0032191926 -0.0061098654 -0.012341632
000060 25 02 42 3b 97 e8 41 bb 22 3b 9b bb 3a 1f 05 3c
       0.002960333 -0.0029588097 -0.004737274 0.008125121
000070 f4 5d e7 b9 f0 63 c8 bb f7 ef 22 3b a1 42 9c bc
       -0.00044129754 -0.006115429 0.0024862268 -0.01907474
000080 61 c3 b5 bb d8 9b e1 bb 4a 94 ba 3a da 5a 43 3c
       -0.0055469726 -0.006885033 0.0014234867 0.011923516
000090 14 8c 4a 3b ea 59 9e ba 5a 1c d3 ba be 90 19 bc
       0.0030906247 -0.001208124 -0.0016106472 -0.009372888
0000a0 35 dd b5 bc 45 9f b3 bc e5 fa a4 bc 68 ff 53 bb
       -0.022200206 -0.021926532 -0.020139167 -0.003234828
0000b0 68 da ec bb d0 26 9d bb fc 91 0b bc 25 f6 2f bb
       -0.0072281845 -0.0047958866 -0.008518692 -0.0026849594
0000c0 96 55 5b bb b4 cf f9 3b 4b fd e9 ba 2c 95 b1 3a
       -0.0033467761 0.007623637 -0.0017851976 0.0013548485
0000d0 5c 66 80 bb a2 fc 58 bb 47 bf d5 ba 54 fb 89 3a
       -0.003918452 -0.0033109565 -0.0016307615 0.0010527172
0000e0 c8 ba bd bc 91 0e e6 bc 83 06 91 bc b8 11 b8 bc
       -0.023160353 -0.028083118 -0.0177033 -0.022469386
0000f0 65 3c 0a bc 57 5f 7e bb c7 27 0a bc 14 43 d0 bb
       -0.008437251 -0.0038814151 -0.008432335 -0.0063556526
000100 65 65 88 bb 86 2f 0e bc 67 04 5f bc b0 ae e3 bc
       -0.004162478 -0.008678323 -0.013611889 -0.027793258
000110 94 e3 38 39 71 1f 65 bb 05 81 77 3b 57 9a e6 3b
       0.00017632387 -0.0034961367 0.003776611 0.0070374417
000120 3d 08 0c bc 1a 2e 08 bc 90 03 c5 bb c9 70 49 3b
       -0.008546886 -0.008311773 -0.0060123876 0.0030737391
000130 48 05 fc bb fd 11 f9 bb ad 74 59 bc 68 2a 26 3c
       -0.0076910593 -0.0076010213 -0.013272447 0.010141946
000140 ba 6f ec ba 8a f6 d1 bb ab 8c 6a bc 12 20 6e 3c
       -0.0018038668 -0.0064075636 -0.014315764 0.014534013
000150 0a a5 92 bb b9 41 8b bb 29 64 b4 bb ca 2e 02 3c
       -0.0044752406 -0.004249778 -0.005505104 0.007945726
000160 00 60 21 bc 90 f5 21 bc 1e fc 16 bc d1 e0 ed bb
       -0.009849548 -0.009885207 -0.009215383 -0.007259466
000170 55 e8 60 3b 2a 12 c1 ba 7a 0e ca 3a 74 1a 6e 3c
       0.0034318168 -0.0014730145 0.0015415691 0.014532674
000180 ff ba 98 bb a1 5a b6 ba 9c 43 c7 38 c8 99 c5 bb
       -0.0046609635 -0.0013912508 9.501653e-05 -0.006030295
000190 58 46 32 bc d8 d7 13 bc f2 80 09 bc 83 de 19 3b
       -0.010881029 -0.009023629 -0.008392559 0.0023478575
0001a0 c5 73 5d 3a ec 80 a7 bb 21 80 27 bc 08 28 91 3c
       0.0008447732 -0.005111804 -0.010223419 0.017719284
0001b0 dd ec 8c bb 54 a8 87 bc 4e c4 1d bc 6e 98 cf ba
       -0.0043006972 -0.016559757 -0.009629322 -0.0015838274
0001c0 d7 ef b7 bb 38 9c ac bb 8f 4a 1a bc 8a 4b 1d bc
       -0.005613308 -0.005267646 -0.00941719 -0.009600529
0001d0 76 84 bc bb cf 1e 04 bc e8 f1 f0 ba b0 16 12 bd
       -0.0057530953 -0.008063986 -0.001838264 -0.035666168
0001e0 55 44 08 bc 9f 6d 40 bb dd 1b 94 bb b8 85 8b bc
       -0.008317073 -0.0029362214 -0.004519923 -0.017031536
0001f0 8b de 13 bc 38 3c c9 ba a6 8e a0 bb 6a d5 ac bc
       -0.009025226 -0.001535303 -0.0048998175 -0.021097858
000200 6e 31 70 bc af d9 2a bc 7c 97 9d bb 43 24 d8 bc
       -0.014660222 -0.010427876 -0.004809318 -0.026384478
000210 2d 79 bf 3b 9e 64 f3 3b cf 0a dd 3b a6 48 53 3b
       0.0058433027 0.007427766 0.0067456733 0.0032239347
000220 73 c1 be bb f8 20 95 bb bd ad 3e bc 5d 84 13 bc
       -0.005821401 -0.0045510493 -0.011638102 -0.009003726
000230 13 f6 14 bc 5c cf 0a bc 3b 15 53 bb 6a 78 bb 3b
       -0.009091872 -0.00847229 -0.00322087 0.0057211416
000240 4b ab 26 ba 90 39 0e 3b 18 3a 52 39 bf 57 ed 3b
       -0.0006357922 0.002170179 0.00020048802 0.007243126
000250 e4 99 19 ba b1 0c 88 bb 9b c6 a2 ba 49 0b b2 bc
       -0.00058594183 -0.0041519036 -0.0012418808 -0.021733897
000260 90 b6 5a bc 81 57 23 bc da fe 33 bc 02 40 90 bc
       -0.01334919 -0.009969593 -0.010986054 -0.017608646
000270 cd 6a 80 37 7f 31 9a 3a 12 e7 a6 3b 75 c4 70 3b
       1.5308522e-05 0.0011764019 0.0050934637 0.0036738191
000280 26 2d 82 3b 10 16 7a ba 0f ad 02 3b 0a 21 98 3c
       0.0039726673 -0.0009540031 0.0019939577 0.018570442
000290 08 53 14 3a 1f f9 f9 bb a2 53 8d 3a df 41 b9 3b
       0.00056581246 -0.0076285745 0.0010782371 0.0056536044
0002a0 2f b5 64 3b 51 d5 44 b9 e0 53 10 ba 83 52 66 3b
       0.0034898033 -0.00018771483 -0.00055056624 0.0035144396
0002b0 60 47 83 bb 06 ec 9b bb 5a 8e 7b bb b6 59 df 39
       -0.0040063113 -0.004758361 -0.0038384409 0.00042600714
0002c0 b7 91 21 bc 0c eb 1b bb bd 6d 05 bc 29 e1 1e 3b
       -0.009861401 -0.0023791222 -0.008143839 0.0024243093
0002d0 82 d2 a7 3b 5e 7a 80 3c 24 43 8f 3b 26 eb 38 3b
       0.00512153 0.01568335 0.0043720175 0.0028216331
0002e0 ea a2 96 3b 12 0d ad ba 10 b9 e4 bb 74 aa 4f 3c
       0.0045970576 -0.0013202748 -0.006980069 0.012674917
0002f0 e9 af 1e ba 9e 55 0b 3c 99 76 c4 bb 3f 9d 40 3a
       -0.00060534343 0.008504299 -0.0059955833 0.000734765
000300 36 f0 01 bb 65 72 ac b9 8c 06 ae bb 1e 6d f6 3b
       -0.0019827015 -0.00032891627 -0.005310839 0.007520332
000310 41 c0 e9 3b 78 3d 69 3b 12 93 36 39 49 36 07 3b
       0.007133514 0.0035589617 0.0001741166 0.0020631722
000320 3f b7 02 bc df e8 00 bc 5b 98 07 bc ca 7e b5 3c
       -0.00797826 -0.007868021 -0.0082760705 0.022155184
000330 7a 32 d6 bb dc fe 0d 3b 65 b3 50 bc 44 a2 37 3c
       -0.006536779 0.00216668 -0.0127380835 0.011208121
000340 15 5c 05 bb b0 ae 2b 3a de 02 f6 3b 81 6b 8e bc
       -0.0020349075 0.0006549163 0.007507666 -0.017385246
000350 d9 b6 20 bc 11 1a f6 bb d9 a6 d8 ba fc 06 e4 bc
       -0.009809219 -0.0075104316 -0.0016529217 -0.027835362
000360 b3 f6 a5 bc f5 c3 90 bc c2 d7 3f bc ba be 70 bc
       -0.020259237 -0.017671565 -0.0117091555 -0.01469391
000370 38 ed 75 bb 24 97 62 bb d6 7e 05 bc 0b 2e 48 bc
       -0.0037525427 -0.003457495 -0.008147916 -0.012218009
000380 b3 97 c2 bb 90 09 f2 bb fc 66 f0 bb b0 3e 53 3a
       -0.005938494 -0.007386394 -0.0073364954 0.00080583524
000390 95 38 0a bc 93 8e 4b bc 3e 0f 80 bc 73 62 96 bc
       -0.008436342 -0.012424129 -0.015632268 -0.018357491
0003a0 7f 5e f2 bb ab 95 dd bb 8e 79 5b bc f2 0c 6a bc
       -0.0073965187 -0.0067622266 -0.01339568 -0.014285313
0003b0 2d 6c 9c 3b 3f 04 2e ba ef b2 17 bb db 63 a4 3c
       0.0047736377 -0.0006638206 -0.0023147424 0.020067146
0003c0 6c f4 68 ba 97 39 a6 39 f8 b8 97 bb e5 c6 2e bb
       -0.00088865194 0.00031704895 -0.0046302043 -0.0026668843
0003d0 f4 e0 59 3c d8 a7 38 3c 6d 03 fd 3b cd 85 11 3d
       0.013298262 0.011270486 0.0077213557 0.035527993
0003e0 c9 6c 22 bc 88 93 fd bb bf cf 0e bc d7 0d 84 3c
       -0.009913632 -0.0077385344 -0.008716523 0.01611988
0003f0 05 96 83 3b 1a 5f 86 3b 49 39 92 3b 78 3a 64 3b
       0.0040156865 0.0041006925 0.0044623953 0.003482489

graphconv1.linear_edge.weight_orig f4 [256, 10]
000000 85 01 ff bf b7 fe 67 bf 5e 0b 44 3f bc 93 3d bf
       -1.9922339 -0.9062304 0.76579845 -0.7405355
000010 84 20 0c 40 d6 0d 01 bf 15 90 c1 bf 54 9b 3b 3f
       2.1894846 -0.50411737 -1.5122095 0.73283887
000020 bd 5c d3 be 6d 20 8b 3c 07 9d c8 3f e3 b3 d6 3f
       -0.4128169 0.016983235 1.5672921 1.6773647
000030 32 9c bb 3f 3e 00 47 3e a5 50 c0 bf 5d 70 71 3f
       1.4657042 0.19433686 -1.5024611 0.9431208
000040 ee 5b b2 bd ae 42 7d bd ef ba 5f 3e b1 9c dd 3d
       -0.087089404 -0.06183117 0.21848653 0.10820902
000050 0b ac 3d 3f 47 97 94 be b8 2d 51 3e 71 46 87 be
       0.7409064 -0.29021665 0.20427597 -0.2642093
000060 57 40 c5 3f d9 0e 11 3e 87 66 d0 3f f7 07 81 bd
       1.541026 0.1416582 1.6281289 -0.06300347
000070 e7 93 62 3f 87 49 00 c0 92 97 72 3e 50 dc c7 3e
       0.8850693 -2.0044878 0.23690632 0.39035273
000080 7d 9f ee be ec 98 5f 3e 3f d2 28 3f dc 4a 07 be
       -0.46606055 0.21835679 0.6594581 -0.1321215
000090 6b d4 b3 3f c2 bd 5f 3f ce 0d 8b 3f 2c c5 0f 40
       1.40492 0.8739892 1.0863588 2.2464094
0000a0 b6 d4 91 3d 21 f2 93 bb 50 60 97 3e 3e 19 98 3f
       0.071206495 -0.004514948 0.29565668 1.1882703
0000b0 d5 4f 7e 3f 44 01 a6 3f 96 14 8d 3f 49 c5 b8 3e
       0.99340564 1.2969136 1.1021907 0.36088017
0000c0 d6 b4 68 3f 79 1a 9a bf 41 fa 6c bf 03 cb 73 be
       0.90900934 -1.2039329 -0.9256936 -0.23807912
0000d0 7f 8c 62 3f db 2e 3d 3f 72 b2 21 bd b8 bd 9f bf
       0.8849563 0.7389962 -0.03947682 -1.2479773
0000e0 5e 32 1e c0 dd 00 2b 3f ec 31 b2 bf b6 81 5c bf
       -2.4718242 0.6679819 -1.3921485 -0.86135423
0000f0 2c 24 83 bf cc 07 14 3e 81 cc f4 3d 89 f7 8c be
       -1.0245414 0.144561 0.119530685 -0.27532604
000100 b9 54 39 3f 80 d7 89 3f aa e1 01 3f 04 1f 02 bf
       0.723949 1.076889 0.5073496 -0.50828576
000110 d6 a8 cc bf 1b 4e 90 bf 9d a1 22 3f 58 66 36 3f
       -1.5989025 -1.1273836 0.6352785 0.71249914
000120 e5 fc 2d c0 69 c5 2a c0 97 90 8e be dd e7 c3 3e
       -2.7185605 -2.668299 -0.27844688 0.38262835
000130 b2 29 0b 40 e3 bd 18 3e 37 a2 87 be 05 60 6d 3e
       2.1744199 0.14916186 -0.26490948 0.2318116
000140 68 a9 ae 3f c1 61 10 3f 69 45 57 3f e9 2b 8d bf
       1.3645449 0.5639916 0.84090286 -1.1029025
000150 75 6e 4c bf d3 45 0d 3e b4 bc 52 bf 13 8f c8 3f
       -0.79856044 0.13796167 -0.8231919 1.5668663
000160 b2 ed 7a bf 08 ad 81 3d 10 1b 31 bf 19 36 fb 3f
       -0.98018944 0.06331831 -0.6918192 1.9625884
000170 65 61 cd be 78 b8 51 3f 76 85 55 bf 97 9c cf 3d
       -0.4011337 0.819221 -0.8340677 0.10137289
000180 b5 7c 12 3f a1 59 1c 3f df 6b e8 bf e6 b5 14 3d
       0.5722154 0.6107426 -1.815792 0.036306284
000190 d8 6f c5 bd 54 0b 02 be 2e 06 83 bf 6d ff 15 3d
       -0.09640473 -0.12699634 -1.0236261 0.036620546
0001a0 2a 6f 85 be 95 16 07 bf da ca a4 be 0f 5d b4 3f
       -0.26061374 -0.5276883 -0.32186013 1.4090899
0001b0 63 47 10 bf b0 1b a6 bf 37 56 2f 40 d6 25 3e 3e
       -0.5635893 -1.29772 2.7396371 0.18569121
0001c0 e9 ff 3f bc 29 fc 0a bf db 30 2d 3f 34 e8 6a 3d
       -0.011718729 -0.54291016 0.6765267 0.057350352
0001d0 6e 99 8c bf 8e 8d 94 3f a5 2f b1 3f c6 31 ba bf
       -1.0984323 1.1605699 1.3842665 -1.454644
0001e0 29 27 1f 3f d1 1a 33 3f f2 7a 95 bf d0 43 cd bf
       0.6216913 0.69962794 -1.1678145 -1.603632
0001f0 b5 3a d9 3e b9 33 00 40 0c 1c 8b 3e 57 40 84 be
       0.42427602 2.003157 0.27169836 -0.25830337
000200 af df fe 3e 74 e1 bc be 72 06 84 bf e2 e7 b4 bd
       0.49780032 -0.36890757 -1.0314467 -0.08833291
000210 ec 89 f8 bf 6c ef 82 3f 21 d1 af 3d 58 83 31 bc
       -1.941709 1.0229316 0.0858481 -0.010834537
000220 a9 52 c3 3e b3 f6 7f 3f b0 8f 55 3e 73 5b 6a be
       0.38149002 0.9998581 0.20855594 -0.22886448
000230 44 2e 55 3e c3 0f 14 3e 12 a3 a7 3d 96 a9 90 3e
       0.2081843 0.14459138 0.081854 0.28254384
000240 ac db cd 3f 88 b4 c1 3e 22 32 8c be df 92 b9 be
       1.6082664 0.37833047 -0.27381998 -0.36244866
000250 f6 cc f0 be 29 10 82 3f 73 ee c6 be 01 86 cf bd
       -0.47031373 1.0161182 -0.38853797 -0.10132981
000260 44 fb b0 bf 6e ed 8a 3f ac 05 d7 bd 51 4d 3c 3f
       -1.382668 1.0853708 -0.10499129 0.73555475
000270 07 c2 8f be dc 22 4b 3f 43 01 84 3f 7e a9 83 bf
       -0.2807772 0.79350066 1.0312885 -1.02861
000280 7e c1 1c bf 6d 91 3e 3f 2c 85 74 bf 54 53 e2 3e
       -0.61232746 0.7444065 -0.95515704 0.442042
000290 4f b2 f1 3c 8c cb 59 3f 8d 54 59 3f 43 be 20 3f
       0.02950397 0.8507621 0.8489464 0.62790316
0002a0 0a c2 f3 bd c0 4a 57 3e 6f 7e 03 3f 9f b9 33 3e
       -0.119022444 0.21024609 0.513648 0.17551278
0002b0 45 ac 1f bf b0 44 8d be 5c 94 27 3f c2 a4 44 3f
       -0.6237224 -0.27591467 0.65460753 0.768139
0002c0 5c d9 2e c0 52 cc 3b bf 89 46 bc 3f f7 18 11 bf
       -2.7320166 -0.73358643 1.4709026 -0.5667872
0002d0 3d 0b f0 3e b6 42 65 3f 93 75 a7 3f 26 77 d6 3f
       0.46883574 0.8955492 1.3082756 1.6755111
0002e0 c8 2e 7d 3f 0d 0b ff bf ef d8 1d 3f 7e a1 a7 be
       0.9889951 -1.9925247 0.6165914 -0.32740396
0002f0 12 58 af 3f 9e 8e 30 bf 6b e2 c4 3f e0 ab 39 3f
       1.3698752 -0.68967617 1.5381597 0.72527885
000300 af ed cb be af 7e 40 bf 4e ce 28 be 79 1c 68 3d
       -0.39829776 -0.75193304 -0.16484949 0.05666778
000310 e0 a6 ab bf 10 93 b8 be cd 3e 20 bf d3 60 85 bf
       -1.3410301 -0.360497 -0.62595826 -1.0420173
000320 33 e3 05 3d fc f9 15 3f bb 24 9c bf ca c3 8c bf
       0.032687377 0.5858457 -1.2198709 -1.099725
000330 ca e7 55 3f 12 d2 51 3d db aa 9d 3e 30 0e ae be
       0.8355681 0.05122573 0.30794415 -0.339952
000340 f1 c9 2f bf 69 59 76 3f c0 fb 09 bf 17 97 ab be
       -0.68667513 0.9623018 -0.53899765 -0.3351371
000350 36 8c e6 3f fa b5 18 3f ad 94 60 bf 6d 3d b4 3e
       1.8011539 0.59652674 -0.8772686 0.35203114
000360 2c 01 fb 3e 2d 67 bb 3e 56 ed d7 3d 4d cf 0d 40
       0.49024332 0.36602154 0.10543315 2.2157776
000370 fc 5c 16 3f ec 2b 57 bd 26 48 69 bf b3 9c 10 bf
       0.5873563 -0.05253212 -0.91125715 -0.56489104
000380 9c 76 a4 bf 58 5b 0f 3f 5d db 2a 3e 78 53 c6 3f
       -1.2848697 0.55998755 0.16685243 1.5494223
000390 f0 0f e9 3f 6f b7 74 3f a2 32 34 3f bb 43 09 40
       1.8207989 0.955924 0.7038976 2.144759
0003a0 2f 40 b5 3e 54 98 87 3f 02 c6 47 bf de dd a3 bd
       0.3540053 1.0593362 -0.7803651 -0.08001302
0003b0 cb d8 b2 be ce 2f 1e bf e9 5b 6e be 0a 52 22 3d
       -0.34931025 -0.61791694 -0.23277248 0.03962902
0003c0 d5 0a 29 bf 2f 99 f9 bf 00 cd 7b be ee 0e 09 3d
       -0.66032153 -1.9499873 -0.2458992 0.033461504
0003d0 03 e9 e0 3e bb df 88 3f 1d 00 63 3f 64 fc 4a bf
       0.43927774 1.0693277 0.8867205 -0.7929137
0003e0 3e 1e ac 3f 99 d1 a6 3f 52 2c 1a bf cc 15 b2 3f
       1.3446729 1.3032714 -0.6022388 1.3912902
0003f0 7e a3 51 bf 5b f6 82 3e b9 85 ac 3f bb cf 78 bf
       -0.81890094 0.2557858 1.3478309 -0.9719197

graphconv1.linear_edge.weight f4 [256, 10]
000000 b0 1d d8 bd 3f 9d 44 bd 60 25 26 3d 39 aa 20 bd
       -0.105525374 -0.048001524 0.040562987 -0.039224837
000010 5d 83 ed 3d d3 be da bc 02 0b a4 bd db fe 1e 3d
       0.11597321 -0.02670232 -0.08009912 0.038817268
000020 ba 20 b3 bc 9b d3 6b 3a b8 04 aa 3d 86 f5 b5 3d
       -0.021866191 0.000899607 0.08301681 0.088847205
000030 90 ff 9e 3d 6c a6 28 3c 47 fc a2 bd 4b 9e 4c 3d
       0.077635884 0.010293584 -0.07958274 0.049955647
000040 db 28 97 bb 91 a4 56 bb fc 9b 3d 3c d1 cf bb 3b
       -0.0046130246 -0.0032751898 0.011572834 0.0057315608
000050 f3 be 20 3d c3 db 7b bc 14 47 31 3c 58 4a 65 bc
       0.039244603 -0.0153722195 0.010820169 -0.013994776
000060 46 2b a7 3d c1 df f5 3b 28 9e b0 3d bd b5 5a bb
       0.08162551 0.00750348 0.08623916 -0.0033372485
000070 dc 05 40 3d ed 71 d9 bd a7 90 4d 3c ab 60 a9 3c
       0.046880588 -0.10617433 0.012546695 0.020675978
000080 db 3a ca bc c5 7e 3d 3c 1c 13 0f 3d ed 53 e5 bb
       -0.024686268 0.011565869 0.034930333 -0.00699853
000090 44 67 98 3d 8e 9e 3d 3d d8 b1 6b 3d 5d ae f3 3d
       0.07441571 0.046293788 0.057542652 0.118984915
0000a0 fb 2d 77 3b a7 bc 7a b9 4e 4a 80 3c fe e6 80 3d
       0.0037716615 -0.00023912136 0.015660431 0.06294058
0000b0 04 87 57 3d 25 b0 8c 3d 0c 21 6f 3d 64 97 9c 3c
       0.052618995 0.068695344 0.058381125 0.019115157
0000c0 85 37 45 3d fd 99 82 bd 48 d6 48 bd 13 9d 4e bc
       0.04814865 -0.06377027 -0.04903248 -0.012610692
0000d0 92 ff 3f 3d d9 54 20 3d ba 09 09 bb 2a 61 87 bd
       0.04687459 0.039143417 -0.0020910338 -0.066103294
0000e0 0e 12 06 be 9f ec 10 3d d6 04 97 bd aa e0 3a bd
       -0.13092825 0.03538191 -0.07373969 -0.045624413
0000f0 3e 48 5e bd 61 e9 fa 3b 70 77 cf 3b 28 f0 6e bc
       -0.054268114 0.0076572155 0.0063313767 -0.014583625
000100 11 11 1d 3d e6 a3 69 3d 94 25 dc 3c d5 8d dc bc
       0.038346354 0.05704107 0.026873387 -0.0269231
000110 8b 72 ad bd 62 98 74 bd ed d2 09 3d fb 94 1a 3d
       -0.08469113 -0.059715636 0.03364842 0.037739735
000120 08 74 13 be 39 ba 10 be 1b a5 71 bc 50 07 a6 3c
       -0.14399731 -0.14133538 -0.014748837 0.020267159
000130 d6 e0 eb 3d 51 72 01 3c 82 e5 65 bc 7e 1f 49 3c
       0.115174934 0.00790079 -0.01403177 0.012275575
000140 67 06 94 3d c9 b9 f4 3c df 70 36 3d a9 48 6f bd
       0.07227784 0.029873746 0.044541236 -0.058418903
000150 0a 41 2d bd 6b 75 ef 3b 21 99 32 bd d5 f8 a9 3d
       -0.042298354 0.0073076985 -0.043603066 0.08299414
000160 f9 a8 54 bd bd cb 5b 3b 72 18 16 bd 50 e6 d4 3d
       -0.051918957 0.0033538186 -0.036644407 0.10395491
000170 ff 0e ae bc 98 bc 31 3d 2e f5 34 bd f7 f2 af 3b
       -0.021247385 0.043392748 -0.044179134 0.00536954
000180 25 4b f8 3c 71 81 04 3d b1 f9 c4 bd 50 10 fc 3a
       0.03030927 0.032350007 -0.09617937 0.0019230936
000190 fc 53 a7 bb b2 6c dc bb 82 15 5e bd 41 40 fe 3a
       -0.0051064473 -0.0067268247 -0.05421973 0.0019397811
0001a0 52 2b 62 bc 1e f9 e4 bc 00 a9 8b bc 58 db 98 3d
       -0.013804274 -0.02795082 -0.017048359 0.074637115
0001b0 e8 8c f4 bc 7b c6 8c bd 4e 99 14 3e 11 28 21 3c
       -0.029852346 -0.06873795 0.14511606 0.009836213
0001c0 57 c8 22 ba 54 93 eb bc 2e c7 12 3d ab 1b 47 3b
       -0.00062096625 -0.028756775 0.035834484 0.0030381482
0001d0 77 4f 6e bd 6d cb 7b 3d df 29 96 3d 3c ca 9d bd
       -0.058181252 0.0614733 0.07332205 -0.07704589
0001e0 aa e1 06 3d 55 ca 17 3d d4 5d 7d bd f2 f5 ad bd
       0.032930054 0.037058193 -0.06185706 -0.08494176
0001f0 bd 19 b8 3c 0f 4d d9 3d 9d c9 6b 3c 88 2a 60 bc
       0.02247321 0.10610401 0.01439133 -0.013682015
000200 dd 00 d8 3c 80 13 a0 bc f0 c7 5f bd a9 51 99 bb
       0.0263676 -0.019540548 -0.054634035 -0.004678924
000210 83 a2 d2 bd 03 ef 5d 3d a8 00 95 3b 24 7b 16 ba
       -0.10284903 0.054183017 0.0045471974 -0.0005740395
000220 f7 88 a5 3c 7a ed 58 3d eb fd 34 3c 61 9d 46 bc
       0.020206911 0.05296085 0.011046867 -0.012122483
000230 63 ab 34 3c 7b f6 fa 3b 44 12 8e 3b 41 33 75 3c
       0.01102719 0.0076587773 0.0043356735 0.014965833
000240 93 76 ae 3d ff 29 a4 3c 44 a1 6d bc c4 45 9d bc
       0.0851871 0.020039557 -0.014503781 -0.019198306
000250 a5 13 cc bc 76 74 5c 3d 5a 97 a8 bc d9 df af bb
       -0.024911711 0.053822003 -0.020579983 -0.005367261
000260 96 fd 95 bd ed 7a 6b 3d d9 3a b6 bb 9d 95 1f 3d
       -0.07323758 0.057490278 -0.0055612144 0.03896104
000270 98 aa 73 bc 10 28 2c 3d 11 bf 5f 3d 99 29 5f bd
       -0.014872216 0.042030394 0.054625574 -0.05448303
000280 57 d9 04 bd 47 81 21 3d 9d 3a 4f bd 33 cf bf 3c
       -0.032433834 0.03942993 -0.050593007 0.02341423
000290 dd d5 cc 3a 61 94 38 3d 92 2f 38 3d 8e 3a 08 3d
       0.0015627701 0.04506338 0.04496724 0.033258967
0002a0 3e 95 ce bb 61 75 36 3c 98 e1 de 3c 28 51 18 3c
       -0.006304412 0.011136384 0.02720718 0.009296693
0002b0 4b 52 07 bd 00 73 6f bc c3 05 0e 3d 98 a7 26 3d
       -0.033037465 -0.0146148205 0.034673464 0.040687174
0002c0 ed 2e 14 be 6a 28 1f bd e2 8f 9f 3d 51 f0 f5 bc
       -0.14471026 -0.0388569 0.07791115 -0.030021818
0002d0 4d 6f cb 3c dd 4b 42 3d 9f eb 8d 3d 0b c2 b5 3d
       0.024833346 0.04743563 0.06929707 0.088749014
0002e0 04 92 56 3d ba 25 d8 bd 4c c6 05 3d b4 10 8e bc
       0.052385345 -0.10554071 0.032659814 -0.017341949
0002f0 4e 9a 94 3d 6a a1 15 bd 9d dc a6 3d 35 5b 1d 3d
       0.07255994 -0.03653089 0.081475474 0.03841706
000300 25 d4 ac bc 3f 23 23 bd a9 0f 0f bc a2 bb 44 3b
       -0.021097252 -0.039828535 -0.008731761 0.0030019064
000310 0d 79 91 bd 21 6d 9c bc 9e ce 07 bd 97 0f 62 bd
       -0.07103167 -0.019095005 -0.03315603 -0.05519065
000320 99 f2 e2 3a 48 35 fe 3c 94 54 84 bd 25 98 6e bd
       0.0017314731 0.031031266 -0.064614445 -0.058250565
000330 83 48 35 3d 1e d3 31 3b 34 9f 85 3c c8 82 93 bc
       0.044258606 0.0027133892 0.016311266 -0.018006697
000340 d0 fa 14 bd 71 c7 50 3d 4d e1 e9 bc 01 6c 91 bc
       -0.036372006 0.050971452 -0.028549815 -0.017751696
000350 2a 63 c3 3d ed 6b 01 3d a1 54 3e bd 4f c0 98 3c
       0.095403984 0.031597067 -0.046467427 0.018646387
000360 86 b9 d4 3c bf d2 9e 3c 43 ff b6 3b 92 5d f0 3d
       0.02596737 0.019387601 0.005584629 0.11736597
000370 ef dc fe 3c d3 5b 36 bb 65 b4 45 bd 6f 1d f5 bc
       0.031111209 -0.0027825728 -0.04826774 -0.029921262
000380 a6 61 8b bd b0 fc f2 3c dd cc 10 3c 75 14 a8 3d
       -0.06805734 0.029661506 0.008837906 0.08207027
000390 bd 84 c5 3d 44 65 4f 3d 64 b8 18 3d 66 a9 e8 3d
       0.096444584 0.050633684 0.037285224 0.11360435
0003a0 ad 9b 99 3c eb d4 65 3d 73 4e 29 bd 15 df 8a bb
       0.01875099 0.056111258 -0.04133458 -0.004238019
0003b0 d9 91 97 bc f3 0f 06 bd 1a 02 4a bc 61 b7 09 3b
       -0.018502163 -0.032730054 -0.012329603 0.0021013843
0003c0 13 43 0f bd 65 88 d3 bd 3b 66 55 bc 78 51 e8 3a
       -0.034976076 -0.103287496 -0.013024862 0.0017724475
0003d0 10 9c be 3c bf ff 67 3d 99 61 40 3d 62 07 2c bd
       0.023267776 0.056640383 0.046968076 -0.04199923
0003e0 6b de 91 3d af 60 8d 3d 29 a9 02 bd f8 ec 96 3d
       0.07122501 0.069032066 -0.031899605 0.07369417
0003f0 d6 aa 31 bd 07 fb 5d 3c 1a 36 92 3d ca dd 52 bd
       -0.043375812 0.013548619 0.07139225 -0.051481046

graphconv1.linear_edge.weight_u f4 [256]
000000 1a e2 11 3d 7f 01 b4 bd c5 b0 2a bd d7 15 8c 3d
       0.035616018 -0.08789348 -0.041672487 0.06840103
000010 d7 04 d7 bc 4a 9f 20 3d 61 d9 67 bd 6f 51 14 bd
       -0.026247425 0.03921441 -0.056603793 -0.036210474
000020 83 df 38 bd 44 2c 51 3c 24 ac 04 3d 31 b8 98 bd
       -0.045135032 0.012766901 0.03239073 -0.07457007
000030 12 57 ee bd 1d fe 9c 3d 31 ab 76 bc 46 95 94 3c
       -0.11637701 0.07665656 -0.015055464 0.018137585
000040 68 46 39 3c 86 e3 a6 bd ca 38 5d 3d fd ce b6 bd
       0.01130829 -0.081488654 0.054009236 -0.08926199
000050 a8 64 81 bc 05 fe 48 3d 1e c2 d5 3c ea f6 17 bd
       -0.015795067 0.049070377 0.026093539 -0.03710071
000060 e6 7f da 3c 70 de 8b 3d cc 38 72 bd 0a 6b fb bc
       0.026672315 0.06829536 -0.059136197 -0.030690689
000070 68 cd be bc 5e be 37 3d c8 f9 05 bc fd 3d a7 3c
       -0.023291305 0.044859283 -0.008177228 0.0204153
000080 8e 87 83 bb d4 4b df 3c 64 63 7b bd 89 99 c0 bd
       -0.004013962 0.027257837 -0.061374083 -0.094042845
000090 38 c2 fc bd 05 29 ce 3c 1d 6e c5 bd 60 d5 a0 3d
       -0.12341732 0.025166044 -0.09640143 0.07853198
0000a0 ac f6 cd 3d db 6e a0 3d 32 a4 58 3d 38 90 9d 3d
       0.100568146 0.07833644 0.052890964 0.07693523
0000b0 a4 8a 19 3d 27 29 42 3d e3 93 15 3e d1 fa 2c bd
       0.037485734 0.047402527 0.14607196 -0.042231385
0000c0 97 30 87 bd 9c d7 62 3d d0 5d 7a bd 03 bf 45 bd
       -0.06601065 0.055381402 -0.061124623 -0.048277866
0000d0 f9 23 a0 bd 42 63 b3 bc f3 86 9a bd 8b 87 ac bd
       -0.07819361 -0.021897916 -0.07545271 -0.0842429
0000e0 15 66 2c 3d 7b e4 d2 bb cb d6 40 bd 52 ff 1e 3d
       0.04208954 -0.0064359284 -0.047079843 0.03881771
0000f0 6c 85 a4 3d 67 14 b9 3d 16 14 ca bd 28 aa 3f bd
       0.08033261 0.090370946 -0.09867112 -0.046793133
000100 67 79 a9 3c dc b8 9e bc cc 9f b1 3c b1 95 9c 3d
       0.020687772 -0.019375257 0.021682642 0.07645739
000110 1b 05 5e 3c ab 31 22 3d 26 83 e0 3c 6d c6 b5 3d
       0.013551022 0.03959815 0.027406286 0.08875737
000120 a4 ba bc 3c e1 48 e3 3d 6b 45 d8 3b f4 04 bd 3c
       0.023038216 0.11097885 0.006600072 0.02307365
000130 03 9b 90 bd 74 69 c3 3c 47 8d 5d bd d9 92 de bb
       -0.07060816 0.023853995 -0.05408981 -0.006792408
000140 d7 f6 1e 3d bb a9 10 3d 1a e5 c5 bd 6a dc af 3d
       0.038809624 0.035318118 -0.09662838 0.085869625
000150 6d 23 0c bc 29 eb 66 bd a6 03 57 bc 6d fb a5 bc
       -0.008553368 -0.05637661 -0.013123428 -0.02026149
000160 0c 79 a6 3c 9e de ff 3c 7d b4 b1 bd 3c 54 aa bd
       0.020321392 0.031234082 -0.086770035 -0.08316848
000170 a2 2e 94 bd 85 72 65 bc f2 51 95 3d 92 97 8a 3d
       -0.07235457 -0.014004354 0.072910205 0.06767191
000180 ed 07 a9 bc 59 4f 08 bd c4 55 ff bb 33 f1 28 bd
       -0.020633662 -0.033278797 -0.0077922065 -0.04124565
000190 ec f5 8f 3d 42 28 92 bd c0 19 8c bd 25 2b 2a 3d
       0.07029328 -0.07136585 -0.06840849 0.041545052
0001a0 97 64 a5 3d ee d2 cb bd 2a fe de 3d f1 d4 99 bd
       0.080758266 -0.09952341 0.10888322 -0.075113185
0001b0 95 bc bc 3c 28 44 ee 3d f7 02 04 bd d8 18 c0 3d
       0.023039142 0.116340935 -0.03222939 0.093797386
0001c0 78 94 a4 bb 77 6d a0 bc e5 11 fc 3d 02 f9 0b bd
       -0.0050225817 -0.019583447 0.123081006 -0.03417302
0001d0 d9 d5 88 bc a6 af 82 3d 69 f7 10 bd 6f b6 60 bd
       -0.016703533 0.063811585 -0.0353922 -0.054861482
0001e0 7e 98 64 3d a9 90 43 3c cb bc 4f bd 2b ff 0f bc
       0.05580949 0.011936345 -0.050717156 -0.008788864
0001f0 25 18 28 3d 14 bb 27 bd 16 98 a6 3d ed 3a ab bd
       0.04103865 -0.040949896 0.08134477 -0.083608486
000200 ec e9 c2 3d 2e 46 c8 3d df ed 11 3d 0b a0 c2 3d
       0.09517273 0.09779011 0.035627242 0.09503182
000210 3e c8 a0 bd bf 7f 46 bd d3 a0 8d bd 2f a5 4a bb
       -0.07850693 -0.048461672 -0.069154404 -0.003092121
000220 70 61 9d bd 5d 9a ec 3c b9 1f 04 3e 7f b5 0e 3d
       -0.076846 0.0288822 0.12902726 0.034841057
000230 9b 62 af 3d 16 db aa 3d 93 47 22 3b d5 3e 80 3a
       0.085637294 0.083425686 0.00247619 0.000978435
000240 19 9c f1 bc 75 d5 cb bc ec 0b c2 3c 3b 19 3a 3a
       -0.029493378 -0.024882058 0.023687325 0.00070990965
000250 29 b1 83 bd 33 9d 7e 3b f8 51 48 bd ac 29 53 bd
       -0.06430275 0.0038851022 -0.048906296 -0.051553413
000260 57 8f 75 3c b0 20 6e bd b1 2c d6 3d 6a 7a 42 3c
       0.014987788 -0.058136642 0.10457743 0.011870006
000270 be a8 d2 3d ed 59 e6 3b ee 9f 10 3d 9f db f2 3d
       0.10286091 0.007029763 0.03530877 0.11858296
000280 e7 8f 32 bd 0b a4 b2 3b d1 d1 4d 3d 0d 07 b7 bd
       -0.043594267 0.0054516844 0.050248925 -0.08936892
000290 ff 82 bf 3d e3 11 98 3c 3c 08 c1 bd ea 9c 83 3d
       0.093511574 0.018563217 -0.09425399 0.06426413
0002a0 a7 ab 1f bb 02 19 3e bc a4 6b 93 bc cf 8e 6f 3c
       -0.0024363787 -0.011602642 -0.017995663 0.014621451
0002b0 ee d1 e8 3d 9c 1b 8f bc a7 c4 8b 3d 32 ed d9 3c
       0.11368166 -0.01746922 0.06824618 0.026602361
0002c0 02 2b 43 be f1 60 2e 3d 3e 5c 43 bd bd 5c 54 bd
       -0.19059375 0.04257292 -0.04769539 -0.051846255
0002d0 9f 2e 2f 3d 9b 56 a6 bd aa 03 61 bd 7a 36 8b bd
       0.04276907 -0.081219874 -0.054935135 -0.067975
0002e0 eb 81 a7 bd b7 6f 69 3d c1 e0 b3 bc bf be a7 bd
       -0.08179077 0.056991305 -0.021957757 -0.08190679
0002f0 45 ec b7 3d 83 0f 09 3d 62 7a 96 3d 95 a9 d4 3c
       0.08980612 0.03346206 0.073475614 0.02595977
000300 68 a1 79 3d a8 05 44 3d ff 09 85 3d 29 4e 92 3c
       0.060944945 0.047856957 0.06496047 0.017859535
000310 c5 6c eb bd 71 8e 03 bd c0 82 9b 3d e2 16 22 3b
       -0.114953555 -0.032118265 0.07593298 0.0024732878
000320 37 36 fe bc cd 66 58 3d a7 8b 28 bd c8 5a d5 bc
       -0.031031711 0.052832413 -0.041148808 -0.026044264
000330 07 b9 46 3c d2 75 e5 3d f0 78 31 bd 1f 6c 10 3d
       0.012129075 0.11204113 -0.043328226 0.035259362
000340 9e 4b 26 3d a0 d3 93 bc d2 73 6b bd 50 dd 46 3d
       0.040599458 -0.018045247 -0.0574835 0.048550904
000350 a8 1f 4d 3d 93 39 14 3d 8f b8 9d 3d 24 c0 0f bd
       0.050079018 0.03618772 0.077012174 -0.03509535
000360 eb 3f ba bc 26 c5 2b bd 07 5b 3a bc 91 f6 b5 bc
       -0.022735557 -0.041936062 -0.011374242 -0.022212299
000370 b2 2f 59 bd a8 c2 2a bd 91 42 fd 3d 74 7e 25 bd
       -0.053024 -0.041689545 0.12366212 -0.0404038
000380 ae 9e 81 3d a4 fd 9b 3c 4d f3 0e bd 04 78 be 3d
       0.06329094 0.019041844 -0.0349 0.09300235
000390 e2 d8 b1 3d 72 a6 0b be 4a b9 68 bd d5 28 e1 bd
       0.08683945 -0.13637713 -0.05681733 -0.10994116
0003a0 a0 fc 37 bd a5 e5 d2 bd 67 7c b3 3c 09 44 38 bd
       -0.044918656 -0.102977075 0.021909906 -0.04498676
0003b0 b9 8d 12 3e 05 50 8d 3d f1 ac dd 3c 62 33 29 bd
       0.14311875 0.06900028 0.027060004 -0.041308768
0003c0 04 44 b4 bd 98 e8 06 3c b4 44 91 bd 8a 32 04 bc
       -0.088020355 0.008234166 -0.07093182 -0.00806869
0003d0 b2 5d 75 3d 3f 4f 1c 3b 62 78 d8 bd 75 2c ba bb
       0.059903808 0.0023850945 -0.10569836 -0.005681569
0003e0 a6 36 a4 3d 18 0c da bc b6 06 1a be b1 67 44 bc
       0.08018236 -0.026617095 -0.15041623 -0.011987613
0003f0 77 b9 8d bc e6 7d db bc dd 53 9c 3c ca 93 19 bd
       -0.01730035 -0.026793431 0.019082958 -0.03749446

graphconv.0.linear_edge.bias f4 [256]
000000 79 ad 1f 3c ce 7c 50 3c a9 b0 03 bc 4e aa 11 bd
       0.009745949 0.012725068 -0.0080377245 -0.035562806
000010 4b 4c a9 3c 8b 60 d4 3b e7 af 0c bc 0c b3 fd bb
       0.020666262 0.0064812354 -0.00858686 -0.0077422913
000020 76 70 16 bc 27 a4 50 3a 86 8b 32 3c 1f 4c 48 3b
       -0.009182086 0.0007959031 0.010897523 0.003056295
000030 5d d6 80 bb fc e8 a0 b7 4f cc 36 3b bc 4c 06 3a
       -0.003931804 -1.9181978e-05 0.0027892774 0.00051231286
000040 74 8b cd 3b 6b fb 59 b9 50 3b 4a 3c 46 a0 1b 3b
       0.0062727276 -0.00020788393 0.012343243 0.0023746653
000050 fd 73 1a ba 64 b1 09 bc 9b 92 aa 3b fb a3 e9 3a
       -0.00058919174 -0.00840411 0.005205465 0.0017825359
000060 65 f2 4f 3a 95 2c 1c bb cf 22 17 3c b1 7b 8f 3a
       0.0007932543 -0.0023830284 0.009224608 0.0010946897
000070 b7 10 19 3c 22 e8 4d 3c e5 76 6c bc 93 72 85 bd
       0.009342364 0.012567552 -0.014432644 -0.06515994
000080 92 68 c7 bb f5 f0 c4 b9 14 bc f8 38 8f ac e6 39
       -0.006085464 -0.0003756356 0.00011860594 0.00043997585
000090 fb 3c 10 bc c2 e1 5f bb e3 dd 5a 3a 22 e2 27 b9
       -0.008803601 -0.0034161662 0.0008349104 -0.00016010602
0000a0 92 57 c6 ba 0f 4e 02 bc b9 2c 14 ba 4e 7f c0 3a
       -0.0015132299 -0.007953181 -0.0005652416 0.0014686377
0000b0 1b d7 64 3c 4c e6 71 3c 94 34 09 bc d0 78 1f bd
       0.013967301 0.01476438 -0.008374352 -0.038933575
0000c0 94 37 4a bb ff dc 4c 3b e3 2c 5e 3b 30 c9 97 3a
       -0.003085588 0.0031259654 0.0033901266 0.0011580344
0000d0 93 2d 44 ba f1 cd 14 3a 5d 8c c8 3b c1 7a b1 3a
       -0.0007483598 0.00056764396 0.006120248 0.0013540612
0000e0 8e c5 b3 bb 36 0e 2b bc 17 e0 11 3b 3b 55 65 3a
       -0.005486197 -0.0104404 0.0022258812 0.0008748357
0000f0 96 0d b0 bb 18 fc dd bb 17 a9 e6 bb 98 87 a7 39
       -0.0053727133 -0.0067744367 -0.0070392 0.00031953747
000100 0c f7 ed 3a 34 92 7c 3b 74 3c 58 3c b6 32 ec 3a
       0.0018155291 0.0038539292 0.013198007 0.0018020484
000110 4f 48 79 3c 20 60 83 3c ec ea d3 bb e6 4b 31 bd
       0.015214994 0.016037047 -0.006467214 -0.043285273
000120 b1 52 6d 3c d7 fc 2b 3c f0 c4 2f 3b 9e a2 aa bb
       0.014485047 0.010497293 0.0026820265 -0.0052073738
000130 20 87 17 3c 42 96 49 3c cb a2 7e bc 33 6a 96 bd
       0.009248525 0.012303891 -0.015541743 -0.07344475
000140 54 f1 bf 3a 25 1f 25 bb 55 e6 e3 3b f4 25 b4 3a
       0.0014644065 -0.0025195566 0.006954948 0.0013744221
000150 5f ea 85 3a e3 e8 fa bb 9b e1 c6 bb ab 88 bc 3a
       0.0010216943 -0.007657157 -0.0060693747 0.0014383992
000160 e4 67 2a bb e5 d6 63 bb 61 58 88 bb c6 c8 3e 3a
       -0.0026001865 -0.0034765538 -0.004160926 0.00072778424
000170 84 78 2d 3c 26 58 56 3c ef 5c 62 bc e1 f7 8f bd
       0.010587815 0.01308254 -0.013816102 -0.07029701
000180 4e 17 8d 3b 35 0b 19 bb 8c b6 03 ba 63 cf 9e 3a
       0.0043057567 -0.0023352627 -0.0005024455 0.0012116249
000190 db b7 45 bb da c0 78 ba c6 5f e5 bb 4f 7e 3a ba
       -0.00301694 -0.00094891863 -0.0069999425 -0.00071141584
0001a0 9c ae 3e bb 72 c0 7a bc 9e 9a 41 3b 5c 19 ea 3a
       -0.0029095775 -0.015304672 0.0029541622 0.0017860341
0001b0 71 b2 a1 3c ff 17 8c 3c 6f 51 99 ba f6 9a f8 bb
       0.019738408 0.017101286 -0.0011697243 -0.007586832
0001c0 18 2f 13 3c 49 7a 32 3c 5f 44 61 bb c2 ba 9f bb
       0.008983396 0.010893413 -0.0034373028 -0.004874558
0001d0 28 3b e8 3a a7 6e 83 bb 75 dd 23 3c bd 06 12 3b
       0.0017717825 -0.0040109935 0.01000153 0.0022281848
0001e0 9c 3a 0d 3c 2a 7c 78 3c 0c a5 2a bc b6 73 6f bd
       0.008619931 0.015166322 -0.010415327 -0.05845996
0001f0 34 d2 bb bb 02 52 8e bb 4c 32 e7 bb 35 3b 48 39
       -0.0057318453 -0.004343272 -0.0070555564 0.00019095543
000200 98 4a 17 3c 8d 80 8b 3c fb 49 af bb ab 68 80 bd
       0.009234093 0.017029071 -0.0053493953 -0.06269964
000210 d2 9c dd bb 34 d7 1b 3b 21 fb 54 3b c4 9a 0f 3a
       -0.006763079 0.0023779394 0.0032498317 0.0005478079
000220 b2 b5 98 3c b9 55 9d 3c f2 bf 33 3b 35 a0 f4 bb
       0.018641327 0.019205915 0.002742764 -0.007465387
000230 91 7c 76 bb e8 26 c2 bb c0 db fc bb 15 a7 8c b8
       -0.0037610868 -0.005925048 -0.007716626 -6.706842e-05
000240 b0 50 b7 3a d3 c7 62 3b 48 e2 58 3c 9e a8 fa 3a
       0.0013985839 0.0034603968 0.013237543 0.0019123738
000250 05 f7 9a 3b eb 1b e2 b9 af 4f 25 3c cc a8 22 3b
       0.004729154 -0.0004312688 0.010089799 0.002481985
000260 cb f0 7b 3b 20 30 e8 39 3b f8 07 3b 83 39 b4 3a
       0.0038443084 0.00044286344 0.0020747322 0.001375005
000270 01 0a 3c ba 16 c9 cb bb ca e3 58 3c 65 80 89 3b
       -0.00071731216 -0.0062190397 0.013237903 0.004196214
000280 ca 03 12 3b 76 18 22 bc 2d 90 36 3b c0 4b e3 3a
       0.002228009 -0.009893527 0.0027856932 0.0017341301
000290 ff 76 19 bb 46 da 06 bc 5e 2e a4 3b 3d de 23 3b
       -0.0023416874 -0.008230751 0.00501041 0.002500429
0002a0 0d 57 36 bb 71 29 08 bc 66 f5 1b bb a4 dc 7e b9
       -0.0027822882 -0.008310662 -0.0023797392 -0.00024305523
0002b0 df 69 b6 ba 0a 4d 72 bc f7 ec a2 3a 46 0c 88 3a
       -0.001391705 -0.014788875 0.001243024 0.0010379634
0002c0 27 75 44 3c 30 2f 64 3c 9b 78 12 bc 94 2d 3a bd
       0.011990822 0.013927266 -0.008939887 -0.045453623
0002d0 5c 7c 30 b8 b9 17 8c bb a9 fe 0b 3c ef 83 e6 3a
       -4.207749e-05 -0.004275289 0.008544602 0.0017586927
0002e0 7a 09 fb 3a 4e d1 2a 3b cf 9a 77 b9 ce e1 34 3a
       0.0019152605 0.0026064697 -0.00023613426 0.00069001026
0002f0 4e 3d 3c 3c 18 ec 97 3c 5f bd 18 3a 66 34 e9 bc
       0.011489226 0.018545195 0.00058265583 -0.028467368
000300 bf 19 ba 39 85 18 93 3b 12 15 15 3b 49 61 a5 3a
       0.00035495867 0.004489007 0.0022748155 0.0012617494
000310 f1 00 4a 3b 92 80 be 3a 5b 93 62 bb 36 53 84 39
       0.0030823315 0.0014534167 -0.0034572694 0.00025239
000320 81 c3 81 3b c2 b7 2e b9 5f 2b 1f 3c d5 1a a7 3a
       0.0039600735 -0.00016662388 0.00971493 0.0012749085
000330 f0 e5 80 3c 29 36 7e 3c 4e 80 70 3a 2a ba d5 bb
       0.015734643 0.0155158425 0.00091743923 -0.0065224366
000340 1d 47 eb bb 70 27 80 bb 0b bc e0 bb 0b 45 82 3a
       -0.007180108 -0.0039109513 -0.006858354 0.0009938789
000350 8d 19 20 bc 91 4b 36 bc 9a 0d fa bb 49 de c6 3a
       -0.009771717 -0.011126415 -0.007631016 0.0015172447
000360 1a bf 12 bc cd 46 6e 3a 4e 8e 6c 3c 71 64 45 3b
       -0.008956695 0.00090895296 0.014438225 0.0030119682
000370 36 be f8 bb a9 95 95 3a f0 7e 1f bb ad ca 93 3a
       -0.0075910343 0.00114124 -0.0024337135 0.0011275612
000380 82 df 72 3a 41 4a ac bb 97 6b a9 3b f8 bd f6 b8
       0.00092648726 -0.005257875 0.0051702964 -0.000117655785
000390 c9 10 4e 3b 65 b6 91 3b ee ad 61 3c 3f e2 b7 3a
       0.003144311 0.004446792 0.013774378 0.0014029219
0003a0 fe 5c 25 3a ba 82 fe 39 ab 34 4b 3a 0f 39 e4 ba
       0.00063081074 0.00048544054 0.00077516836 -0.0017412024
0003b0 6c b8 30 3c d2 85 be 3a aa e7 51 3b be ae a2 ba
       0.010786157 0.0014535731 0.0032028952 -0.0012411696
0003c0 2e d9 74 3b 59 ee cc ba d1 49 1e 3c dc a6 bf 3a
       0.0037360894 -0.0015634998 0.009661154 0.0014621872
0003d0 8b 24 d3 3a 1e de 71 3b e3 e7 58 3c a0 86 f9 3a
       0.0016108913 0.0036906074 0.01323888 0.0019037314
0003e0 a6 e7 8a bb 0b d9 26 3c 86 4f 76 bb 1a e6 b2 39
       -0.0042390404 0.010183583 -0.003758402 0.00034122245
0003f0 fb 68 1c 3c 12 f7 31 3c 37 5b 2e bc f7 5c 88 bd
       0.009546514 0.010862129 -0.0106418645 -0.06658357

graphconv.0.linear_edge.weight_orig f4 [256, 64]
000000 8f c9 73 bc cb 26 8f bb 35 61 a4 3b f8 a2 9c bb
       -0.014879598 -0.004368638 0.005016471 -0.0047801696
000010 ee 7b db 3b 04 27 86 3b 83 ed 8a 3b 65 db 01 bc
       0.006698123 0.0040940065 0.0042397394 -0.007925843
000020 2e 54 70 3a 9d ed dd 3a 77 f7 1b bb d2 6b a8 ba
       0.0009167817 0.0016931776 -0.0023798624 -0.0012849516
000030 c3 bc ee 3b 21 a9 87 bb 7e 80 7a 3b 47 15 b7 3b
       0.0072856857 -0.004140035 0.003822356 0.0055872533
000040 b4 d0 9b bb 41 d6 2c 3a fa 1f e2 ba cd 3d 0f 3c
       -0.004755104 0.00065932056 -0.0017251961 0.008742762
000050 ba 1e a2 bb a7 83 e3 3b f4 dc 20 39 d5 50 60 bb
       -0.0049475105 0.0069431844 0.000153411 -0.0034227867
000060 e6 a5 a8 3a e0 5d 2f b9 55 cf 0c 3c 58 04 71 bc
       0.0012866824 -0.00016724272 0.008594354 -0.014710508
000070 7d 89 72 bc 4a 65 b5 bb af cf 71 bb d3 08 b0 ba
       -0.014803288 -0.0055357562 -0.003689747 -0.0013430364
000080 a3 00 41 bc 8a 1c 68 3a e9 22 ab b9 67 32 ee bb
       -0.011779937 0.00088543503 -0.00032641672 -0.007269192
000090 17 0b 4c bb 9a 57 15 bc ce f8 c1 bb 83 8c 29 bb
       -0.003113454 -0.009115124 -0.0059195524 -0.0025871105
0000a0 6a 2e e8 bb 28 20 59 3b 77 93 c2 bb 34 5e c4 bb
       -0.007085611 0.003313074 -0.0059379893 -0.005992675
0000b0 13 eb 30 3c 31 b3 0a 3c 0c d4 cf 3b fe 77 ca 3b
       0.010798234 0.008465574 0.0063424166 0.006178855
0000c0 d6 ad 57 3b 61 68 52 bc a3 cf 9e 3a d9 74 11 3c
       0.003291001 -0.012842269 0.0012116324 0.008877956
0000d0 34 2b 97 bb 43 e5 b5 3a a1 a9 9b ba b6 0b b1 3a
       -0.0046133045 0.001387753 -0.0011876115 0.0013507518
0000e0 4b 55 13 b9 58 e8 34 3c c5 9d 2a ba 27 9e 58 bc
       -0.00014050787 0.011041723 -0.0006508495 -0.0132213
0000f0 74 0b 45 3b 74 c1 0a bc 5e 09 8f 3b d4 75 c6 ba
       0.003006664 -0.008468974 0.0043651303 -0.0015141317
000100 9a 50 c1 bb a3 c3 b0 bb bc eb cb 37 02 9d 98 b9
       -0.005899501 -0.0053944155 2.4309258e-05 -0.0002910868
000110 be fc c7 3a ec ac 52 3b 81 42 99 bb 06 f5 7d 3a
       0.0015257818 0.0032146527 -0.0046771173 0.00096876954
000120 7e 45 36 3b b4 db 57 3b 24 30 31 ba 58 17 ea bb
       0.0027812417 0.003293735 -0.00067591877 -0.007143896
000130 97 24 17 3c f5 8c 31 bb b2 df 18 3c a6 d1 e7 3b
       0.009225032 -0.0027092074 0.009330677 0.0070745526
000140 b6 e2 25 bb d1 aa 85 3b de 9e 6a bb 65 65 a0 3a
       -0.0025312132 0.004079201 -0.0035800259 0.0012237249
000150 88 f2 2c bb df 6e d5 3b 09 b5 39 bb 06 12 b3 ba
       -0.0026389677 0.006513461 -0.0028336665 -0.0013661988
000160 50 80 bf ba 8a ea 04 3b 08 3a c3 3b 31 75 30 bc
       -0.0014610384 0.0020281398 0.0059578456 -0.010770128
000170 ac 77 28 bc 60 6d 68 bb 75 d8 d4 bb 0c f0 b7 39
       -0.010282438 -0.0035465583 -0.0064955303 0.0003508333
000180 88 3d 32 bc 01 38 26 3b 63 a0 b8 3a d5 48 4e bb
       -0.010878928 0.002536297 0.0014085885 -0.0031476517
000190 0f 32 20 3a e1 28 4d bb f1 55 7f bb b5 55 42 3a
       0.0006110975 -0.0031304883 -0.0038961137 0.0007413284
0001a0 1b a3 5a bb 2c 50 b1 3b 33 66 8c 38 37 7f 5c 3b
       -0.0033361379 0.0054111686 6.694756e-05 0.0033645162
0001b0 cb 72 c0 3a 33 fd b8 3b d8 14 c9 ba e2 42 d1 3b
       0.0014682648 0.005645418 -0.0015341295 0.006386147
0001c0 d9 70 b7 3b 4c d8 6f bb 46 6e 04 3b 51 ad 14 3b
       0.0055981693 -0.003659743 0.002020733 0.0022686312
0001d0 93 f5 01 bc e0 af 02 bb 3a ce 01 3c ec fa 4c bb
       -0.007932085 -0.0019941255 0.007922703 -0.003127749
0001e0 5d 11 4e 3b 25 2a 83 3b a7 bc a1 ba b3 81 73 bb
       0.0031443455 0.0040028268 -0.0012339548 -0.0037156164
0001f0 c4 0d 9c 36 01 84 24 bb 59 ff 99 3b a7 70 3e ba
       4.650765e-06 -0.0025103095 0.0046996293 -0.00072647113
000200 63 79 18 3b 8c 6f 7c bb b7 bf fd bb fd 55 e9 ba
       0.0023265711 -0.0038518636 -0.0077438015 -0.0017802116
000210 6f b1 a4 bb a4 1c 08 bb 45 40 21 bb ba a0 96 3b
       -0.0050260345 -0.0020769024 -0.0024604958 0.004596797
000220 a2 d9 03 3a 43 8c fe 3b 72 f5 d5 ba 59 42 e7 bb
       0.0005029683 0.0077681853 -0.0016323759 -0.00705747
000230 b5 f2 99 3b 4f f1 d9 bb be 42 19 3c 36 b9 00 3a
       0.0046981224 -0.0066510807 0.0093542915 0.0004910411
000240 e3 31 f8 ba ea 30 2c 3b d2 92 e2 ba e1 d4 13 ba
       -0.0018935766 0.0026274272 -0.0017286188 -0.00056393264
000250 2a 1f 7c bb f1 96 06 3a 4b 17 ee bb 34 fa 82 3b
       -0.0038470724 0.00051341864 -0.0072659603 0.0039971117
000260 33 a2 be bb 11 4e 9a 3b bc 9a c7 3b 02 a9 8a bb
       -0.0058176755 0.0047090133 0.006091444 -0.004231573
000270 df d0 84 ba b2 4e b1 ba 3a 75 58 ba b7 bf ae bb
       -0.0010133049 -0.0013527481 -0.0008257214 -0.005332913
000280 ac 8c bc bb 3d 1e 1a 3b 21 a4 f1 3b 0e 7a 31 bb
       -0.005754074 0.0023516559 0.007374302 -0.0027080807
000290 a7 6c 50 3b 9b 8b 9a ba c2 8f d7 b9 b2 3e 0a b9
       0.0031803043 -0.0011790873 -0.00041115104 -0.00013184061
0002a0 23 c2 04 bb a6 3d a4 3b 03 9e 61 3b 4a 5d 84 3b
       -0.0020257316 0.005012232 0.0034426458 0.0040394412
0002b0 8e c1 61 3a d8 bc 97 bb 41 83 26 bb d4 73 23 3b
       0.0008611911 -0.004630666 -0.0025407823 0.0024940865
0002c0 44 c7 25 3b ff ee e8 3a 79 d3 e9 3a 12 34 69 bb
       0.0025295774 0.0017771422 0.0017839513 -0.0035584015
0002d0 b6 32 26 3b 25 8a 27 bb 42 8c a6 3b ce f5 02 bc
       0.0025359816 -0.0025564518 0.005082638 -0.007993175
0002e0 f2 d2 de 3a c7 38 52 bb 1f 5c 73 39 5e a0 bb 39
       0.0017000122 -0.00320773 0.00023208604 0.00035786902
0002f0 24 5d 43 bb df 0a 00 3a 39 5c 3f 3b 06 c1 db 3b
       -0.0029810155 0.00048844324 0.0029199256 0.00670636
000300 84 ba 10 bc 54 1a 6a bc d2 a9 ed 3c f1 1c 3c bb
       -0.008833531 -0.014288504 0.02901164 -0.0028703774
000310 26 d1 49 3c 05 fd 1d 3c 3c 8f c5 3b d4 1d ab bb
       0.012317931 0.009642844 0.0060290378 -0.0052220616
000320 73 ef 80 3b 7a 0e 8c 3b 44 11 11 bb 3f 7d 88 3b
       0.0039347946 0.0042741867 -0.0022135535 0.004165321
000330 6f 68 ab 3b df 2e 59 3b e8 18 b9 bb 31 5a a9 3c
       0.0052309553 0.003313951 -0.005648721 0.02067289
000340 29 7a d4 bb fa da 15 bc ec f2 bf bb 11 09 2f 3c
       -0.006484289 -0.009146446 -0.005857816 0.010683314
000350 73 12 19 bc 91 0f 77 bb ec 11 52 3b c0 ca 1f bc
       -0.009342778 -0.0037698487 0.003205414 -0.009752929
000360 cd 23 14 3c e4 a5 e6 bb 76 09 00 3b b7 ba c9 bc
       0.009041739 -0.0070388187 0.001953689 -0.024625165
000370 16 8a 6e bc 73 72 12 bb e3 f2 d7 3b ba 85 c8 bb
       -0.014559289 -0.002234605 0.0065902337 -0.006119457
000380 0b ea da bb 59 eb 44 3b d3 72 29 bc 41 82 f6 b8
       -0.006680732 0.0030047505 -0.010342318 -0.00011754456
000390 78 56 d9 bb cc ef 53 3a bc 42 89 bc 6b 55 98 3a
       -0.0066326223 0.0008084744 -0.016755454 0.0011622136
0003a0 ce 74 7b bb 9a 98 9a bb e9 14 77 bb 54 8d 35 bc
       -0.0038369182 -0.0047178986 -0.0037701672 -0.0110810585
0003b0 7b 58 fd 3b 9b 3f b9 3c 5e c4 11 3c fe 11 14 3c
       0.007731495 0.022613337 0.008896915 0.009037493
0003c0 88 83 e7 bb 80 df 8b bc f0 65 c0 bb fb bd 0d 3b
       -0.0070652403 -0.017074347 -0.005871527 0.002162813
0003d0 5a c3 98 3b 80 37 ab b9 82 2d d3 3a 20 d7 44 3c
       0.0046619596 -0.00032657012 0.0016111585 0.01201418
0003e0 2a a7 27 bc 4a c2 0e 3c bc 3f 0c 3c 78 96 85 bc
       -0.010232726 0.008713314 0.008560117 -0.0163071
0003f0 5a 3c 1e 3c ba 03 89 b9 2e 6f 83 b8 9c 9c d3 bb
       0.009657944 -0.00026133453 -6.2672756e-05 -0.0064578783
