models/energy_epoch_14.pt (torch, 293307 bytes, 13 tensors)

graphconv1.linear_edge.bias f4 [256]
000000 fe 78 d9 3b bf 6b 8e 3b 8a 33 b7 3b c0 da 58 39
       0.006636738 0.0043463404 0.0055908607 0.00020680856
000010 a8 35 03 bc 3d 4d c0 bb b1 d8 6e bb e6 c0 66 bc
       -0.008008398 -0.0058685825 -0.0036445076 -0.0140840765
000020 05 fc 0c bc d7 29 d5 ba 05 ee ed bb cf e4 e8 bb
       -0.008605008 -0.001626308 -0.00726104 -0.0071073542
000030 05 87 54 bb 7a 72 34 bc e6 d9 76 bb 2e 73 fc 3c
       -0.003242911 -0.011013621 -0.0037666499 0.03081664
000040 47 c6 35 bc 35 0d d9 bb 86 3d 06 bc 12 7e eb bb
       -0.011094636 -0.006623889 -0.008193379 -0.0071866596
000050 5c 6a 31 bc 00 e0 c4 bb cb 8b a8 bb 98 51 4f bc
       -0.010828581 -0.006008148 -0.0051436177 -0.012653731
000060 32 a5 60 3b c2 e1 ee ba a4 29 0e bb 42 3b e2 3b
       0.0034278152 -0.001822524 -0.00216923 0.0069040367
000070 e4 69 c7 ba 5a 77 fc bb ba a3 11 b9 79 4d 99 bc
       -0.0015214053 -0.0077046575 -0.0001388927 -0.0187137
000080 c9 3b d9 bb 2a 47 c4 bb 6a 65 2e bb 24 19 f9 3b
       -0.0066294414 -0.0059899287 -0.002661074 0.007601874
000090 2a 15 70 3a a5 18 3d bb 62 18 84 bb 8a 69 ed bb
       0.0009158427 -0.00288538 -0.004031227 -0.0072452473
0000a0 18 17 a3 bc f9 32 9f bc a3 98 89 bc 6a a8 b0 bb
       -0.019908473 -0.019433485 -0.016796416 -0.0053911703
0000b0 38 54 d7 bb b1 00 8c bb d5 be cd bb 24 c1 35 bb
       -0.006571319 -0.0042725434 -0.0062788525 -0.002773353
0000c0 5d ba 67 bb ff 55 06 3c 7d 64 4a ba 2b 62 9e 3a
       -0.0035358884 0.008199214 -0.00077206624 0.00120837
0000d0 49 9d e0 bb e7 7e 98 bb f3 14 97 bb 3d 32 1c 3a
       -0.0068546874 -0.0046538 -0.0046106516 0.0005958414
0000e0 5d 23 96 bc 15 17 be bc 86 5b 71 bc d7 f5 a5 bc
       -0.01832741 -0.023204366 -0.014731294 -0.020258827
0000f0 bb 01 07 bc 7e 6f 6b bb 76 0b c0 bb 37 01 a5 bb
       -0.008240159 -0.0035924609 -0.0058607413 -0.005035545
000100 b0 dc a0 bb 4a b4 19 bc d1 70 14 bc 49 43 dd bc
       -0.0049091205 -0.009381363 -0.009060101 -0.027009623
000110 01 22 33 3b f8 43 ad ba c0 91 3e 3b ed 6c b5 ba
       0.00273335 -0.0013219109 0.0029078573 -0.0013841667
000120 7f 48 41 bc 0c 32 25 bc 52 99 16 bc 3b b8 38 3a
       -0.01179707 -0.010082733 -0.009191828 0.00070464954
000130 5e 50 d5 bb 6a 26 cf bb 06 45 34 bc c4 de 20 3c
       -0.0065098247 -0.006321718 -0.011002785 0.009818736
000140 f5 92 a2 bb 72 19 dd bb 1b 37 1f bc fd 02 29 3c
       -0.0049613663 -0.006747418 -0.009717728 0.010315654
000150 8c 1c 0f bc 91 ba ef bb 7b 3b 1c bc 89 a0 4d 3a
       -0.008734833 -0.0073159416 -0.009535666 0.0007844051
000160 a2 e6 63 bc aa 05 45 bc 4b c6 49 bc 9d 72 3b bc
       -0.013909968 -0.012025276 -0.012315343 -0.0114409
000170 11 9a d4 3a 21 be 6a bb bc c0 90 ba 9a bf 5a 3c
       0.0016220232 -0.0035818892 -0.0011043767 0.013351345
000180 61 ed 0f bc c0 5c a0 bb fc 2e 93 bb 5b d2 16 bc
       -0.008784623 -0.004893869 -0.004491685 -0.009205426
000190 8a c6 e4 bb ab 4d a7 bb f9 0a 0e bc 51 10 0d 3a
       -0.0069816755 -0.0051056943 -0.008669608 0.00053811545
0001a0 21 13 0a 3b 6a e6 60 bb 81 32 f8 bb f5 65 76 3c
       0.002106853 -0.0034317025 -0.00757438 0.015038957
0001b0 ae fa ba 39 08 04 36 bc db 1d 9d bb 0b 02 b3 3a
       0.00035663455 -0.01110936 -0.004794819 0.0013657225
0001c0 ef b5 fa bb 0b 51 b6 bb 3c c3 af bb 85 42 77 bb
       -0.0076510827 -0.0055638603 -0.00536385 -0.0037728858
0001d0 68 ce d8 bb 4a 06 1e bc 99 2e 91 bb 46 ef 0a bd
       -0.0066164024 -0.009645054 -0.0044306037 -0.033919595
0001e0 17 fc 4e bc 0f c9 cc bb 47 71 f4 bb 7c 69 87 bc
       -0.012633345 -0.006249554 -0.007459793 -0.016529791
0001f0 9a 3f 1e bc 9b 21 4e bb c8 71 de b9 86 24 9b bc
       -0.0096587185 -0.0031453136 -0.00042427913 -0.018938314
000200 df f8 2a bc b5 52 ce bb dc e1 b7 ba d9 84 a2 bc
       -0.010435312 -0.0062964805 -0.0014029103 -0.019838737
000210 a7 e9 22 3c 38 6e 2f 3c d3 62 39 3c f4 78 81 3b
       0.009943402 0.010707431 0.011315065 0.0039511863
000220 37 79 09 bc 4d d5 df bb 61 aa 18 bc 7e 21 f4 bb
       -0.008390716 -0.0068308474 -0.009317965 -0.0074502816
000230 84 3b 26 bc c2 ba 1f bc fa 2e c7 bb f1 c7 e6 3b
       -0.010146026 -0.009749116 -0.006078598 0.007042878
000240 3b c1 0f bb c4 97 be 3a d1 a9 0f ba 12 a4 4e 3a
       -0.0021935243 0.0014541079 -0.00054803217 0.0007882725
000250 e8 cb 91 ba 22 53 ac bb 37 f4 7a bb 38 4e ab bc
       -0.0011123391 -0.0052589336 -0.0038292536 -0.020911321
000260 74 ff 55 bc e1 37 39 bc 7d 4d 41 bc f9 34 86 bc
       -0.013061393 -0.0113048265 -0.01179826 -0.016382681
000270 7d f7 85 3b 95 98 53 3b db 09 75 3b 8b c9 bb 3a
       0.004088341 0.003228699 0.0037389908 0.0014327032
000280 fe 21 e4 3a f6 51 39 bb 88 26 d0 b9 8e c1 92 3c
       0.001740515 -0.0028277612 -0.0003970156 0.01791456
000290 4b ae e2 3a 9f 9c ad bb 0f cf 89 3a c9 91 2c 3b
       0.0017294375 -0.0052982117 0.0010513979 0.0026332012
0002a0 fb 53 43 3b a3 6f b5 ba 36 73 4b bb eb 7c 43 3b
       0.0029804695 -0.0013842474 -0.0031044013 0.0029829096
0002b0 f5 90 03 ba 89 80 59 ba 96 d8 c6 bb a6 23 18 ba
       -0.00050188537 -0.00082970463 -0.0060682995 -0.0005803652
0002c0 73 c8 22 bc f9 dc 80 bb b1 bf f8 bb 07 8c 1b b9
       -0.009935486 -0.003932592 -0.007591211 -0.00014834116
0002d0 3b ae 48 3b 50 50 7a 3c 79 01 99 3b 94 f7 57 3b
       0.0030621428 0.015277937 0.004669365 0.0032953965
0002e0 27 c2 2b 3b 50 2c 15 ba 9f 05 c7 bb 1f ce fc 3b
       0.0026208253 -0.0005690502 -0.006073668 0.0077150012
0002f0 f1 37 52 bb 0b 0d e8 3b 60 55 a4 bb 78 b0 b5 ba
       -0.00320768 0.007081633 -0.0050150603 -0.0013861796
000300 3c f0 62 b9 fd 30 82 3b e9 ac 8d ba 3d 3e 5a 3b
       -0.00021642534 0.003973125 -0.0010808978 0.0033301257
000310 ae fc e4 3b de d1 50 3b 9f 12 5e 3b 8b 4e 0e 3c
       0.0069881296 0.0031863372 0.003388561 0.008685718
000320 14 cb dd bb c4 48 f7 bb 63 e5 aa bb 19 39 5c 3c
       -0.0067685936 -0.007546516 -0.0052153333 0.0134413475
000330 4c 3f c5 bb f3 68 be 3a 79 fc 27 bc 04 ad 80 3b
       -0.0060195085 0.0014527127 -0.010253065 0.003926875
000340 c6 2f 88 bb 3c a7 84 ba 30 57 ad 3b 2f 97 79 bc
       -0.0041560857 -0.001012064 0.0052899346 -0.015233799
000350 a9 16 3f bc 44 39 1e bc 8c b8 91 bb 0c a6 e5 bc
       -0.011663117 -0.009657208 -0.0044470485 -0.028033279
000360 39 93 92 bc 42 50 55 bc 98 06 4f bc 66 b5 4e bc
       -0.017892467 -0.013019623 -0.012635849 -0.012616491
000370 29 d5 19 bc 4b 1d f0 bb 8a d4 f6 bb ed cb 2b bc
       -0.0093892 -0.0073277107 -0.007532661 -0.010485631
000380 ec fa 09 bc 0a db 01 bc 0a b4 23 bc 99 e3 8d 35
       -0.008421641 -0.007925758 -0.009991655 1.0571558e-06
000390 58 b8 5e bc 98 5c 7f bc 38 4d 53 bc 23 1b 78 bc
       -0.013593756 -0.015586041 -0.012896828 -0.015143189
0003a0 ae 17 61 bc 20 88 2f bc ba 0c 4d bc c6 50 57 bc
       -0.013738556 -0.010713607 -0.012515241 -0.0131418165
0003b0 04 b0 69 3b 13 2b 06 ba a2 38 5f bb 70 fc a3 3c
       0.0035657892 -0.0005118113 -0.0034060855 0.020017833
0003c0 8c ef c2 bb a5 57 77 bb f5 c6 8e bb 50 69 af bb
       -0.0059489664 -0.003774145 -0.0043572136 -0.0053531304
0003d0 25 87 3f 3c 81 8f 1e 3c 14 92 a6 3b 66 7c 1a 3d
       0.011689936 0.009677769 0.005083332 0.03771629
0003e0 16 5b 1f bc 8b 20 03 bc 3b e8 d5 bb 86 a3 1d 3c
       -0.009726306 -0.008003364 -0.006527928 0.009621507
0003f0 da 7a f4 3a 5e 3a 72 3b 65 98 f2 3a 0e 00 93 3b
       0.0018652335 0.003696106 0.0018508552 0.0044860905

graphconv1.linear_edge.weight_orig f4 [256, 10]
000000 1c 5c fe bf 6d f7 66 bf 12 2f 44 3f e2 5c 3e bf
       -1.987186 -0.9022129 0.76634324 -0.7436048
000010 89 45 0c 40 aa 06 00 bf b9 0d c2 bf 19 d3 3a 3f
       2.191744 -0.5001017 -1.5160438 0.7297836
000020 58 71 d5 be e6 60 55 3c 39 27 c8 3f 77 3b d6 3f
       -0.41688037 0.013023591 1.563697 1.6736897
000030 d6 33 bb 3f d5 f2 4a 3e 43 a5 c0 bf b6 7b 70 3f
       1.4625194 0.19819196 -1.5050434 0.9393877
000040 4a fe b2 bd 13 e8 6d bd 71 0a 5f 3e 7e 9d db 3d
       -0.08739908 -0.05808265 0.21781327 0.107233986
000050 ac e1 3c 3f 97 17 96 be 68 11 4d 3e 3b c0 85 be
       0.7378185 -0.29314873 0.20026171 -0.26123223
000060 4d f4 c4 3f 40 34 0d 3e eb 5e d0 3f 52 10 76 bd
       1.5387055 0.13789463 1.6278967 -0.060074158
000070 63 66 62 3f 05 23 00 c0 a0 a5 70 3e 53 24 ca 3e
       0.8843748 -2.0021374 0.23500681 0.39480838
000080 3f 28 ee be f6 6f 5b 3e 82 03 29 3f 96 46 06 be
       -0.4651508 0.21429428 0.6602098 -0.13112864
000090 f2 79 b3 3f 52 8e 5e 3f c1 a5 8a 3f d5 6a 0f 40
       1.402159 0.86935914 1.0831834 2.2408955
0000a0 7e 80 8b 3d 60 5a f7 bb f2 ef 96 3e 24 79 98 3f
       0.06811617 -0.0075486153 0.2947994 1.1911969
0000b0 76 b9 7d 3f 34 96 a5 3f 4a 9e 8d 3f 64 38 ba 3e
       0.99111116 1.2936463 1.1063931 0.36371148
0000c0 ca b3 69 3f 8e 97 99 bf 3c 2d 6c bf de 56 72 be
       0.9128996 -1.1999376 -0.9225652 -0.2366595
0000d0 a4 c0 63 3f 1f 5d 3c 3f 10 7a 1e bd e2 40 9f bf
       0.8896582 0.7357959 -0.038690627 -1.2441676
0000e0 8d 2e 1e c0 84 32 2a 3f 4a 2a b2 bf 29 6f 5c bf
       -2.4715912 0.6648333 -1.3919156 -0.86107117
0000f0 84 96 83 bf 98 f1 10 3e b9 86 ef 3d d7 23 8b be
       -1.0280309 0.1415466 0.11695618 -0.2717578
000100 bf b6 38 3f 67 59 89 3f a4 68 02 3f 1a 38 01 bf
       0.7215385 1.0730408 0.5094092 -0.5047623
000110 8c 66 cc bf ab df 8f bf 66 9c 23 3f 68 8f 35 3f
       -1.5968795 -1.1240133 0.6391052 0.70921946
000120 b8 e3 2d c0 d8 79 2a c0 98 de 8f be f1 cd c1 3e
       -2.7170238 -2.6636868 -0.28099513 0.37852433
000130 1a 74 0b 40 c9 32 1c 3e 6e 57 86 be af f5 70 3e
       2.1789613 0.15253748 -0.2623858 0.23531221
000140 8c f7 ad 3f 10 47 0f 3f cb 25 57 3f 66 bf 8c bf
       1.359117 0.5596781 0.8404204 -1.099591
000150 c2 05 4d bf 9b f0 08 3e 4b c2 51 bf 23 fb c8 3f
       -0.8008691 0.13373034 -0.8193709 1.5701641
000160 ad df 79 bf 56 10 81 3d d9 19 30 bf f5 92 fb 3f
       -0.9760693 0.06301944 -0.6878944 1.9654223
000170 79 d3 cb be a5 18 51 3f 7e dc 54 bf 68 58 d6 3d
       -0.39809778 0.8167823 -0.83148944 0.10466081
000180 ca 82 12 3f 95 d0 1b 3f 54 5c e8 bf d8 3c 05 3d
       0.5723082 0.60865146 -1.8153176 0.03252873
000190 2e b0 bf bd b9 93 fe bd 7e 81 82 bf 3a 92 09 3d
       -0.093597755 -0.124305196 -1.0195768 0.03358672
0001a0 88 43 84 be 81 2e 06 bf 6b af a4 be 06 04 b4 3f
       -0.25832772 -0.5241471 -0.32165083 1.4063728
0001b0 4b 1d 10 bf b5 61 a6 bf 61 67 2f 40 e7 fd 38 3e
       -0.562947 -1.2998568 2.7406847 0.18065606
0001c0 12 da 59 bc 69 f7 09 bf 10 fc 2c 3f 0e bd 66 3d
       -0.013296621 -0.5389314 0.67572117 0.05633264
0001d0 60 3f 8c bf b5 2a 95 3f e3 98 b1 3f 53 3b b9 bf
       -1.095684 1.1653658 1.3874782 -1.4471229
0001e0 f4 2b 1e 3f 31 1c 32 3f 94 fc 95 bf e4 c5 cc bf
       0.6178582 0.69574267 -1.1717706 -1.5997891
0001f0 40 cc d7 3e a5 ed ff 3f 01 f5 8a 3e ee 49 82 be
       0.42148018 1.9994398 0.27140048 -0.2544703
000200 cf be fe 3e c9 45 bb be 6b 03 84 bf 64 3f ae bd
       0.4975495 -0.3657668 -1.0313543 -0.085081846
000210 b0 94 f8 bf 6a 71 82 3f c6 a3 b0 3d a8 6b f3 bb
       -1.9420376 1.0190861 0.08624987 -0.007428605
000220 e3 4d c1 3e 8b fe 7e 3f db 77 51 3e 04 57 6e be
       0.37754735 0.9960715 0.20455877 -0.23275381
000230 e3 c0 52 3e 7e ae 11 3e 7a 0e 9f 3d e2 ce 91 3e
       0.20581393 0.1422672 0.07766433 0.28478152
000240 60 90 cd 3f ab 3e c0 3e f0 40 8c be 0a 6f b8 be
       1.6059685 0.37547812 -0.27393293 -0.36022216
000250 57 06 f1 be 38 4b 82 3f 12 ee c6 be e9 ac ca bd
       -0.4707515 1.0179205 -0.38853508 -0.09896261
000260 6f a0 b0 bf a1 86 8a 3f 77 db d5 bd d0 9e 3c 3f
       -1.379896 1.0822335 -0.1044225 0.7367983
000270 4c d8 90 be 2a 42 4a 3f 77 1e 84 3f 73 2b 84 bf
       -0.2829002 0.7900721 1.0321797 -1.032576
000280 e8 1f 1c bf ff 44 3f 3f 89 61 74 bf 00 01 e1 3e
       -0.60986185 0.74714655 -0.95461327 0.43946075
000290 42 ab 02 3d 6a 6e 5a 3f 03 2c 58 3f b5 1d 20 3f
       0.031901605 0.8532473 0.84442157 0.6254533
0002a0 ff b0 fc bd 11 1a 53 3e 2e de 02 3f bd 43 32 3e
       -0.12338447 0.20615412 0.5112027 0.17408653
0002b0 ef bc 20 bf 57 4a 8b be a5 84 27 3f da bb 43 3f
       -0.6278829 -0.27205154 0.65436774 0.76458514
0002c0 39 de 2e c0 f2 c6 3a bf 02 48 bc 3f 1d 30 11 bf
       -2.7323134 -0.72959816 1.4709475 -0.5671404
0002d0 6c ce f1 3e 1a 18 66 3f 21 f8 a7 3f a3 0c d6 3f
       0.472278 0.89880526 1.3122598 1.6722606
0002e0 dd cb 7d 3f b7 8c fe bf fb e9 1d 3f e0 44 a9 be
       0.99139196 -1.9886693 0.6168515 -0.3306036
0002f0 9b 70 af 3f fe 3c 31 bf 25 3e c5 3f fd 96 38 3f
       1.370624 -0.6923369 1.540959 0.7210539
000300 5d 54 cc be 1b 7f 3f bf 82 ad 29 be b6 cf 66 3d
       -0.39908114 -0.7480332 -0.16570094 0.056350432
000310 4b 4e ab bf 60 7f b6 be b2 84 1f bf 15 9d 84 bf
       -1.3383268 -0.35644054 -0.6231185 -1.0360438
000320 0c 53 ea 3c 13 28 15 3f af 36 9c bf ff 70 8c bf
       0.028604053 0.58264273 -1.2204188 -1.0971984
000330 6d 53 55 3f 88 1e 45 3d e9 8b 9d 3e 48 c6 ac be
       0.8333042 0.04812482 0.30770805 -0.33745027
000340 60 e6 2e bf 08 4d 76 3f f3 01 09 bf f6 e4 a9 be
       -0.68320274 0.9621129 -0.535186 -0.33182496
000350 e4 01 e7 3f 98 d5 17 3f b2 ee 5f bf 73 33 b6 3e
       1.8047452 0.59310293 -0.87473595 0.35586128
000360 7e f6 f8 3e 4f d3 b9 3e ab 3a d7 3d 44 94 0d 40
       0.4862556 0.36294028 0.10509237 2.2121744
000370 cc 12 17 3f 23 55 4c bd 13 72 68 bf 9b 45 11 bf
       0.59013057 -0.04988588 -0.90799063 -0.56746835
000380 07 2c a4 bf a7 35 10 3f bd 41 2a 3e 65 00 c6 3f
       -1.2825936 0.56331867 0.1662664 1.546887
000390 48 f5 e8 3f b7 2e 74 3f 89 1b 34 3f 25 13 09 40
       1.8199854 0.9538378 0.70354515 2.1417935
0003a0 c8 7a b5 3e 63 0b 88 3f 36 e8 47 bf bf 22 a5 bd
       0.35445237 1.0628475 -0.780887 -0.08063268
0003b0 99 c1 b1 be 64 46 1d bf 9f bc 6b be a4 8d 35 3d
       -0.34718016 -0.6143553 -0.23021172 0.044324532
0003c0 a5 4f 28 bf 0b 3e f9 bf 5d a7 77 be 36 da f9 3c
       -0.6574653 -1.9472059 -0.24184938 0.030499559
0003d0 c2 15 e2 3e 50 4b 89 3f 2b 02 63 3f 42 b8 4b bf
       0.44157225 1.0726109 0.88675183 -0.7957803
0003e0 4c 1f ac 3f 6a d9 a6 3f ca 48 19 bf 9a 86 b2 3f
       1.3447051 1.30351 -0.5987669 1.3947327
0003f0 68 bd 50 bf 8f 0b 81 3e 20 d6 ac 3f 0f d7 77 bf
       -0.8153901 0.2520413 1.3502846 -0.9681253

graphconv1.linear_edge.weight f4 [256, 10]
000000 7f e0 d8 bd 4f ee 44 bd 1c 46 27 3d 85 4f 22 bd
       -0.10589694 -0.04807883 0.040838346 -0.039626617
000010 b0 33 ef 3d dd 51 da bc 20 75 a5 bd 36 4b 1f 3d
       0.116797805 -0.026650364 -0.080789804 0.038890086
000020 4d fd b5 bc 3f ef 35 3a 84 a8 aa 3d a3 a9 b6 3d
       -0.02221551 0.00069402525 0.08332923 0.089190744
000030 b2 9d 9f 3d af 0a 2d 3c c9 41 a4 bd 92 0b 4d 3d
       0.0779375 0.010561629 -0.0802036 0.050059862
000040 d4 9d 98 bb 1f d9 4a bb 51 2c 3e 3c 9b 40 bb 3b
       -0.0046574865 -0.0030952168 0.011607246 0.0057144887
000050 31 0c 21 3d d8 f2 7f bc 4c d9 2e 3c 0f 15 64 bc
       0.039318267 -0.015621863 0.010671925 -0.013921036
000060 47 ee a7 3d c1 ca f0 3b 36 aa b1 3d a7 cd 51 bb
       0.08199745 0.007348389 0.08675043 -0.0032013447
000070 89 09 41 3d 38 82 da bd 74 2d 4d 3c 74 5a ac 3c
       0.047128234 -0.106693685 0.012523044 0.021039225
000080 fc 0f cb bc c6 19 3b 3c 88 1b 10 3d 42 fa e4 bb
       -0.024787895 0.011419719 0.035182506 -0.006987841
000090 43 07 99 3d 7e c2 3d 3d aa 6e 6c 3d c6 90 f4 3d
       0.07472088 0.04632806 0.057722725 0.11941676
0000a0 8c e3 6d 3b 4c e7 d2 b9 e5 b1 80 3c 26 01 82 3d
       0.0036298959 -0.0004022665 0.015709827 0.06347875
0000b0 ce 55 58 3d 82 2f 8d 3d 96 7f 71 3d 4e c7 9e 3c
       0.052816205 0.06893827 0.058959566 0.019382145
0000c0 76 43 47 3d 5b f5 82 bd 90 5f 49 bd b6 a0 4e bc
       0.04864832 -0.06394454 -0.0491634 -0.012611559
0000d0 c4 30 42 3d 2c 9b 20 3d 95 1f 07 bb 1c c9 87 bd
       0.047409788 0.039210483 -0.002061819 -0.066301554
0000e0 34 df 06 be e3 1d 11 3d 14 e9 97 bd 5d f3 3b bd
       -0.13171083 0.035428893 -0.07417503 -0.045886386
0000f0 d3 64 60 bd 4a 2b f7 3b af 3a cc 3b ab 45 6d bc
       -0.054783653 0.0075430023 0.0062325816 -0.014481942
000100 7d 7e 1d 3d ea 37 6a 3d 0b 62 de 3c b8 5a dc bc
       0.038450707 0.05718223 0.02714636 -0.026898727
000110 9d 47 ae bd 2d 58 75 bd 14 80 0b 3d 18 ce 1a 3d
       -0.08509753 -0.059898544 0.03405769 0.037794203
000120 d0 43 14 be b4 5a 11 be 58 56 75 bc bc 3e a5 3c
       -0.14478993 -0.14194757 -0.014974199 0.020171516
000130 8b ce ed 3d 47 2e 05 3c e5 16 65 bc 1c 73 4d 3c
       0.116116606 0.008128709 -0.013982509 0.012539651
000140 b9 54 94 3d f3 53 f4 3c 6f 71 37 3d 7f 03 70 bd
       0.07242722 0.029825186 0.044785913 -0.058597084
000150 5d cf 2e bd 33 85 e9 3b 38 d9 32 bd 35 5d ab 3d
       -0.042678226 0.0071264743 -0.043664187 0.08367387
000160 49 0d 55 bd ea 16 5c 3b 7f 26 16 bd 6d 80 d6 3d
       -0.052014623 0.0033582994 -0.036657806 0.10473714
000170 36 ca ad bc 92 48 32 3d 62 7e 35 bd 52 c2 b6 3b
       -0.021214586 0.04352624 -0.04430998 0.005577364
000180 72 d7 f9 3c 88 da 04 3d 9d 1e c6 bd 01 35 e3 3a
       0.03049824 0.03243497 -0.09673808 0.0017334522
000190 d0 70 a3 bb e6 0f d9 bb 6c 8c 5e bd cb 98 ea 3a
       -0.0049878135 -0.0066242097 -0.054333135 0.0017898319
0001a0 dd 8b 61 bc 1b d1 e4 bc bb 6a 8c bc 00 7d 99 3d
       -0.013766256 -0.02793174 -0.017140737 0.07494545
0001b0 44 c1 f5 bc 06 dd 8d bd 7b 8e 15 3e 86 bb 1d 3c
       -0.029999383 -0.069269225 0.14605133 0.009627229
0001c0 9e ba 39 ba 5c 45 eb bc 49 7e 13 3d c3 bc 44 3b
       -0.0007084998 -0.028719597 0.036009107 0.0030019737
0001d0 29 29 6f bd e3 5e 7e 3d 1a 6d 97 3d 53 ef 9d bd
       -0.058388863 0.06210221 0.07393856 -0.07711663
0001e0 fa dc 06 3d 0e dd 17 3d c8 c4 7f bd e9 98 ae bd
       0.032925583 0.03707605 -0.062443525 -0.08525259
0001f0 5c ff b7 3c d9 36 da 3d cf f5 6c 3c aa 2d 5e bc
       0.022460632 0.106549926 0.014462902 -0.013560692
000200 a4 34 d9 3c ff ac 9f bc 88 1e 61 bd f6 91 94 bb
       0.026514359 -0.01949167 -0.054960757 -0.0045340015
000210 13 f3 d3 bd 01 71 5e 3d 1d 9c 96 3b 72 8c cf b9
       -0.10349097 0.054306988 0.004596247 -0.00039586757
000220 8f d1 a4 3c fb 6a 59 3d c0 99 32 3c bd 37 4b bc
       0.020119457 0.05308054 0.010900915 -0.012403426
000230 4b b2 33 3c 6c 6d f8 3b 21 9e 87 3b a8 a4 78 3c
       0.010967801 0.0075814035 0.0041387235 0.015175976
000240 8e 45 af 3d 4f ea a3 3c d8 2b 6f bc 59 41 9d bc
       0.085581884 0.020009188 -0.0145978555 -0.0191962
000250 c6 81 cd bc df 2f 5e 3d e8 9d a9 bc 4e cf ac bb
       -0.025086295 0.054244872 -0.020705178 -0.005273736
000260 46 99 96 bd 96 39 6c 3d c8 57 b6 bb 2e d3 20 3d
       -0.07353453 0.057672106 -0.0055646636 0.039263897
000270 2f 00 77 bc 0c 74 2c 3d a7 4c 61 3d f0 62 61 bd
       -0.015075727 0.04210286 0.055004742 -0.055025995
000280 28 1e 05 bd 6e 15 23 3d 5b 5e 50 bd d1 d8 bf 3c
       -0.032499462 0.03981536 -0.050871234 0.023418816
000290 a5 d3 de 3a 2e 3e 3a 3d 03 51 38 3d 64 85 08 3d
       0.0017000331 0.045469455 0.044999134 0.033330336
0002a0 50 74 d7 bb 55 fe 33 3c 7c 2a df 3c c6 fe 17 3c
       -0.006575145 0.01098593 0.027241938 0.009277051
0002b0 28 0d 09 bd 52 87 6d bc 16 d5 0e 3d de e3 26 3d
       -0.033459812 -0.014497595 0.034871183 0.040744655
0002c0 65 19 15 be da 40 1f bd 2b 89 a0 3d e9 95 f7 bc
       -0.14560468 -0.038880207 0.07838663 -0.03022285
0002d0 60 2c ce 3c e4 2f 44 3d 8e 37 8f 3d b5 81 b6 3d
       0.025167644 0.047897235 0.06993018 0.089114584
0002e0 7f 65 58 3d ee 09 d9 bd bd a4 06 3d 45 53 90 bc
       0.05283117 -0.10597597 0.03287195 -0.017617831
0002f0 34 96 95 3d c0 1e 17 bd 55 2d a8 3d 71 63 1d 3d
       0.073040396 -0.03689456 0.082117714 0.038424913
000300 10 38 ae bc f9 46 23 bd 7b ac 10 bc 7c cc 44 3b
       -0.021266967 -0.039862607 -0.008830185 0.0030029109
000310 d8 0f 92 bd bb 9a 9b bc ee 02 08 bd 70 24 62 bd
       -0.07131928 -0.01899468 -0.03320592 -0.05521053
000320 6a cb c7 3a 67 5a fe 3c 96 31 85 bd cc 7d 6f bd
       0.0015243117 0.031048967 -0.065035984 -0.05846958
000330 ca e3 35 3d 48 12 28 3b 87 54 86 3c 6e 50 93 bc
       0.04440669 0.0025645662 0.016397728 -0.017982688
000340 58 20 15 bd 6d 01 52 3d c6 a2 e9 bc c3 db 90 bc
       -0.0364078 0.05127089 -0.02852 -0.017682916
000350 3a f7 c4 3d b4 75 01 3d ef ee 3e bd fe 59 9b 3c
       0.09617467 0.03160639 -0.046614584 0.01896381
000360 77 46 d4 3c 1e 71 9e 3c 3b 83 b7 3b 7e 6e f1 3d
       0.025912507 0.019341048 0.0056003607 0.11788653
000370 9c cf 00 3d c3 38 2e bb 28 31 46 bd 8f ba f7 bc
       0.03144799 -0.0026584126 -0.048386723 -0.030240325
000380 b4 fa 8b bd ce ea f5 3c de 2a 11 3c dd d2 a8 3d
       -0.06834927 0.03001919 0.008860318 0.08243344
000390 07 a1 c6 3d 07 33 50 3d 2a 91 19 3d 1c c0 e9 3d
       0.09698682 0.050829913 0.037491955 0.11413595
0003a0 90 bc 9a 3c 53 fe 67 3d cb 72 2a bd 0c cd 8c bb
       0.018888742 0.056639027 -0.04161338 -0.0042969044
0003b0 cd 8f 97 bc 41 19 06 bd 8b ff 48 bc f2 cd 1a 3b
       -0.018501187 -0.032738928 -0.012267957 0.0023621288
0003c0 2a 82 0f bd 79 83 d4 bd b8 28 53 bc 9d 08 d5 3a
       -0.035036243 -0.10376639 -0.012888126 0.0016253177
0003d0 ca c4 c0 3c e3 1f 6a 3d 5d 8e 41 3d 02 b3 2d bd
       0.023531336 0.057159316 0.04725491 -0.042407043
0003e0 0d c2 92 3d 17 43 8e 3d 32 b2 02 bd c9 37 98 3d
       0.071659185 0.0694639 -0.03190822 0.07432515
0003f0 c7 fa 31 bd c1 0e 5c 3c f0 5d 93 3d 63 51 53 bd
       -0.04345205 0.013431252 0.071956515 -0.05159129

graphconv1.linear_edge.weight_u f4 [256]
000000 98 3e 12 3d 5b 9a b4 bd 7a bd 28 bd cd 6b 8b 3d
       0.035704225 -0.088185035 -0.041196324 0.06807671
000010 9a e2 d6 bc 8f 47 22 3d d5 82 66 bd f0 8a 14 bd
       -0.026231099 0.039619025 -0.056277115 -0.036265314
000020 fe e8 37 bd 56 b7 4c 3c b7 ff 03 3d 97 9a 98 bd
       -0.044899933 0.012494883 0.03222629 -0.07451361
000030 8a 9d ef bd 15 48 9c 3d 29 aa 70 bc 88 a2 8e 3c
       -0.1169997 0.07630936 -0.014689007 0.017411485
000040 07 80 2d 3c 61 65 a7 bd 94 cf 5f 3d c8 9e b6 bd
       0.010589606 -0.08173633 0.05464132 -0.08917004
000050 57 cd 7c bc d7 61 46 3d 0a c8 cc 3c a2 cf 16 bd
       -0.015429816 0.04843315 0.02499773 -0.036819108
000060 aa 79 d3 3c 26 67 8c 3d f6 d6 72 bd f8 d1 fd bc
       0.02581485 0.068556115 -0.059287034 -0.03098391
000070 ea 9c bb bc b8 b8 38 3d ff 32 03 bc c4 c2 a6 3c
       -0.02290197 0.045098037 -0.008007764 0.020356543
000080 39 a7 7e bb fc e1 db 3c 9a c6 7c bd 7a 9a c0 bd
       -0.0038856997 0.026841156 -0.06171284 -0.09404464
000090 92 dd fd bd 5a d9 d1 3c fb 17 c5 bd d9 93 a0 3d
       -0.12395777 0.025616337 -0.096237145 0.078407
0000a0 b8 c1 cd 3d 7e e5 9e 3d 58 74 59 3d a5 e1 9d 3d
       0.100467145 0.07758616 0.05308947 0.07709054
0000b0 15 d2 16 3d bc ad 42 3d f5 8e 16 3e 4a 44 2c bd
       0.036821444 0.047528967 0.14702971 -0.042057313
0000c0 49 f8 85 bd 8e 94 62 3d 28 57 7c bd ed 65 43 bd
       -0.06541497 0.055317454 -0.061606556 -0.047704626
0000d0 a6 cf a0 bd 4d 93 b1 bc 93 5b 99 bd 04 65 ac bd
       -0.07852106 -0.021676684 -0.074881695 -0.08417705
0000e0 ad 4f 2b 3d 3a 85 be bb f7 f8 3e bd c5 70 1e 3d
       0.04182403 -0.0058142217 -0.04662415 0.038681764
0000f0 6b 60 a3 3d af 27 b9 3d 6e 42 cb bd d6 65 3f bd
       0.07977375 0.09040772 -0.0992478 -0.046727978
000100 0c 3f a6 3c 05 bd 9b bc 76 25 b0 3c ef 6c 9d 3d
       0.020293735 -0.01901103 0.021502238 0.07686793
000110 d8 01 60 3c 1d 7b 21 3d f6 ea da 3c de 84 b5 3d
       0.013672315 0.03942405 0.026723366 0.08863233
000120 ea 6f ba 3c 79 45 e4 3d 9b 61 da 3b 13 10 be 3c
       0.022758443 0.11146063 0.0066644675 0.023201024
000130 c8 cd 8f bd 0d 9e bd 3c cf e6 5b bd 50 01 cd bb
       -0.070216715 0.023146654 -0.053686913 -0.00625626
000140 d6 1e 1f 3d 0c 31 0f 3d 29 fe c6 bd 67 fb af 3d
       0.038847767 0.034958884 -0.09716446 0.08592873
000150 30 e5 f3 bb 50 38 67 bd e4 ef 5d bc f2 8a a2 bc
       -0.0074430928 -0.05645019 -0.013545964 -0.019841645
000160 9f 05 9f 3c 6d 00 f9 3c d7 01 b2 bd 0b a4 aa bd
       0.01941186 0.03039571 -0.08691757 -0.0833207
000170 f7 6e 95 bd 6b 69 61 bc c3 e4 94 3d 3a 6b 8b 3d
       -0.072965555 -0.013758044 0.07270195 0.06807561
000180 6b 14 ab bc 03 67 09 bd 61 03 01 bc ac 23 28 bd
       -0.02088376 -0.033545505 -0.007874341 -0.041049644
000190 03 23 8f 3d 82 10 92 bd 69 49 8c bd 9e 7c 2a 3d
       0.069891 -0.07132055 -0.068499394 0.04162275
0001a0 62 f6 a4 3d 6d fa cb bd bc 96 de 3d cb 00 99 bd
       0.08054806 -0.09959874 0.10868594 -0.07470854
0001b0 80 58 b6 3c ab 16 ef 3d 29 05 02 bd 4c 1d be 3d
       0.022258997 0.116742454 -0.031743202 0.09282932
0001c0 6f 22 a4 bb 2e 1f a3 bc fa b4 fb 3d d0 65 0e bd
       -0.0050089876 -0.019912329 0.12290378 -0.034765065
0001d0 dd 52 8e bc 1a 10 83 3d e5 db 0f bd 9d 95 5f bd
       -0.017373497 0.063995555 -0.035121817 -0.05458604
0001e0 a4 62 63 3d af f5 3e 3c d5 4f 50 bd ae b8 03 bc
       0.055513993 0.011655255 -0.050857384 -0.008039637
0001f0 1a d5 27 3d aa 9f 28 bd 10 d3 a6 3d 30 e7 ac bd
       0.040974714 -0.041167893 0.08145726 -0.08442533
000200 ea a8 c1 3d 12 5e c8 3d a0 89 0f 3d db b5 c2 3d
       0.09456046 0.097835675 0.03504336 0.095073424
000210 76 c7 a0 bd 6a 36 45 bd eb 4b 8d bd 21 cc 3e bb
       -0.07850544 -0.048147596 -0.06899246 -0.002911337
000220 8c 2c 9e bd 13 26 f0 3c ed 42 04 3e 26 64 0c 3d
       -0.077233404 0.02931503 0.12916155 0.034275196
000230 6f a2 b0 3d ac 6d ac 3d ba 2b 20 3b 34 47 2e 3a
       0.08624732 0.08419356 0.0024440126 0.00066481833
000240 f6 80 f0 bc 7f b8 c6 bc c8 ae be 3c 57 d8 7b 39
       -0.029358368 -0.024257896 0.023276702 0.00024017818
000250 ff 9d 84 bd 03 47 68 3b c9 e2 44 bd 0d 47 54 bd
       -0.06475448 0.0035442717 -0.04806784 -0.05182557
000260 e2 49 71 3c 87 9d 6e bd c1 4f d6 3d ec 1c 3a 3c
       0.014727088 -0.0582557 0.104644306 0.011359435
000270 bc 2c d3 3d 9f 4a e2 3b 60 a3 10 3d 5d 60 f3 3d
       0.10311267 0.006905868 0.035312057 0.11883614
000280 c6 29 31 bd 2a dc bb 3b 45 14 4d 3d 99 98 b6 bd
       -0.04325273 0.0057330327 0.05006816 -0.089158244
000290 66 10 bf 3d 51 19 9a 3c 88 fb c1 bd be 2a 83 3d
       0.093293 0.0188109 -0.09471804 0.06404637
0002a0 fa 0e e8 ba e2 5c 3f bc 29 36 91 bc 3b ea 65 3c
       -0.0017704659 -0.01167986 -0.01772602 0.014032896
0002b0 b6 54 e9 3d a5 20 92 bc 85 4c 8c 3d d7 0b d6 3c
       0.113931105 -0.017837832 0.068505324 0.026128693
0002c0 48 ed 43 be 6e 74 2e 3d 65 dc 40 bd ab 3d 53 bd
       -0.19133484 0.042591505 -0.047085185 -0.051572483
0002d0 e8 34 33 3d 1d f3 a5 bd 06 84 5e bd 21 04 8b bd
       0.043751627 -0.08103011 -0.054325126 -0.06787897
0002e0 69 21 a7 bd 29 09 69 3d b5 24 b0 bc db f0 a6 bd
       -0.08160669 0.0568935 -0.021501878 -0.08151408
0002f0 f2 6d b8 3d 01 05 0a 3d 9c 7a 95 3d 38 7c d3 3c
       0.090053454 0.03369618 0.072987765 0.025816068
000300 ec 31 7b 3d 18 3a 41 3d 2c d3 85 3d e4 1b 8c 3c
       0.061326906 0.047174543 0.065344185 0.017103143
000310 b8 5e ec bd 35 7c 01 bd f4 17 9c 3d 33 8f fb 3a
       -0.11541504 -0.031612594 0.07621756 0.0019192457
000320 8a 9a fa bc 9c 92 56 3d 9b 75 28 bd 06 41 d8 bc
       -0.030591268 0.05238591 -0.041127782 -0.026398193
000330 87 0b 42 3c bd d4 e6 3d 75 cd 30 bd 57 79 0f 3d
       0.011843569 0.11271045 -0.04316469 0.035027828
000340 d1 ba 25 3d fa e9 8f bc 1e b7 6a bd d1 14 49 3d
       0.040461365 -0.017567623 -0.05730354 0.049092118
000350 53 02 4c 3d b0 d7 13 3d 5b ea 9e 3d ff da 0c bd
       0.049806904 0.036094368 0.077595435 -0.03438854
000360 59 e5 b4 bc aa 36 2a bd 03 db 28 bc 56 41 b7 bc
       -0.022082018 -0.041556038 -0.010306123 -0.022370022
000370 11 32 5c bd 14 83 2a bd 7a 98 fd 3d af 5b 23 bd
       -0.053758685 -0.041628912 0.12382598 -0.03988236
000380 a0 5f 80 3d b4 63 99 3c 15 ca 0c bd bf f9 bd 3d
       0.06268239 0.0187243 -0.034372408 0.09276151
000390 18 c3 b2 3d 28 c1 0c be 89 82 68 bd 55 a4 e0 bd
       0.087286174 -0.13745558 -0.056765113 -0.10968844
0003a0 fb 4c 38 bd 02 5e d2 bd 78 a0 ae 3c 64 2b 35 bd
       -0.04499529 -0.10271837 0.021316752 -0.044230834
0003b0 07 7e 12 3e 10 8d 8c 3d 75 69 db 3c 4c 90 29 bd
       0.14305888 0.06862843 0.026783684 -0.041397378
0003c0 8d ec b3 bd 18 eb e9 3b 97 e1 91 bd 9f 67 e3 bb
       -0.08785353 0.007138621 -0.07123106 -0.006939843
0003d0 fa 39 72 3d 2c b7 0d 3b b6 13 d8 bd 9e 4a b6 bb
       0.059137322 0.0021624072 -0.105506346 -0.0055630943
0003e0 63 20 a3 3d 5d 2b d9 bc 51 43 1a be 18 23 43 bc
       0.07965162 -0.026509935 -0.15064742 -0.0119102225
0003f0 64 8b 88 bc 4b 4a dc bc 5d 02 95 3c b8 71 1a bd
       -0.01666803 -0.026890894 0.018189603 -0.037706107

graphconv.0.linear_edge.bias f4 [256]
000000 2f 73 32 3b 3d 29 04 3c ca f1 ec bb 1c 7b 46 bd
       0.00272293 0.008066473 -0.007230972 -0.04845725
000010 42 58 aa 3c 31 91 a5 3b 66 ab 82 bb 53 2a c4 bb
       0.020794038 0.0050527086 -0.0039877174 -0.0059864908
000020 5c 68 b0 bb 99 53 45 3b 79 cc e0 3b 8e 66 23 39
       -0.0053835344 0.0030109643 0.0068603125 0.00015583096
000030 1f f0 83 ba 71 65 89 3b bd cd 58 38 e4 51 28 bb
       -0.0010066068 0.004193001 5.169002e-05 -0.0025683576
000040 a9 11 50 3c 47 7a 9e 3b bb f9 1e 3c fe 93 63 3b
       0.012699523 0.004836354 0.009703095 0.0034725661
000050 26 3c bc 3b c8 9c 8d bb 00 55 29 3b ff f2 79 3b
       0.005744475 -0.0043216683 0.0025838017 0.0038139222
000060 dc a0 cb 3b 4c 12 4c 39 af 41 d9 3b b6 77 90 3b
       0.0062142443 0.00019461772 0.0066301445 0.004408802
000070 fc 96 7e 3a 71 0b c3 3b 17 ba 5b bc df 17 8b bd
       0.00097118295 0.0059522917 -0.0134110665 -0.067916624
000080 77 81 3e bb 42 ae aa 3a ae c8 72 bb 3d ad 19 bb
       -0.0029068866 0.0013021904 -0.0037045884 -0.0023449205
000090 80 6c b7 bb 5e 68 d9 ba bb 8c 46 ba e5 b2 27 bb
       -0.005597651 -0.001658689 -0.0007574071 -0.0025588807
0000a0 e9 e5 48 ba 7e 7d 8f bb a2 e8 5f bb cc 8e 1f bb
       -0.0007663654 -0.0043789735 -0.003416576 -0.0024346588
0000b0 d8 86 ba 3b 6e 62 1b 3c dc 99 f3 bb 5b 51 46 bd
       0.005692344 0.009483917 -0.007434113 -0.04841743
0000c0 0a b0 11 bb 4b 53 b1 3b fe 2e 17 39 76 72 09 bb
       -0.0022230172 0.0054115406 0.00014417988 -0.0020972765
0000d0 b2 3d 95 b9 65 5f 68 3b 3c a9 4d 3b b6 06 17 bb
       -0.0002846546 0.003545725 0.003138139 -0.0023044772
0000e0 b7 0d 79 bb 53 14 d8 bb 51 2b 07 ba 30 f1 4e bb
       -0.003800256 -0.0065942197 -0.0005156296 -0.0031576864
0000f0 2d 18 62 ba 4e 1c 29 bb cb 94 87 bb 29 e3 00 3b
       -0.00086248183 -0.0025804224 -0.0041376106 0.0019666648
000100 a7 22 e6 3b 68 c0 06 3c b7 5c 16 3c 46 8d 78 3b
       0.007023174 0.008224584 0.009177378 0.0037926002
000110 d7 2f e8 3b a6 51 25 3c 74 30 bf bb 54 b9 4e bd
       0.007085781 0.010090267 -0.0058346335 -0.05046971
000120 b8 46 53 3c ff b1 09 3c f4 4a 2f 38 43 34 15 bb
       0.012895279 0.008404254 4.1793057e-05 -0.0022766746
000130 db 4c c9 39 64 33 99 3b 8b c3 6c bc 72 5a 99 bd
       0.0003839497 0.0046753157 -0.014450918 -0.07487954
000140 18 87 63 ba e4 ac ea ba a5 cf b3 3b 26 53 bd ba
       -0.00086794933 -0.0017904309 0.0054873996 -0.0014444336
000150 5d 28 f6 38 e7 2e 03 bc 70 27 db ba f6 c5 a8 ba
       0.00011737712 -0.008006788 -0.0016720127 -0.001287638
000160 f4 8d 6d 3a bc 7e 32 b8 2d 55 a5 ba 10 1b 18 3b
       0.0009061985 -4.2556538e-05 -0.0012613885 0.002320949
000170 f5 39 ff 3a 36 92 be 3b 50 e2 50 bc 7e 8a 93 bd
       0.0019472229 0.0058157695 -0.01274927 -0.0720415
000180 4b 3d be 3a 4c 80 a0 bb cf c8 4f bb ad 31 07 bb
       0.0014514116 -0.0048981067 -0.0031705385 -0.0020628974
000190 0f 39 02 ba 52 2a 90 b9 65 cf 8a bb 89 f0 3d bb
       -0.0004967609 -0.0002749735 -0.004236149 -0.0028982481
0001a0 1a 5f a6 3b 17 bd 36 bc 2d 1f 24 3a 32 bc 8c 3b
       0.005077255 -0.011153481 0.0006260749 0.0042948956
0001b0 75 97 3e 3c d8 6f 1c 3c 31 60 c0 bb ea 5d 9d bc
       0.01163279 0.00954815 -0.005870842 -0.01920982
0001c0 98 0f 9d 3b 79 5e 04 3c ee 26 b7 bb 3a 9b c4 bc
       0.0047931187 0.008079165 -0.0055893576 -0.023999799
0001d0 a1 15 05 3c fb ea ce 38 c7 c5 f1 3b f1 9f 88 3b
       0.0081228325 9.866614e-05 0.007378313 0.004169457
0001e0 d2 49 85 3a 2f 2b f8 3b 30 67 60 bc 87 31 76 bd
       0.0010169095 0.0075735073 -0.013696477 -0.060105827
0001f0 19 3a d5 b9 b9 be c0 ba 09 83 6e bb 7a 50 07 3b
       -0.00040669812 -0.0014705277 -0.003639402 0.0020647333
000200 0f 63 b8 38 a5 8b 0b 3c 25 a8 08 bc 91 3c 83 bd
       8.792255e-05 0.008517181 -0.00834087 -0.064080365
000210 1d 4e 1b bb 46 e0 99 3b fe 7f eb b9 56 c3 14 bb
       -0.0023697682 0.004695925 -0.00044918054 -0.0022699437
000220 c9 f1 fe 3b 72 e7 49 3c d1 39 01 bb b6 d7 07 bd
       0.007780288 0.012323247 -0.00197183 -0.033164702
000230 13 fb ae b8 61 80 29 bb 63 06 a2 bb 42 5a e5 3a
       -8.343733e-05 -0.0025863873 -0.004944609 0.0017498212
000240 01 70 e1 3b 35 0d 04 3c 10 a0 17 3c 3a 40 7d 3b
       0.006879807 0.008059789 0.0092544705 0.0038643018
000250 d2 1c 37 3c 93 2b 97 3b 5a 1d f4 3b 44 e2 6d 3b
       0.011176305 0.0046133487 0.007449788 0.0036298195
000260 9b d7 f0 b9 7e 98 ab ba f7 19 57 ba 80 a9 11 bb
       -0.00045937006 -0.0013091711 -0.0008205468 -0.0022226274
000270 a6 25 ba 3b d5 02 cf ba 18 bb 2d 3c 5c 20 bc 3b
       0.0056807576 -0.0015793691 0.010603689 0.005741162
000280 13 0f c0 39 3f f7 17 bc 4d 47 3e 3a 5a 34 c8 ba
       0.00036632325 -0.009275257 0.00072585494 -0.0015274391
000290 4c 8b 26 bb a3 3f 04 bc 1f 8e 1e 3b 6b e5 b5 3b
       -0.0025412617 -0.008071813 0.0024193597 0.0055510304
0002a0 68 e3 79 bb 39 72 ad bb db 68 ae ba 34 93 48 bb
       -0.003812993 -0.0052931574 -0.0013306396 -0.0030605318
0002b0 1a 1c ca 3b ea ba 2d bc 27 66 58 3a 11 45 89 3b
       0.0061679007 -0.010603646 0.0008254968 0.0041891416
0002c0 4f 54 73 3b 22 b4 ff 3b 4f 31 07 bc b5 01 58 bd
       0.003712911 0.007803456 -0.008251502 -0.052736003
0002d0 0d 3e 02 3c 38 97 79 b8 4c 6f cb 3b 1a 96 7e 3b
       0.007949364 -5.950706e-05 0.006208336 0.0038846792
0002e0 0a 82 6e 3b 6b f6 6f 3b 2b 73 1f 3b dd b2 c5 ba
       0.0036393427 0.0036615382 0.002433012 -0.0015083213
0002f0 29 31 98 3b 4e bf 53 3c d7 60 83 bb 2a 0f 1d bd
       0.004644532 0.012924029 -0.004009347 -0.03834454
000300 59 cd 18 bb d2 0e f2 3a ed f5 36 ba 0c d2 19 bb
       -0.0023315756 0.0018467552 -0.0006979395 -0.0023471145
000310 dd b0 42 39 da 59 59 ba df 7e c9 bb ea 12 87 bb
       0.00018567168 -0.0008291282 -0.0061491574 -0.004122128
000320 b0 50 0f 3c de d5 56 3b 46 24 e7 3b 44 44 53 3b
       0.008747265 0.0032781283 0.0070538847 0.0032236734
000330 f2 3f 41 3c 14 02 49 3c 41 21 ef ba 94 b8 ab bc
       0.011795031 0.012268562 -0.0018244163 -0.020962037
000340 e1 c3 63 bb ee 8a 20 ba b0 f9 80 bb 2f 34 1d 3b
       -0.0034754204 -0.0006124218 -0.003936015 0.0023987403
000350 f0 72 1e bc 03 8e f5 bb 92 89 51 bb 0c 26 07 bb
       -0.009670958 -0.0074937358 -0.0031972867 -0.0020622043
000360 63 8a ad bb ed fd 47 3b 40 85 2a 3c 07 29 05 39
       -0.005296038 0.0030516342 0.010407746 0.00012699152
000370 51 1e c0 bb 6c 7a 28 3b 58 d9 a9 b9 73 46 af ba
       -0.005862989 0.0025707735 -0.00032396126 -0.0013372436
000380 b9 eb bf 3b 13 61 66 bb 8d 30 29 3b 54 1e 71 3b
       0.0058569578 -0.0035153076 0.0025816292 0.0036791759
000390 f0 97 c6 3b f1 b1 f6 3b 02 61 1f 3c cf 82 81 3b
       0.006060593 0.0075285365 0.009727718 0.003952361
0003a0 12 56 9a bb 29 b6 6e bb dd 17 ff ba da 7b 3d bb
       -0.0047099674 -0.0036424494 -0.0019462068 -0.0028912933
0003b0 c0 10 30 3c eb e5 6f ba 45 5c ef 3b c2 cf 96 3b
       0.010746181 -0.0009151387 0.0073047006 0.0046024034
0003c0 8a 95 0a 3c d6 9d cd 3a de 91 e5 3b b6 ef 6f 3b
       0.008458504 0.0015687298 0.007005914 0.0036611385
0003d0 de fe e2 3b 69 2f 05 3c 31 56 17 3c f3 14 7d 3b
       0.006927355 0.008128979 0.009236858 0.0038617223
0003e0 ba cc d2 bb ab ba 18 3c 5d 3f 04 bc 08 8c 6c bb
       -0.0064330967 0.009321849 -0.008071748 -0.0036094207
0003f0 f3 64 79 3a d8 0d 6a 3b 33 dd 21 bc 53 56 8d bd
       0.0009513639 0.0035713818 -0.009879398 -0.06901231

graphconv.0.linear_edge.weight_orig f4 [256, 64]
000000 03 61 41 bc 46 d0 fd ba ac 44 e5 3b be 2a 8d bb
       -0.011802915 -0.0019364438 0.0069967117 -0.004308074
000010 eb 25 f8 3b 16 ff d3 3b a3 17 fc 3b d9 32 b9 bb
       0.0075728795 0.0064696176 0.0076932474 -0.0056518135
000020 ac 52 32 3b e8 aa 75 3b 04 32 68 bb 27 22 f1 b9
       0.002720992 0.0037485901 -0.0035430202 -0.00045992548
000030 53 e8 c6 3b ef 3a 53 bb 48 ed 34 3b 9d b5 ea 3b
       0.0060701757 -0.0032231172 0.002760725 0.0071627633
000040 2f fd bb bb da cf 76 ba d4 48 a6 bb 51 48 31 3c
       -0.005736969 -0.00094151276 -0.0050745998 0.010820464
000050 59 84 b5 bb a7 2f b6 3b 98 80 00 ba f0 ac 05 bb
       -0.0055394587 0.00555988 -0.00049019745 -0.0020397268
000060 6e ed 15 3b 6f 70 14 bb 04 e9 0a 3c 59 59 87 bc
       0.0022877115 -0.0022650023 0.008478407 -0.016522096
000070 42 68 83 bc dd b1 a3 bb 42 63 69 bb fc 44 e2 3a
       -0.016040925 -0.004995568 -0.003561214 0.0017262991
000080 f7 14 38 bc 8c da 33 3b e3 e9 29 bb c5 6d c6 bb
       -0.011235467 0.0027443497 -0.002592676 -0.006055566
000090 ff 90 72 bb 05 30 05 bc a6 d5 f5 bb c6 c1 2d bb
       -0.0037012694 -0.0081291245 -0.0075022755 -0.0026513203
0000a0 9b c5 be bb 56 8b f0 3a f8 d4 17 bb ab dc f9 bb
       -0.0058218963 0.0018352072 -0.002316771 -0.0076251826
0000b0 c4 2d 4e 3c 83 12 2b 3c f2 28 1e 3c 5f 95 1c 3c
       0.012584154 0.010441425 0.009653317 0.009557097
0000c0 22 e3 31 3b f1 fd 52 bc ac a8 5e 3b 12 e6 e1 3b
       0.0027143438 -0.012877927 0.0033975048 0.0068938816
0000d0 d7 43 d0 ba 6b e1 fb ba 9d 86 57 ba 17 79 db 3a
       -0.0015889358 -0.001921696 -0.0008221658 0.0016744462
0000e0 ba c3 05 bb 84 65 51 3c 7e 69 d4 39 3d 35 68 bc
       -0.0020410852 0.012780551 0.0004051439 -0.014172849
0000f0 32 98 6b 3b 60 3e e0 bb e1 a0 98 3a 69 34 0e bb
       0.003594887 -0.006843373 0.0011644625 -0.002169872
000100 6d 6d 43 bb ba 39 94 ba 31 04 06 3a 0f 28 25 3a
       -0.0029819862 -0.0011308708 0.0005112319 0.00063002197
000110 14 b0 13 3b d5 da a3 3b be f3 50 bb 92 3a f9 3a
       0.002253537 0.005000452 -0.0031883563 0.0019014648
000120 89 77 6b 3b d2 cd 54 3b 65 72 32 bb 92 a4 9e bb
       0.0035929403 0.0032471311 -0.002722883 -0.0048413957
000130 52 8b b6 3b cf 92 41 bb 61 7e 05 3c e2 26 04 3c
       0.0055708075 -0.0029536968 0.008147807 0.008065911
000140 83 3a 66 bb fc 05 28 3b 03 d1 e4 bb 17 57 44 3b
       -0.003513009 0.0025638333 -0.006982924 0.0029959136
000150 6d 2e 90 bb 14 5d 87 3b e7 66 04 bb 56 27 12 3a
       -0.0044000656 0.004130969 -0.0020202936 0.00055753195
000160 44 97 59 b9 8e e8 a7 39 1a 51 c8 3b 58 9c 46 bc
       -0.00020751084 0.0003202599 0.0061131837 -0.012122236
000170 87 7e 36 bc 01 b1 f3 ba d8 2a b2 bb b8 a3 d7 3a
       -0.011138565 -0.001859218 -0.0054372363 0.001645199
000180 94 83 35 bc ab 55 45 3b dc f5 9a b9 bc fb 31 ba
       -0.011078734 0.0030110877 -0.00029556348 -0.00067895255
000190 6c 7e c4 ba fb c9 72 ba 6d 26 a0 bb d1 0f c2 ba
       -0.001499129 -0.0009261665 -0.004887393 -0.0014805739
0001a0 c0 70 72 ba a0 e6 9a 3b 59 c9 a4 3b bf 61 81 3b
       -0.00092483684 0.0047271997 0.0050288853 0.00394842
0001b0 09 19 28 3b 95 12 d1 3b 09 ee fb 3a ca ba ec 3b
       0.0025649688 0.006380389 0.001922072 0.0072244154
0001c0 39 da 6f 3b 39 ee 48 bb 72 26 92 3b 77 75 d0 b9
       0.0036598577 -0.003065957 0.0044601494 -0.0003976037
0001d0 51 d4 c4 bb 03 20 34 ba b8 ea d5 3b 17 07 18 bb
       -0.0060067554 -0.0006871225 0.006528225 -0.0023197585
0001e0 0b fa db 3a c4 e7 b5 3b 2d 80 6b ba 95 df ac bb
       0.0016782893 0.0055513103 -0.0008983638 -0.0052756765
0001f0 e6 5d 30 3a b0 62 9b b9 11 30 17 3b 65 e6 1a bb
       0.0006727859 -0.00029637432 0.0023069421 -0.002363586
000200 9c 93 a0 3b 16 0f dc b8 e0 da e7 bb 08 54 1b 3b
       0.004900409 -0.000104932275 -0.0070756525 0.002370121
000210 79 86 46 bb df 0c 93 ba 0c 7a 90 b9 33 40 9e 3b
       -0.0030292554 -0.0011219046 -0.00027556752 0.0048294305
000220 5d 17 68 3b b7 aa 7a 3b 06 f5 a3 bb 06 70 b0 bb
       0.0035414316 0.0038248727 -0.0050035743 -0.005384448
000230 ee 81 5a 39 04 85 8f bb 4a f4 fd 3b 35 5e 91 3a
       0.00020838503 -0.0043798704 0.007750069 0.0011090698
000240 2f 3f 91 bb fe 3d 11 3b 18 0c a1 bb 72 44 21 ba
       -0.004432581 0.0022162194 -0.0049147718 -0.0006151862
000250 b8 56 8a bb 56 10 c7 ba 2b d1 6a bb 56 35 6a 3b
       -0.0042217635 -0.0015187364 -0.003583024 0.0035737357
000260 60 c9 87 bb e8 b4 8e 3b 1a 07 9e 3b cf 6f 9f bb
       -0.004143879 0.004355062 0.004822624 -0.0048656235
000270 96 f4 e9 ba c1 3f 73 3a a6 57 77 bb 1c a0 39 bb
       -0.0017849382 0.00092792144 -0.0037741452 -0.0028324192
000280 cc 55 25 bc a6 f7 42 3b f6 72 eb 3b 76 9b 40 3a
       -0.010091256 0.002974966 0.0071853353 0.0007347384
000290 4c 6c 4a 3b db ba d8 3a d6 d1 0c ba 98 c5 4b bb
       0.0030887304 0.001653518 -0.0005371844 -0.0031093117
0002a0 08 1d 0e 3b 15 ab 98 3b b6 35 8f 3b 1f f1 50 3b
       0.0021684784 0.0046590664 0.0043704165 0.0031882
0002b0 10 c3 67 3b 3b 1e 64 bb bb c1 92 ba 47 aa d8 b8
       0.003536407 -0.0034808058 -0.0011196652 -0.00010331399
0002c0 9e 51 2e 3a 81 fc 55 b9 aa cc b6 3b d4 c9 a2 bb
       0.0006649735 -0.00020407328 0.005578597 -0.0049679074
0002d0 3e 6b 90 ba 52 7d 8c bb 72 4f 72 3b c7 e6 d4 bb
       -0.0011018289 -0.0042874003 0.0036973623 -0.0064972374
0002e0 d5 f5 e6 3a 76 c8 71 bb 36 0a 09 bb 21 b2 a7 ba
       0.0017620871 -0.0036893166 -0.0020910627 -0.0012794175
0002f0 8c 12 9d bb f7 ab 56 3a 52 c1 07 3b 8c d6 c4 3b
       -0.0047934707 0.0008189077 0.0020714593 0.0060070213
000300 7c df 22 bc f6 cb 1d bc ca ec 98 3c 81 9c 0f bc
       -0.009940978 -0.009631148 0.018667597 -0.008765341
000310 33 ed dd 3b 5a 74 a4 3b fe 10 c8 3a ea 8e 82 bb
       0.006772661 0.005018753 0.0015263853 -0.003984322
000320 ed e4 36 3b a9 dc ef 3a 16 ed 9a bb 96 70 49 3b
       0.0027907446 0.0018300015 -0.00472797 0.0030737272
000330 49 53 f6 3b be dd 11 ba be 26 bf ba 5d 33 61 3c
       0.0075172526 -0.0005564353 -0.001458369 0.013745156
000340 f9 7b 23 bb e9 c9 a6 bb fc f2 42 bb 67 19 d0 3b
       -0.002494572 -0.0050899875 -0.002974688 0.0063506844
000350 4d da ce bb d5 e2 0e bb 47 b7 32 ba dd 23 eb bb
       -0.0063126446 -0.0021802683 -0.00068174716 -0.007175906
000360 12 b2 f2 3a 20 32 60 bb 32 0c 89 3b 5e 33 94 bc
       0.0018516204 -0.0034209564 0.004182362 -0.0180909
000370 b3 2a 09 bc 56 50 c6 bb 52 6d 38 3b db e2 a4 bb
       -0.008371997 -0.0060520573 0.0028141332 -0.005031926
000380 01 df 08 bc c0 f2 9d ba 41 fd b5 bb b6 49 d7 ba
       -0.0083539495 -0.0012050495 -0.005553872 -0.0016425166
000390 93 a6 df ba 11 b5 04 bb c9 08 3e bc 58 09 ac ba
       -0.0017063193 -0.0020249526 -0.011598774 -0.0013125343
0003a0 76 ac a9 bb 69 6b 9d 39 29 d2 c9 bb 3e 9b 0b bc
       -0.0051780296 0.000300254 -0.0061590862 -0.008520899
0003b0 2d 3d 2d 3c 94 f6 90 3c 54 76 36 3c 5a 50 d5 3b
       0.0105736675 0.017695703 0.01113661 0.006509823
0003c0 9f cc 85 bb 8b 10 3a bc 3a 24 21 bb 57 de 86 3b
       -0.0040832306 -0.011356483 -0.0024588243 0.0041158604
0003d0 0b 28 3f ba f0 4a 1e bb 85 5d 44 3b 08 15 cf 3b
       -0.00072920386 -0.0024153553 0.0029962969 0.006319646
0003e0 45 03 a6 bb a9 18 d5 3b 4c 00 12 3c 7c dc 29 bc
       -0.0050663077 0.006503184 0.008911204 -0.010367509
0003f0 99 95 88 3b 0c f4 8c bb 40 51 16 3b cc 93 4c bb
       0.004168224 -0.0043015536 0.0022936612 -0.0031216023
