models/inn_epoch_14.pt (torch, 19695 bytes, 18 tensors)

features.0.block_weight_0 f8 [20, 1]
000000 cb b6 41 01 d3 ef fe 3f d0 40 e6 f8 dc d3 f2 bf
       1.933550839337317 -1.176724407447228
000010 4d 2b 4b 01 3a ab cf 3f 22 af 55 b5 e2 71 fc 3f
       0.2474129206005621 1.7778040965449198
000020 a5 15 34 ed 10 c3 d2 bf de a0 aa 73 8a 9f fe 3f
       -0.2931558910789483 1.9139503973220182
000030 7f f6 b7 eb 00 bb f5 3f f1 1b 7e 67 8c df ec bf
       1.3581551749952323 -0.9022886296596636
000040 71 cb 05 e8 fb a4 8d 3f 9a 6c a3 93 6d c2 f2 3f
       0.014474838274258524 1.1724677817462976
000050 09 10 94 0d c2 6e f3 3f f2 23 40 fa b6 d1 e1 bf
       1.2145405321507516 -0.5568499458032632
000060 b3 36 af 5a e9 cb e4 3f cb da 00 62 30 d3 02 40
       0.649891545408272 2.3531196266661474
000070 3b da c9 a6 e8 be f2 3f 9c 00 29 1d 1d bd f3 3f
       1.1716085925269357 1.2336703433102576
000080 b0 ce 84 bd 72 43 e2 3f 43 52 58 1a 43 75 03 c0
       0.5707334233797692 -2.432256894893983
000090 dd b0 8b 89 e1 5b fc 3f 69 9d e7 01 9b a4 f1 3f
       1.772431885993732 1.1026868891147734

features.0.block_bias_0 f8 [20]
000000 38 28 90 77 72 f1 e7 3f a0 36 a7 56 94 12 ec 3f
       0.7482235274521889 0.8772679989285344
000010 e8 82 e9 7b 2d c1 e6 3f e0 4b f4 da 8a 0b dd 3f
       0.7110812587889912 0.45382949239973236
000020 e2 c7 1a 03 81 08 df bf f0 fd 27 af f0 cf cc 3f
       -0.4848940401380998 0.2250958304648374
000030 50 0b 2b 87 3e a4 c0 3f 50 9c b2 7f 49 5c d3 3f
       0.13001233673102286 0.30250775785902295
000040 e4 90 5a f3 0c f7 ef 3f c8 b2 5a 79 3e 60 e0 3f
       0.9989075425151239 0.5117485399437891
000050 2c 2d f3 4d ec 44 ca bf c9 21 2c ef f8 15 e9 bf
       -0.2052283650030885 -0.7839321776710274
000060 ae 73 11 c9 ea 05 d2 bf 69 4f 5b 08 aa 2c ef bf
       -0.2816111529880868 -0.9742021716324248
000070 3c 7a 35 a9 41 ab e0 3f 5c 79 0e 67 85 ee c7 bf
       0.5209053330289133 -0.186966586418701
000080 48 41 c6 86 d2 e9 da 3f 41 64 41 8b 4e dc e3 bf
       0.42052138482633383 -0.6206429214318022
000090 80 ac bb a3 0e 35 c3 3f b0 1c 08 f2 01 95 c3 3f
       0.15005667681484525 0.15298485105470183

features.0.block_weight_1 f8 [20, 1]
000000 8d d8 f2 fa fc b6 d1 3f fa cc d1 e8 93 8c e9 3f
       0.2767937136335455 0.7984103724724314
000010 aa 92 13 ee 79 f3 e6 bf dc ac f5 35 ac 7f ec bf
       -0.7172212266855997 -0.8905850461864264
000020 87 05 15 e6 8a 6b ff bf 89 49 3c f2 e1 f0 f3 bf
       -1.9637555110533371 -1.2463092291187385
000030 af c4 c9 59 c8 20 01 40 86 2b 6f 60 03 19 f5 bf
       2.141007138700466 -1.3186067358935545
000040 76 70 a7 8c e4 fe c5 bf 45 d1 0d b4 20 e8 f0 bf
       -0.17184121005891811 -1.0566718133314492
000050 7a b7 98 7c d4 05 f4 bf a9 ac e7 f0 5f 54 e4 3f
       -1.2514233462383957 0.6352996545005186
000060 60 e5 99 90 bf a0 ec bf cb 08 e7 db 51 c7 e6 3f
       -0.894622595237859 0.7118310255975983
000070 e1 e1 83 75 7a 98 f3 3f 41 45 78 fe f1 8d fa 3f
       1.224726161044707 1.6596546116091562
000080 d7 44 14 2e 55 bb e2 bf d4 cf b8 c3 2e 59 e3 bf
       -0.5853677654250998 -0.6046365568822645
000090 dd 99 9a 2f 8d aa ba 3f 90 1a eb 8b 67 67 fc bf
       0.1041649094791874 -1.7752452340661513

features.0.block_bias_1 f8 [20]
000000 bd 60 18 a5 45 a9 ed bf f8 8f 64 52 bd 6f dd 3f
       -0.9269130920902381 0.4599450401894951
000010 6c 05 ba 40 06 c1 c9 bf 48 31 ba 44 c9 71 bb bf
       -0.20120313797455525 -0.10720498969948722
000020 40 bc ba 0f 7f 8d b7 3f 10 9e fd aa 36 ae df 3f
       0.09200281270999344 0.495008151038264
000030 b4 cb a4 06 b5 6d eb 3f bd 65 89 53 6e c2 e8 bf
       0.8571419839630523 -0.7737342483116475
000040 d8 d3 d9 9e 4b 22 da 3f 8a 48 9b 6c 37 5c d8 bf
       0.4083432246473513 -0.3806284485446062
000050 98 9b 0e 9b 21 cc d8 3f 64 63 c4 1f 61 44 e7 3f
       0.38745918409625224 0.7270970936252579
000060 a4 0a e7 c7 7e c1 ed 3f 60 a3 c9 91 9f 5c e7 3f
       0.9298700241418669 0.7300565574088118
000070 d6 1b ef 0b a9 dc d9 bf 25 68 9f aa c1 be ed bf
       -0.404093038229289 -0.9295357067560458
000080 15 e2 b7 59 4b 1f ec bf 95 e7 89 7e df c5 e9 bf
       -0.8788201095877094 -0.8054044219454563
000090 0e da dc da f2 bf d7 bf ca 81 0e 48 3c 24 d9 bf
       -0.3710906159716679 -0.3928366378477476

features.2.block_weight_0 f8 [20, 20]
000000 2c 54 92 57 cc e4 c6 3f fa ce a9 55 52 c5 b7 3f
       0.17885736728627089 0.09285463897122873
000010 fe a3 06 f7 bd 07 d5 bf cd 12 06 e7 7f 98 db bf
       -0.32859753726603447 -0.4311828380671557
000020 ad 64 5c 41 1b 4d cc 3f d0 f9 06 97 d5 1a c9 3f
       0.22110310260248892 0.19613141893746766
000030 89 41 36 71 68 9b c5 3f 89 d3 05 68 3e f1 c2 bf
       0.16880517509390483 -0.14798717574344902
000040 ab 78 32 e4 52 d1 c9 bf 8a 1f 95 a0 98 8c a8 3f
       -0.20170055525244854 0.0479476638816428
000050 7b 66 d6 17 47 47 d5 3f ca 02 d4 89 7b 4c de 3f
       0.3324754460132692 0.47341812572271336
000060 27 7e a2 21 e2 ea cc 3f 39 ae 51 d0 4a 85 df bf
       0.2259180702430836 -0.49251051276835117
000070 fc 06 c7 bc 62 bd d1 bf 7a de 1d 0e d9 e0 98 3f
       -0.277184185364703 0.024295226561177753
000080 94 33 72 23 42 18 e1 bf c6 bb a2 47 8c 89 b0 bf
       -0.5342112247759467 -0.064598815430812
000090 38 bc 5d ad 9d 4c d6 3f 3e 34 1c 34 37 2f bd bf
       0.34842626505173113 -0.11400170347424507
0000a0 7a 3e b6 c8 6a 06 d5 3f b9 f5 8d 91 af 9f bf bf
       0.3285166702343997 -0.12353036216332826
0000b0 f1 9a 82 f4 5d 7c d5 bf 05 f4 09 b3 b5 73 d0 3f
       -0.33571576002070375 0.2570623634745178
0000c0 3d 2c 33 b3 85 23 d6 bf a7 89 46 d4 e2 34 e1 bf
       -0.34591810703267695 -0.5377058168417549
0000d0 20 1d a7 d7 f3 77 db 3f 8c 4e 7d 54 d3 29 dc bf
       0.4291963201507816 -0.44005282641340027
0000e0 f3 a0 97 79 02 a3 a5 bf 6b df ac ee 7c e5 b7 3f
       -0.04225929006844522 0.09334545924218467
0000f0 d8 9f a6 4f 94 0e ce 3f 50 63 9b c6 55 ae da 3f
       0.2348199261589332 0.41689056773389144
000100 b7 db 6a 2b b2 74 c4 bf ae 16 5f 71 2a e8 d3 bf
       -0.15981127853384944 -0.3110452754157035
000110 87 07 1c b7 65 fb d4 3f 33 c1 9b c9 bc 64 dc bf
       0.3278440750292408 -0.44364852608034083
000120 74 45 f7 e5 14 20 cc bf fa 07 f2 8e a7 2f 95 bf
       -0.21972905377200969 -0.02068960008592311
000130 5f a4 11 99 9f 21 af 3f d8 f8 4d f7 d4 e8 bd 3f
       0.06080340140835782 0.11683398282727653
000140 04 34 9a 2f 44 d1 91 3f bb 4f ab 7a a7 03 da 3f
       0.017399850278298615 0.4064730356160415
000150 8d 89 d8 4c 62 28 db bf 25 f8 eb d1 4d e5 da 3f
       -0.42433984283902576 0.4202456045167103
000160 82 48 53 23 41 22 dc 3f 4a 39 b5 87 7a a9 d9 bf
       0.43959072541941435 -0.40096915486073625
000170 5a 7a 0b e3 dc 21 95 bf ca 0f 6b 03 b1 48 e1 3f
       -0.02063698898097708 0.5401234690439136
000180 a0 cc 3b 70 f3 33 c5 3f a1 6f 02 34 e5 9e d4 bf
       0.16564791660457434 -0.32219820097975044
000190 06 be 27 51 9c 50 ce bf 14 aa 52 d1 67 4a a3 3f
       -0.23683504069002498 0.0376770442029121
0001a0 f3 8b 10 84 e0 0e bd 3f 57 30 2f c8 17 df de 3f
       0.11350825523599876 0.4823665099072562
0001b0 5a e5 16 50 ea 32 a1 bf e2 6e 24 31 54 ba 6e 3f
       -0.03359157779363882 0.0037509579061757318
0001c0 43 f9 99 da e8 ff db bf 7e fb 49 b4 cb 43 cd bf
       -0.4374944815425758 -0.2286314611737587
0001d0 e9 ed 0d ac bb 2b d6 3f 0d ba da 3b a2 fb d6 3f
       0.34641925623119946 0.3591085037723197
0001e0 3d 8e df f1 e8 e3 d7 bf f1 35 1f a2 83 7f 89 bf
       -0.37328551884113265 -0.012450245270794165
0001f0 86 ab 19 09 67 a6 d9 3f 74 93 3c b0 37 b5 cc 3f
       0.4007814015264376 0.22428032021812394
000200 40 1c 6d 43 2e 8f da bf 2d 09 8b f8 55 e7 a8 3f
       -0.4149890573939423 0.0486399522683477
000210 bc cb ae af 2e ff e0 3f 4f ee cf 11 3b a4 d0 bf
       0.5311501914314856 -0.26002384891009894
000220 0b 51 85 73 ef de a2 3f 69 eb 93 f8 ea c4 de bf
       0.03685711178937553 -0.48076891207863653
000230 f8 41 34 21 8d f0 d7 bf 26 68 6a 12 36 cc d2 bf
       -0.37405708544341065 -0.2937140636291836
000240 b8 57 0d 81 74 8d c4 bf bc 73 36 e7 02 58 d6 3f
       -0.1605668668877891 0.3491217859207685
000250 7a 27 2f 16 01 5e d3 3f 7c de 5c eb ea 7b cc 3f
       0.30261256376672174 0.22253166668246027
000260 f4 40 ed ed ac 0f e0 bf 32 1e 55 6d b0 1e d4 bf
       -0.5019135138518593 -0.3143731181812398
000270 3f 5d d7 e4 0c 67 de 3f 99 be c9 9f 0a fd c3 3f
       0.4750396952417368 0.15615971376563634
000280 9e 08 f0 75 45 06 d4 bf fe 24 1a 9c 1b 10 b2 bf
       -0.3128827716574366 -0.07055828629576763
000290 f2 b2 af c3 a5 60 d5 3f a6 c7 57 4e 13 4c db bf
       0.33402389631264306 -0.4265182747905051
0002a0 68 92 f0 2b 2c 18 d0 bf 9b 58 6b d6 1e 98 d9 3f
       -0.25147537508954665 0.3999096960009269
0002b0 de 36 7d d1 78 49 d8 3f 52 3f f9 6f 27 69 bd 3f
       0.37948437173768734 0.11488577350359933
0002c0 8e fb a5 73 2f 55 e0 3f 83 75 a4 d1 19 d6 e0 bf
       0.5103986033208103 -0.5261353582933882
0002d0 48 bd f1 88 a1 b1 c8 3f 20 8e 59 fd 27 91 ba bf
       0.19292086779339912 -0.10377740798281154
0002e0 cb c4 ab 69 5e f8 dc 3f 6b 68 a1 d7 6e 66 c0 bf
       0.45265922851019685 -0.12812600640137659
0002f0 15 b0 a6 c0 a4 c1 cb bf 4c 5a b6 07 11 f8 d4 3f
       -0.21684703261178187 0.3276407790484981
000300 1e 45 79 59 58 41 de bf 1b 78 8f 5f 95 91 be bf
       -0.47273834932009773 -0.11940892775552962
000310 d6 64 50 8c 73 11 a9 3f 3d 82 85 7e 1b 4d 95 bf
       0.0489612683088098 -0.020801953885327008
000320 2c a5 d7 90 d0 af 78 3f 57 6f 94 1e c0 70 e0 bf
       0.006027044973486977 -0.5137634846937357
000330 08 48 d0 c1 2f 16 e1 bf 91 2b 4f 24 2f a7 c5 3f
       -0.5339583192273958 0.16916455529129995
000340 23 48 96 af 82 56 c0 bf f5 3e 63 59 c0 4b dd bf
       -0.12764009069047785 -0.4577484963347012
000350 0c 88 3e aa 8a bc df bf 12 fd 0f 5e bf 84 df 3f
       -0.49588266969124173 0.49247726617609644
000360 f0 3d cb 0d a7 0e dc 3f 55 04 dd d5 ea 0b 32 3f
       0.4383943209367933 0.0002753685310957256
000370 39 23 4c e5 35 53 d1 bf 3d 3b 7e 26 2f 43 d3 3f
       -0.2707037677032989 0.30097559699145277
000380 b0 6a 79 ab eb f3 d8 3f 19 cb 41 b1 4e 6d c0 bf
       0.3898877310327107 -0.12833579688193522
000390 1d 3d 93 eb 81 f7 c6 bf e2 8a 09 9d 3d 0a d0 3f
       -0.17942832949345525 0.25062504134818486
0003a0 0c 0f a7 16 95 a0 c3 3f 26 06 44 aa 5c 49 d0 3f
       0.15333808523256953 0.25447765948783496
0003b0 bd 12 82 fa e0 97 cc 3f 8c bb 12 c5 84 77 c3 3f
       0.22338497382965797 0.1520849191924437
0003c0 d0 34 38 2c f3 08 a1 bf 51 8b 65 fd c2 13 cd 3f
       -0.033271407268424036 0.22716557858356137
0003d0 3b 48 43 2a 38 f2 de 3f 86 8f 2a c8 f9 ba e0 3f
       0.48353389861324886 0.5228241834160918
0003e0 e5 86 60 68 63 4c d9 bf b7 9a a7 02 ac 65 be 3f
       -0.39528737252304175 0.11873889031231043
0003f0 69 a0 34 69 7b e6 b4 bf bb 0b ed 2c 02 f2 d2 bf
       -0.08164187735076357 -0.29602102649021916
000400 2c bd 5d af 37 53 da 3f 93 70 fd 41 37 22 b4 3f
       0.41132919431307147 0.07864709244808159
000410 b7 81 eb 6c 51 94 db bf 27 5d 1d 61 50 f9 dc bf
       -0.43092761646951366 -0.452716917837693
000420 e2 a7 b8 79 3b 19 db bf 9c 7f e6 c2 6a ff b6 bf
       -0.4234150589642224 -0.0898348546820657
000430 e6 23 f2 44 61 64 d6 bf 7c 65 d7 9f c5 df c1 3f
       -0.34987670643800894 0.139641478583865
000440 6a 7d ed 25 9e b2 c8 3f 5a 1d 25 54 94 f5 da 3f
       0.19295098163545826 0.4212389775970756
000450 65 9c 8c fe 1e f2 d9 3f ad e0 72 f7 bd 2c b0 bf
       0.40540289743734653 -0.06318270961026214
000460 fa 47 49 48 eb 12 d7 bf 0c 80 37 b9 1b 40 c5 bf
       -0.36052972850040954 -0.16601892989911027
000470 a0 c0 e7 3f b8 e7 b2 3f a7 63 ec c6 96 15 d8 bf
       0.07384826240718434 -0.37631768632996415
000480 23 e0 b1 ad 36 3b 81 3f 8d 84 db c7 0e 1c dd 3f
       0.008413722205872947 0.4548375083669008
000490 46 20 98 04 ab bc da bf 7d 80 66 7c be 82 dc bf
       -0.4177653832307481 -0.4454799856994283
0004a0 d1 e6 ad 89 77 82 d1 3f 90 6e 71 fb 68 53 df bf
       0.27358807034725624 -0.4894659476756056
0004b0 76 77 b1 3a 80 ad da 3f 14 66 ec df 7c ff c2 3f
       0.4168396542717042 0.14842186864625317
0004c0 f7 ec 9c 2f 4b 6c ad bf 04 b2 6b 0b c3 53 87 3f
       -0.057466840326435724 0.011390231882125519
0004d0 e5 c4 88 02 f6 31 c1 bf f7 5e d5 95 dc 6e a6 3f
       -0.13433718799345865 0.04381455735227562
0004e0 8e 52 ef be fb 19 de 3f 42 44 c3 c7 49 21 c3 bf
       0.4703358997915438 -0.14945337537804632
0004f0 a8 36 fc 2c 95 29 d5 bf 68 71 b2 00 8b d1 cc 3f
       -0.3306630076702768 0.22514474424395847
000500 5a b9 14 4e 9c e3 97 bf 43 69 a4 81 02 6a d8 bf
       -0.023329202905352765 -0.3814703241383947
000510 d4 1c a5 ba 57 54 e1 3f c8 4c 0c 9e 4e 39 da 3f
       0.5415457387361138 0.4097477477491336
000520 f2 fa a4 34 c6 cd c3 3f 6d b3 b7 75 20 16 d6 bf
       0.15471723146944033 -0.3451005124650724
000530 f7 99 1e 86 18 8d e0 bf da 6e e3 89 1b e6 b5 3f
       -0.5172236079714015 0.08554241291443124
000540 a0 c5 da 9d e8 4d c1 3f 3c 63 2d e3 5b ba df 3f
       0.1351900835775668 0.49574944672854193
000550 5f f6 12 9f 31 8a c9 3f 5d 54 3d 41 8d 91 d9 3f
       0.19952984111107505 0.39950877543498625
000560 dc 73 b5 31 69 32 bd 3f 39 29 e4 9e 8b fb d4 3f
       0.11405045951455811 0.3278531123802569
000570 c3 62 d9 f8 af 94 c0 bf b9 e6 e4 f9 42 a3 de bf
       -0.12953757906759308 -0.4787146988270297
000580 75 de fd 05 1e 75 dd bf 2a a5 d2 8c 7d e1 e0 bf
       -0.46027327141880586 -0.5275256872602416
000590 19 5a c5 ac 3f f4 ae 3f ad 12 7a 30 e4 00 cb bf
       0.06045721992511605 -0.21096470229180878
0005a0 c4 92 83 ce a7 00 d1 bf b2 c1 5c e9 d2 8a a8 3f
       -0.2656650082338212 0.04793414209996473
0005b0 30 64 91 ef e0 aa ca bf 93 86 72 41 a8 00 d1 3f
       -0.20833980271962238 0.2656651152738984
0005c0 92 7d e1 f5 d0 36 dd 3f 02 e9 c6 31 ec 30 cf bf
       0.4564707184963136 -0.24368050032155258
0005d0 b6 1b 4f 2f 47 00 d8 bf 40 22 4d 86 40 06 d0 bf
       -0.37501697177907134 -0.2503815948043986
0005e0 09 16 22 ac fa bc e0 bf b3 21 55 af 1f ee ca bf
       -0.5230687486625253 -0.2103919607273049
0005f0 71 bc dc 36 6f f2 d4 3f d4 0b 82 e9 09 51 cf bf
       0.32729702336923255 -0.24466060544736357
000600 a6 63 f3 93 11 2a d3 bf d8 f2 e6 b7 99 94 d5 3f
       -0.29944266746820813 0.33719485243981984
000610 e1 c6 b2 c0 f0 5d d9 3f 65 e4 ef fc 49 1b dd 3f
       0.39635866945455517 0.45479058934103583
000620 18 da c1 12 fd 11 d7 3f 9b 98 2f 31 7a 31 d5 bf
       0.36047293502579825 -0.3311448555308602
000630 c4 05 d0 1c cc a5 b4 3f ab 6f a8 20 39 a0 df 3f
       0.08065486625130008 0.4941542452740985
000640 93 d3 b7 c4 2b e2 b3 3f a5 1f c3 91 5b a2 b1 3f
       0.07766984512984569 0.06888363178870678
000650 cd 2d 72 f5 4a f5 d5 bf 6e d0 e6 7c b0 af de bf
       -0.34309648484551475 -0.4794732303373682
000660 e6 83 d0 8e 1d 18 d2 3f 63 75 3f ca e2 26 dd 3f
       0.2827218908951735 0.45549840689439786
000670 22 05 e3 81 ed f2 d3 bf fc d5 32 3f cb bb cb 3f
       -0.3117021339822533 0.21666851602428483
000680 da 0a f5 03 f9 14 d3 3f ca 30 45 2a 5a 43 b6 bf
       0.29815507303662303 -0.08696521312703279
000690 79 4b 8b 17 81 c1 d2 bf e3 42 19 a3 9f 1f bd 3f
       -0.2930605630801249 0.1137637875738267
0006a0 b0 ae 16 c3 65 ef df bf 11 80 38 2b d1 e6 d1 3f
       -0.4989866643106593 0.2797129556729497
0006b0 21 ea 0a 65 8d 0c dd 3f 92 b5 9a c2 08 63 e1 3f
       0.4538911329979403 0.5433391381135826
0006c0 51 5f c8 f7 a9 8f dc bf 3e 01 f6 fe 99 c4 dc 3f
       -0.4462685508492444 0.44949960611849693
0006d0 0a e8 39 3f c7 40 dd bf 5f d0 2d b1 f9 88 e0 bf
       -0.4570787541812257 -0.5167206249739243
0006e0 ec 98 33 51 97 de cc bf 1d 0a b1 0b 75 0a aa bf
       -0.22554294075889147 -0.050861032178108646
0006f0 cb 84 97 0a d4 56 de 3f 51 48 f5 b5 0e c3 dd bf
       0.4740495780407172 -0.4650303627905759
000700 73 b7 54 87 7e 28 d8 3f 8d 69 16 94 35 08 d6 3f
       0.37747157302771156 0.3442510553519689
000710 de f3 a8 70 c6 2f d0 bf c6 bc 5c 99 d9 dc e0 bf
       -0.25291596414518647 -0.5269592280727913
000720 ea 07 9c 62 fd 29 b4 3f 31 99 5b 9d 65 b5 e0 bf
       0.07876571328600304 -0.522143180217233
000730 4b 68 2b 58 ff 21 dd bf 86 44 6c 97 8b 51 d7 bf
       -0.45520003900822265 -0.36435212886232937
000740 56 33 b7 58 2e 55 d8 3f ca 6e 52 44 02 a6 cc 3f
       0.3801990381587549 0.22381618820224097
000750 d8 a3 a6 63 e7 c1 d5 3f 45 3a 76 48 82 4b d5 3f
       0.3399599526551902 0.33273369861936813
000760 24 f0 a0 10 97 a9 dd 3f a0 ab e8 92 09 bb d0 3f
       0.46347595809834474 0.26141585680550783
000770 f1 20 44 9e ac 30 bb 3f b6 6e 42 88 78 de d1 3f
       0.10621146072310574 0.27920354181854223
000780 3f 1c 03 50 ba 99 65 3f 7e 7a 36 da 01 f6 de bf
       0.0026367796818678453 -0.48376509008259194
000790 9a 8c 7a 9e 34 ea d7 bf e6 eb ed 9a 30 5f c4 bf
       -0.37366977192341155 -0.15915496411238833
0007a0 2a 9c f2 a9 ca b4 b9 3f f1 6d 7c 07 a4 fa c0 3f
       0.10041491173852593 0.1326489483407012
0007b0 28 37 13 fb a1 21 b7 3f da a4 c8 c4 b3 c3 b2 bf
       0.09035694484483925 -0.07329867891589306
0007c0 0f 66 ad b8 4a 2b dd bf 53 98 a4 2b 71 8d ae 3f
       -0.4557673266877779 0.059672867372044046
0007d0 eb 93 08 2d b1 5f d0 bf 9f 41 a8 15 c5 10 dd 3f
       -0.2558405818729727 0.45414855112997005
0007e0 2a 0c 27 c4 f2 7d d3 bf 46 33 e6 69 c0 84 c8 3f
       -0.30456227450867124 0.1915512578092608
0007f0 0b ff 68 fb 0d 02 cd 3f a3 89 6b a1 cf 75 d9 bf
       0.22662520194898436 -0.3978156162612782

features.2.block_bias_0 f8 [20]
000000 5e 1d b2 27 57 67 b7 bf 23 76 5c d8 ea 9a a9 3f
       -0.09142060011992245 0.050010050689007345
000010 39 62 71 de b6 d1 b3 3f c5 dc 6a 6c 79 c6 c4 bf
       0.07741873675093637 -0.1623069552785862
000020 ea 6b 60 49 e0 7d ab bf 24 b1 6a 31 6d a6 c7 3f
       -0.05369473357878703 0.18476643479278565
000030 b6 5d d4 1d ec a6 b8 3f 4e b0 30 50 e5 89 c8 3f
       0.09629703262577646 0.19170824447189933
000040 15 e5 84 e9 f0 2a cb bf 12 52 e7 a9 c5 fb 69 3f
       -0.21224795725155646 0.003171812116514746
000050 e0 7e 2e 4c e5 ab c2 bf d2 71 b0 87 ff ea c9 3f
       -0.14587084026151498 0.2024840748353101
000060 53 b9 39 05 53 30 c3 bf b6 d8 df 12 a6 54 c1 3f
       -0.14991224055433836 0.13539577409364306
000070 f1 9a b7 84 27 bd 92 3f 3c 69 4f bb e6 de c5 3f
       0.018299691653647924 0.1708649077034553
000080 37 b7 8b bb 33 d5 a1 3f 5a 43 1f 09 24 4b c9 3f
       0.03482972778679854 0.19760561414161765
000090 af 19 71 e7 87 e5 bd bf fd fa bb 28 fe b5 a5 3f
       -0.11678361320910001 0.0424041199421392

features.2.block_weight_1 f8 [20, 20]
000000 e7 c1 0f 12 2b 8e da bf ce 73 a4 ec f7 be e0 bf
       -0.4149272610075329 -0.5233115789338798
000010 a1 31 9b 7c c0 77 b3 3f 1f 6b 3a c9 4b 34 d7 3f
       0.07604601900238218 0.36256689692679517
000020 36 92 26 b9 f2 bb c6 bf 5a 4c 7f f0 2a 7a e0 bf
       -0.17761072197494493 -0.514913053246697
000030 82 c8 a2 97 29 1e d2 bf 4c b5 96 ff 01 55 9a 3f
       -0.2830909710711539 0.025714904045959927
000040 d1 5b 67 74 e8 29 ba bf 59 11 33 40 30 27 9d 3f
       -0.1022019657315092 0.028469804685998443
000050 e9 ae 00 b7 ed c8 dc bf 04 b1 6a 05 0a 5e b8 bf
       -0.44976370688776385 -0.0951849234795113
000060 08 5c 5f 7f 43 3b e1 3f 73 1f 9e 1d 84 f1 d8 3f
       0.5384843337768652 0.38974097149229364
000070 18 d0 53 80 3c f0 c4 bf b0 37 37 cd 6f bf 72 bf
       -0.16358143106447254 -0.004577099537938098
000080 5a e8 80 99 08 03 e0 3f 15 66 ed 64 3f bf da bf
       0.5003703115573999 -0.4179228292101425
000090 e8 e0 8f e3 b2 4b d8 bf e9 68 67 91 2a 12 d7 bf
       -0.3796202871594816 -0.36048378181079826
0000a0 bb 29 71 48 f5 ba da bf c8 fa 3d 69 a0 df de 3f
       -0.4176610190812899 0.4823990848307571
0000b0 f4 85 d9 37 62 42 d9 3f 1d 6d b1 c0 54 64 c0 3f
       0.39467673734733855 0.12806186112252585
0000c0 34 f8 cd 1b 13 0d d8 3f 3b a7 e5 16 d7 4d d4 bf
       0.3757980128792753 -0.3172509883503271
0000d0 59 8b 45 91 f1 35 cf bf fa 28 d8 76 ea e3 c3 bf
       -0.2438337287267938 -0.15539294054935465
0000e0 19 c3 b5 dc db 17 cd 3f 4a fd 43 4f 17 7b cf bf
       0.22729061390739316 -0.24594394083394838
0000f0 ca 3c 92 12 00 74 c5 3f 2c b0 1a d5 87 59 ab bf
       0.16760254771040756 -0.05341743923540351
000100 b6 d7 20 f1 c4 cc b2 3f 7a 62 c3 09 e5 3f d2 3f
       0.07343703162118129 0.28514982179107273
000110 d7 4f 67 13 2f b9 c2 3f 57 69 cf cf 04 06 c2 3f
       0.14627636382522155 0.14080867907507397
000120 57 2d 87 cd 65 9b d0 3f 77 e5 15 c5 21 f2 df 3f
       0.2594847209081385 0.499153559175816
000130 c8 d6 e6 13 0f 65 d6 bf 94 6e ec 49 80 28 d9 3f
       -0.3499181455948528 0.39309699267480736
000140 ce 06 b8 c5 f1 ce cf bf 68 eb 8c 9d 7a 18 ce bf
       -0.24850294260254774 -0.23512203877347848
000150 c2 df 42 25 f8 03 b1 bf 08 89 45 29 63 48 ca 3f
       -0.06646681699464721 0.20533408656326224
000160 93 13 64 6b 50 bd d0 3f fa 56 88 42 de 9e ab bf
       0.26155481803316966 -0.05394644319691895
000170 18 74 fe e9 15 65 e1 3f 06 85 aa da 07 bd de 3f
       0.5435895509905349 0.48028751710997175
000180 bf 0a dd 3d 9a 80 dc 3f e7 1b 94 b8 d8 f2 b2 bf
       0.4453492740760047 -0.07401804453193926
000190 97 0e 00 77 e1 2d e1 3f ff f4 60 c1 24 71 d9 bf
       0.5368506740782831 -0.3975307358230821
0001a0 83 b2 a4 8b eb 1c d4 3f 22 36 9a 28 38 74 e0 3f
       0.31426514279409207 0.5141869347587014
0001b0 3d 9d 33 f9 7b c3 d7 bf 57 07 b6 1c ac 69 d4 bf
       -0.371306413041072 -0.318949726141104
0001c0 0c b9 bc 28 02 26 cd bf 89 17 54 69 81 32 95 bf
       -0.22772242535706544 -0.020700475743999944
0001d0 e8 26 65 ef 2c 8e b3 bf 5f a5 e6 f2 dc 7d e0 3f
       -0.07638817638976614 0.5153641456756012
0001e0 17 db b0 6b ce 2f c5 3f a0 e2 bf e6 fe ae cc bf
       0.16552143343297906 -0.22409044520442922
0001f0 04 57 fb 08 8c 26 d3 bf 04 7f fa fc 0a 31 c7 bf
       -0.29922772290352406 -0.18118417122331476
000200 59 01 88 3a 2f ff aa 3f a6 b8 db c6 f1 31 e1 3f
       0.05272815312855767 0.5373467334700492
000210 3c 67 f7 5f 8c 1e e0 3f 2d e4 0d 53 05 c1 91 bf
       0.5037290453285332 -0.01733787841246597
000220 ad 19 a9 7a 29 8c bd 3f 52 fa 0b e5 0c bb bf bf
       0.11541995281832014 -0.12394791213953596
000230 ab 84 e9 ea f6 3a 91 bf de ad e1 6b 3d 90 ad bf
       -0.01682649430074849 -0.05774108831323209
000240 9d bd 2d 4a 9c f9 7b bf 79 7a 64 95 b8 60 af bf
       -0.0068298440045135 -0.06128479789389458
000250 d0 a5 b2 0e 63 a5 d8 bf be 03 54 6d 8f 72 da bf
       -0.38509441790901366 -0.41324220348911556
000260 c5 bd 68 b5 64 12 e1 bf 25 7a 5b 6b 82 4d d5 3f
       -0.5334952872416855 0.33285580143084054
000270 42 0d d3 89 df 9f db bf 74 f5 aa b1 d4 d8 e0 3f
       -0.4316328855458843 0.5264686079096195
000280 82 2e 18 38 74 21 c8 3f 29 88 be 39 a3 0d d3 3f
       0.18852093447673118 0.29770737303818123
000290 d9 01 f9 25 65 25 dc 3f f1 97 ce 77 73 01 a6 3f
       0.4397824164225575 0.04297982060897699
0002a0 86 72 22 34 4d d7 c4 bf 2b 69 60 b1 aa b6 dc bf
       -0.16282048268921673 -0.44864909479078346
0002b0 a1 69 11 d2 a4 9f b9 3f 81 76 59 2e a9 87 c2 bf
       0.10009222153295251 -0.14476504099996038
0002c0 bb eb fa ba 66 2b d8 3f c3 48 2a 69 4d 7a 7e bf
       0.37764900455266187 -0.007440855394309223
0002d0 c8 63 b2 10 b8 6b d0 bf d2 83 77 dc aa 8e cf 3f
       -0.2565746462874441 0.24654136433585322
0002e0 52 67 cc dd 98 7b de 3f a0 bb c9 a2 0a 3b d7 bf
       0.4762937704086784 -0.36297861001269816
0002f0 49 40 fd 1c c0 24 cd bf ad 40 fe a0 ea bc c3 3f
       -0.2276840344952709 0.1542027746295437
000300 7e a8 da ae 35 80 df bf 21 c1 36 c6 72 7b d9 3f
       -0.49220029903029416 0.39815968853783273
000310 b3 31 b0 60 c8 ad df bf da bc 84 28 51 18 e0 3f
       -0.494981855795028 0.5029683867814143
000320 7d b6 74 d7 fb 91 bd 3f fb 62 cf e4 b4 68 c8 bf
       0.11550878534463922 -0.19069539234512675
000330 19 4d 15 43 c2 56 e0 bf 29 50 de 4f 2d d3 cf 3f
       -0.5105906782359028 0.2486321105940317
000340 c2 d8 76 4d d1 cd da 3f b2 62 8b 3d d3 da e0 3f
       0.4188121086584823 0.5267120554008982
000350 3d 2b b9 d7 ce 3d ab 3f 03 6c 43 8b 02 ef a0 3f
       0.053205932458317375 0.0330735011100032
000360 0b 52 79 78 01 e2 88 3f b4 a0 55 28 4d d3 a9 bf
       0.012149821747848418 -0.05044022672046947
000370 29 25 97 d4 16 e0 8c 3f af 90 28 ee 63 d2 d9 3f
       0.014099291193718404 0.40346620805417904
000380 ff bf 99 27 79 a4 cd bf 06 5d d9 05 ba 33 c6 3f
       -0.23158182557699544 0.17345357213591955
000390 b7 34 c4 22 16 1a e1 bf 87 c6 ad 5e 63 70 8d bf
       -0.5344343833000015 -0.014374519659870145
0003a0 f6 b1 5c f1 97 0b a3 bf d6 a0 70 12 75 63 d2 bf
       -0.03719782658876973 -0.28732039261605047
0003b0 17 fe ab dd a1 56 d5 bf 8b 79 05 6d 46 51 e1 bf
       -0.33341261527672955 -0.5411712769817297
0003c0 b5 82 aa b0 e3 b5 cc 3f c8 0a d5 61 39 94 b3 3f
       0.22430082441589652 0.0764804710243353
0003d0 19 59 b8 1c f2 68 d3 3f ab 73 f1 d8 07 64 d4 3f
       0.3032803802938289 0.31860538659912646
0003e0 2a 7d 36 73 2b e7 e0 3f 33 f2 ff 2f f6 3e df 3f
       0.528218960785954 0.48821787536124645
0003f0 fc d2 1c 48 66 f1 d4 3f 79 8b e5 99 be 83 d8 bf
       0.3272338585114054 -0.3830410483262124
000400 1b c4 34 54 db 4e e1 bf a5 59 67 eb 8e c7 c6 3f
       -0.5408760685587625 0.1779650353843866
000410 b3 d5 c2 57 d6 f0 da bf cd 8a e2 3b 71 f2 dd bf
       -0.42094954080979646 -0.46792250488412607
000420 a8 2f 8c c3 93 3c e1 bf 43 b4 f6 26 7f ed c9 bf
       -0.5386446780480485 -0.2025603237392791
000430 83 9d a8 b1 a4 99 df bf 50 01 ae fb 9e 61 b7 bf
       -0.4937526450107372 -0.09133332867168531
000440 ec b3 d8 c6 17 c9 d6 3f 38 65 41 c7 85 6a d1 bf
       0.3560237352237994 -0.2721266218046199
000450 b1 f1 3d 57 37 3b bc bf d1 3a be 12 40 69 d9 bf
       -0.11027856712275398 -0.39704896765117065
000460 b1 d5 6b 21 58 b9 b2 3f fa ae 21 89 c0 c9 db bf
       0.07314062896678909 -0.4341889704871701
000470 48 e7 4f 47 0c ad ca bf ec 35 72 28 e7 82 e0 3f
       -0.20840600473439452 0.5159793653453426
000480 bd fa 12 86 1e 4f dd bf 74 19 3f ee 26 d2 d6 3f
       -0.45795405476739487 0.356576664602833
000490 2f fa 50 0b 64 f9 ce 3f f8 52 4c 6c fd 06 df bf
       0.24198580315165105 -0.4848016316985162
0004a0 bb 91 cd aa 53 2d d8 3f 1a 55 21 50 b3 03 d0 bf
       0.3777665298460097 -0.2502258570214778
0004b0 ea ac 79 6a 94 07 d4 bf e5 24 c4 dd 5d 68 de 3f
       -0.31296263120630263 0.4751200357137136
0004c0 3d ca 15 b4 3e 64 d4 bf e4 e8 29 14 61 25 b3 bf
       -0.31861846529423926 -0.07478911154058526
0004d0 4d 3c 6b 3e 21 98 c9 3f 92 2d 62 73 36 0e db bf
       0.19995513484761532 -0.4227424742500371
0004e0 81 67 82 68 e3 3c c3 3f 98 c1 ec ff b8 bd ac bf
       0.15029566386220597 -0.05613496898729692
0004f0 d2 0d 34 e0 fa 72 d3 3f c3 33 03 6b 83 8b c9 bf
       0.3038928212629034 -0.19957010960788865
000500 3d 60 d4 69 5c 0f d8 bf 1f c4 f9 d7 fc 72 d6 bf
       -0.3759375604145168 -0.3507682904374309
000510 54 a5 89 1c be e7 d2 bf cf c5 23 3c b2 4e b7 bf
       -0.29539444720156394 -0.09104455917601871
000520 4a af 42 9e fa 82 b2 3f ac 39 b3 42 c9 3e bb bf
       0.07231108058720995 -0.10642679098530178
000530 ca 1b d1 8a a5 e0 d3 3f 26 5c e2 18 4f d8 c3 3f
       0.31058634334879953 0.15503872599649177
000540 16 2a 49 d4 3d 96 d2 bf 9b 0e b0 88 5a 6a e1 3f
       -0.29042001467738154 0.5442326230699622
000550 19 db 38 87 44 31 c4 3f 48 84 25 1c c7 2a e0 bf
       0.15775353052750843 -0.5052218961465167
000560 89 99 28 2d ba 52 a2 bf 6c e8 99 8f 5f d8 dd 3f
       -0.03578740884067872 0.4663313772540565
000570 41 d0 c7 fb 2c a0 d5 3f ce 60 ed d3 b2 30 e0 bf
       0.33790134990636395 -0.50594464675944
000580 f9 31 5e 5e 24 ca d8 3f 43 81 e6 f8 b8 ac c9 bf
       0.38733777251834983 -0.20058357385006262
000590 c2 d7 7f c6 4e 15 dc 3f cd 5d 0f bd 44 94 c6 3f
       0.4388005197973791 0.1763997958321241
0005a0 ea e2 03 0d 5a ba dc 3f b7 4a fd 86 05 f8 d6 bf
       0.4488740088559512 -0.3588880365615909
0005b0 1b 4d d0 f0 0a 85 8d bf 38 44 51 b3 bd 0b cc bf
       -0.014413915132570445 -0.2191083074162934
0005c0 60 c1 c4 e7 89 ac ce bf 2c fe d3 40 a3 fd c7 3f
       -0.23964046303582176 0.18742790856775693
0005d0 1e 57 49 eb c2 a6 d1 bf 5b f5 d9 6a d9 9d c1 3f
       -0.2758033082694612 0.13762967793801803
0005e0 cf 2d 28 e1 75 9e c2 3f e0 a2 0f b4 bf 25 c0 bf
       0.14546082967750215 -0.12615200321240305
0005f0 8e 4f a5 a8 98 72 d3 3f c8 38 9b 95 22 01 e0 3f
       0.303869404500113 0.5001385614393934
000600 75 f7 31 18 8d 2d da 3f 0a db 3b 88 88 ad d2 bf
       0.40903022158442265 -0.29184163383563144
000610 de b1 41 c7 6e 1b c3 3f d3 04 9d 0b 31 5f b3 bf
       0.1492746804173199 -0.07567125829247638
000620 aa 15 7c a0 d5 6e d6 3f e4 c0 4c 3e b6 13 8f 3f
       0.3505147998078778 0.015174316192855426
000630 63 46 a3 da ed b8 b3 3f e6 67 c9 75 80 28 d8 3f
       0.07704054439388978 0.37747203352557646
000640 f4 f4 4d 04 ee c3 d4 bf 52 45 c1 64 88 3d c6 bf
       -0.32445860309947183 -0.17375283164669014
000650 61 c0 22 74 8a 35 cc bf 05 dc cd 06 c4 3d c9 bf
       -0.2203839366025049 -0.19719744045480084
000660 e5 d6 15 45 8b 35 a9 3f 96 28 3b 81 e4 a3 db 3f
       0.04923663347555677 0.4318782102606148
000670 d9 d7 e1 9d 9a 52 d0 bf 1d 35 1a 32 c0 9b d5 3f
       -0.25504174631293847 0.33763127224740846
000680 fa 2a 8b ea 0e a4 d6 bf d8 e5 18 bf d3 a3 c5 bf
       -0.35376332192087967 -0.16906210738106497
000690 87 5b 19 6c 3c b9 d0 3f 4c e3 f5 ef 90 8b dd bf
       0.2613059096960843 -0.46164344247477085
0006a0 05 4c 46 ca 0b cb d7 bf 98 27 b9 e6 10 06 e1 3f
       -0.371767947706019 0.531990481025093
0006b0 2f 06 49 06 20 55 d2 3f 9e 74 16 53 e7 ec d4 bf
       0.286445623529377 -0.3269594489482389
0006c0 5d a9 38 db 3d 47 d3 bf da 7e d5 6b 61 7c c9 bf
       -0.30122324379285265 -0.19910829320269025
0006d0 84 76 77 af e7 f7 a3 bf 0d 34 35 6b 63 e7 d9 bf
       -0.03900074021269709 -0.4047478243781491
0006e0 c2 0b a0 ea 57 c6 db 3f 9f ed 76 d7 1a 8c da 3f
       0.433980921865608 0.4148013214250685
0006f0 79 3b 50 20 fe 8f c1 bf 2b 47 0a a1 a7 25 a0 bf
       -0.13720680787852382 -0.0315372833330357
000700 78 e2 c8 b6 35 4d c4 3f a0 4d d3 74 8c fb d0 bf
       0.15860625672373252 -0.2653533116219595
000710 08 b4 21 f1 00 bb c8 3f 7a 5b 7c fc 38 35 df 3f
       0.1932068993950511 0.4876234498673778
000720 9a 7b 31 62 33 5b bc bf 22 46 12 9c c4 14 b9 bf
       -0.11076661250397848 -0.09797314462982645
000730 0a d3 68 45 05 4d c8 3f 58 2d 1a c8 34 3d d4 bf
       0.189850481883376 -0.31623572865711
000740 48 32 10 93 52 4c d6 bf 9d 1e 1a 23 cd ab d8 3f
       -0.348408359161827 0.3854859202187784
000750 f1 57 53 15 b4 e2 e0 3f c8 9d 80 91 8e df e0 3f
       0.5276737610354286 0.5272896615833185
000760 33 eb 23 88 62 47 d4 bf b3 90 13 c3 f1 95 e0 bf
       -0.31685698790504374 -0.5183037576757868
000770 a1 8e 93 27 2e 57 dd 3f 54 8c 6d 57 1f 28 d1 3f
       0.45844606270677885 0.26807387864955
000780 fa 85 bb db d8 50 a2 3f cb 8a 6d 51 14 5a d5 bf
       0.03577306444436697 -0.33362300826972263
000790 73 05 18 6b 72 a3 c4 3f f3 ef ad c3 f9 40 d0 bf
       0.161238004962836 -0.25396579846687856
0007a0 a0 97 5d 2c d2 e4 d5 bf fc 56 9d 9d 75 fd db 3f
       -0.34209112484529136 0.4373449362950479
0007b0 6c ce 96 01 4a 55 d0 bf ce d4 bd 29 75 d2 97 3f
       -0.25520563273605634 0.02326376979131766
0007c0 a4 eb b6 e9 b5 db d7 bf 13 4a 90 a5 ab 2c e0 bf
       -0.37278507064518807 -0.5054529412903456
0007d0 62 ba 0a 68 b5 e1 df 3f 77 b3 1f e8 a2 58 d2 bf
       0.4981511608156436 -0.28665993374197946
0007e0 35 6d 12 d8 6f 55 d9 3f da 16 71 bc bd 6c da bf
       0.39583965397624193 -0.41288703348651057
0007f0 b7 95 83 fb 57 8a ca bf 21 4e 0a 8e f9 c4 a4 bf
       -0.20734691410977543 -0.040565298642061494

features.2.block_bias_1 f8 [20]
000000 76 a9 b7 a3 9b cb 8d bf 6a 78 ca 4c 16 92 bf 3f
       -0.014548507627257772 0.1233228623845847
000010 82 2a 58 2e c0 77 62 3f cb 22 6e ca 90 09 c5 bf
       0.002254367211894704 -0.1643544186047364
000020 9c 85 9b 0c 27 c6 a2 3f 76 81 ea 8a e5 87 cb 3f
       0.03666803387546766 0.21508473666200317
000030 ef 2c fe cb 20 d9 a0 bf 72 da 17 02 f9 c8 ab bf
       -0.03290655603549363 -0.054267674928202406
000040 9f 89 9b df 18 ce ac bf 3f 60 7f 94 0e 7e ad bf
       -0.056259896560521876 -0.05760236323084244
000050 d1 db e3 f0 4a 62 c4 bf ad 0a f5 98 69 73 c9 bf
       -0.1592496563168582 -0.19883460968602176
000060 08 76 b5 44 61 cd c3 3f 0e ce 98 bc 31 ce b8 3f
       0.1547051988117547 0.09689627508560525
000070 86 d5 af 93 8f df b5 3f c3 b0 30 52 dd c6 c8 bf
       0.08544251781116516 -0.19356886399453374
000080 e3 a8 a8 0e 20 09 be bf f2 1d 4f 26 1d 99 b9 3f
       -0.11732673986321944 0.09999258218078191
000090 12 2f 20 67 f1 f0 a8 bf 16 b2 38 49 98 b3 a0 3f
       -0.04871324905260911 0.03262020009819737

features.4.block_weight_0 f8 [20, 20]
000000 e3 d0 4e f4 7c dd dc 3f 7c af 0c 15 01 35 e1 3f
       0.4510185609644976 0.5377202426075054
000010 3a d4 b0 35 cf b1 c4 3f 98 93 83 56 05 6c d1 bf
       0.16167631265276033 -0.2722180695403096
000020 60 76 4f 95 0a 49 d1 bf eb 31 7d db fe cd db 3f
       -0.27008308964818717 0.43444796976544237
000030 5d 21 68 b4 f7 a7 c7 3f bd 5f 61 60 38 2e de 3f
       0.18481346424983772 0.4715710583891413
000040 35 5b 93 e7 61 4d c0 bf c7 cd 38 c9 74 f2 c1 3f
       -0.1273615246525083 0.14021167588508218
000050 ce 2f 30 e3 e0 1c c2 bf 04 29 67 05 fa cf b5 bf
       -0.14150630086112276 -0.08520472175510824
000060 f2 b3 4e cc e7 97 d3 bf ba bf 4d 0f e5 60 d3 bf
       -0.3061465735616472 -0.30278898710730184
000070 8d cd 7e 31 e2 0b d4 3f 30 e5 83 4c 5a 2f be 3f
       0.3132253154137395 0.11791004531905425
000080 48 16 95 8e d3 2c d9 bf b1 93 3e af 6c 43 e1 bf
       -0.3933609859853715 -0.5394805357687941
000090 38 55 05 50 6c b8 ca 3f 7b 33 9e 7a e0 43 e1 bf
       0.20875314624087493 -0.5395357508547102
0000a0 d1 5e 21 b1 d6 d6 c8 bf 4e 66 66 43 7e a5 db 3f
       -0.19405635498946208 0.43197590429335697
0000b0 42 0c 6a b1 7b 11 e1 3f 48 b5 1b 3b 44 5f bb 3f
       0.5333841767427503 0.1069224018389906
0000c0 a0 4e ec 89 f1 29 c4 3f 37 97 89 45 28 c1 99 3f
       0.15753001436734326 0.02515089916632648
0000d0 f4 9a 9c 85 4f 5c d3 bf 86 ec 46 bd 71 28 c1 bf
       -0.30250919387837816 -0.1340467619137124
0000e0 af 90 27 c3 6b 8f c3 bf 78 31 e9 7e 06 81 8e bf
       -0.15281435994177658 -0.014894533870710033
0000f0 ae 44 c3 c4 59 51 c5 bf e7 a1 d6 61 d1 f9 da bf
       -0.16654512507969826 -0.4214976745084002
000100 2c 22 90 90 67 83 d4 3f d7 22 29 85 87 fe c6 3f
       0.32052029721720277 0.17964262010561668
000110 c2 45 58 1f b0 cb d7 3f 86 46 b5 32 d9 f7 bf 3f
       0.37180712758080514 0.12487561691275503
000120 dd 1a 43 0a 59 68 d6 bf 0a 6f fb ce 17 29 d2 3f
       -0.3501188850608921 0.28375811780073035
000130 87 78 f6 5d bf fa d5 3f 37 18 f5 34 ac 10 c5 bf
       0.3434294145207634 -0.16457130990801414
000140 63 58 6d 33 12 e2 d3 3f 1e 16 9c 2d 3d 1c c4 3f
       0.3106732847421709 0.15711178519284003
000150 c4 0c cd c8 58 ad a4 3f e3 91 71 27 ab d2 da 3f
       0.040385031234586616 0.41910818912427156
000160 a2 80 43 1c cd 2f ba bf 29 a9 77 2f 72 06 db bf
       -0.10229188861876762 -0.422268434863002
000170 1f 35 e9 b0 5e bb b6 bf 8d ad 70 7a b8 58 a1 bf
       -0.08879653758159066 -0.03388000959997859
000180 29 16 da c3 c7 6e d3 3f 63 3f 2a 9f fd 91 cc bf
       0.30363649488603756 -0.22320528289537397
000190 2e 9d 94 47 06 61 d1 bf d0 19 b0 f3 e0 6d e0 3f
       -0.27154690733228193 0.5134129294900109
0001a0 c3 f8 e2 a9 76 bc dc bf 3f 04 bb 85 84 16 d3 3f
       -0.4490029009865674 0.2982493692362062
0001b0 df 45 a2 d8 4d 00 da 3f 75 46 44 c7 78 b2 d4 bf
       0.40626855998661243 -0.32339305362356835
0001c0 93 01 7a e3 c0 ae d9 3f 13 f6 8a f9 00 62 df 3f
       0.4012911054087677 0.4903566777173591
0001d0 4b 42 39 09 f4 3b 95 bf 62 6b 30 13 6f 47 d0 bf
       -0.0207365160588913 -0.2543599784273082
0001e0 88 74 0d 6b 9a 99 da 3f 67 d6 c9 87 ba d7 da bf
       0.41562519506789686 -0.41941703091229104
0001f0 61 bc 4b c4 8b c3 c4 3f 6f fe f7 9f 4d 75 d9 3f
       0.1622175892329976 0.39778462049432667
000200 7a c8 9a 79 9a 28 c7 3f 19 cd f9 5c f9 bd a5 bf
       0.18092661798215542 -0.04246501216848681
000210 e7 26 48 0f b2 e5 d0 bf 49 35 cc 34 b7 3f b4 bf
       -0.264019503520656 -0.07909722365385109
000220 de 93 9e 29 51 47 a9 bf 77 15 83 53 eb 41 cd bf
       -0.049372230844973095 -0.2285741956494964
000230 87 60 82 2f 19 63 d2 bf 69 4d 21 c5 76 13 c3 3f
       -0.2872984851796975 0.14903149247639227
000240 b0 8e 15 96 e9 00 db bf d6 95 89 83 1f a1 db bf
       -0.4219306913057421 -0.4317091736359918
000250 6e f6 fe 7b 0e 30 bb bf b2 fb c1 40 5f 83 ba 3f
       -0.10620203521008317 0.10356707888602903
000260 80 05 f3 a9 bd fe e0 bf 93 28 1f 2e d7 98 a5 bf
       -0.5310962981531446 -0.0421817058373374
000270 2e 7d e1 0e 00 a3 d9 3f 77 ba cd eb 02 79 de 3f
       0.4005737443275902 0.4761359503526487
000280 65 0e ac a1 d8 48 a5 bf c1 86 32 a9 b3 c7 df bf
       -0.04157139752899467 -0.4965638305967382
000290 a7 0f f1 a9 8d 78 c9 3f 0d da a2 7e 0b 03 dc bf
       0.19899149702007188 -0.4376858460122158
0002a0 53 f2 73 b6 a1 9a b8 3f fe 12 21 f6 e9 48 db bf
       0.09610949234406378 -0.4263253120046072
0002b0 d0 74 4a 40 2e 80 a2 bf d9 60 fc 99 00 ff ce 3f
       -0.036134190891269236 0.24215705412712543
0002c0 26 6b f2 45 6b 91 d9 3f ef 0d 31 2d 8c 64 b8 3f
       0.39950067358738506 0.09528423407851226
0002d0 a5 58 26 28 cd 35 9d 3f ba 88 49 f5 d5 49 e1 3f
       0.028525548530148232 0.5402631560102897
0002e0 b3 a2 e2 a8 9b 7e d4 bf 8b 22 7c a7 af 23 d9 bf
       -0.3202275418539486 -0.392803109702563
0002f0 ea 02 07 46 b2 29 e0 bf 16 f7 03 a9 bc a3 d0 bf
       -0.5050898902628351 -0.25999371056956144
000300 1d 55 77 b3 ca 40 bb bf f9 54 26 b0 17 40 d1 bf
       -0.1064573944234621 -0.2695368976795432
000310 70 84 f8 02 62 d6 cf bf ab bc b9 91 3d bc d1 bf
       -0.24872994561249895 -0.2771142886258057
000320 d5 2b dc 34 57 cd c9 3f 0b ee ae 1a 75 24 e1 bf
       0.20157899933869197 -0.5357003708990659
000330 9e 78 79 db a5 03 d3 bf 54 51 89 4b 4a bc dd bf
       -0.2970976489358551 -0.46461732269860545
000340 8b 0e ce ac 15 43 b2 bf 28 fa 78 41 3e 89 3c bf
       -0.07133613079900607 -0.00043542642513108793
000350 3f 7a 89 07 8c 04 d4 bf 3f 9a 83 7f ca f4 d0 3f
       -0.31277752624547256 0.2649408574347127
000360 75 3c df 49 d5 bf ba 3f a0 c6 dd 20 d9 a7 d9 bf
       0.10448964169994375 -0.4008696385345534
000370 d5 39 10 ac 37 c4 d8 bf 82 11 2c 94 ad 75 c0 3f
       -0.3869761638933629 0.12859124884574774
000380 a4 df 91 be 2c 9f dd bf 71 bc b0 ad 7f 62 dd 3f
       -0.4628402577432047 0.4591368862338135
000390 28 1a 28 ee cf 52 ca bf 29 60 fd 13 3f 42 c7 bf
       -0.20565222862951882 -0.18170917964994374
0003a0 3f 23 50 49 33 dc a3 bf 76 94 b9 01 6c 1b b2 bf
       -0.038789370250077664 -0.07073092500793784
0003b0 f8 60 89 0e 77 47 e0 3f 52 cb 41 1e b6 31 b9 bf
       0.5087237628859205 -0.09841478575417043
0003c0 28 6e 53 5a 73 87 bb bf 00 2f f3 bf 17 dc cd 3f
       -0.10753556208822401 0.23327919838481392
0003d0 ac 6a c8 3a 71 f0 d5 bf 05 48 ac a0 40 5d d5 bf
       -0.34280043354525946 -0.33381667795868025
0003e0 bb fb f7 5a 4c d5 c9 3f 1b 99 e5 b0 96 aa d1 bf
       0.20182184640722575 -0.2760369040974113
0003f0 ff fb 39 00 78 87 d5 bf 60 2d 69 b4 e0 6f c1 bf
       -0.33639335653418806 -0.1362267380630824
000400 1d 08 71 bf b8 e9 df 3f 79 c1 11 c5 ae 82 d2 3f
       0.49864023871862334 0.2892262386804059
000410 ed 93 2f dc f8 51 d0 bf 4c dc 46 e7 8b e1 d9 bf
       -0.25500318052792076 -0.404391265732049
000420 a7 28 1c 06 cd 87 ca 3f 55 c1 3b f5 20 be c0 bf
       0.2072693137964212 -0.1308022687367251
000430 bc bb 09 66 6c 39 c7 3f 08 ec 66 d0 81 70 d7 3f
       0.18143992407155263 0.36624188758622767
000440 57 a7 99 5f ba 52 d7 bf 19 85 50 4a ee 3a d1 bf
       -0.3644243177028463 -0.26922185189512643
000450 7c af 95 d5 c0 25 e0 3f 3a 58 3c b4 46 4e bd bf
       0.504608552129397 -0.11447564983640826
000460 20 7f 56 14 79 b8 b4 3f db fd a2 19 92 4c de bf
       0.08093983408479888 -0.47342350486357326
000470 f4 cc c2 23 ca f6 ca bf 8d 35 f2 4a 43 a9 bd bf
       -0.21065642114772454 -0.11586399631251805
000480 dc da 48 2a 01 0b d5 bf b4 a1 7d f1 74 8c d6 3f
       -0.3287966645179219 0.35232280333596155
000490 4e 03 ef e4 42 a6 8c bf 99 e9 96 0d 37 92 d9 bf
       -0.013988993274212238 -0.3995492584905605
0004a0 84 5c a2 92 3b 60 d1 bf 9e e7 78 52 24 f7 b4 bf
       -0.2714985782599302 -0.08189608586772443
0004b0 63 98 c6 6f a4 16 df bf 7a 90 c3 15 b4 9d ce 3f
       -0.4857569781837638 0.23918772757236068
0004c0 39 1f 5a ed 93 ef d3 bf 56 a0 d0 95 b6 6d c2 bf
       -0.3114976709261899 -0.1439731818693441
0004d0 18 de a7 3e 8f 5e 51 3f dd 59 35 33 b3 6a d6 bf
       0.0010601424097539443 -0.3502624511797004
0004e0 eb 65 2f 42 1c 15 df bf a5 ca 29 c0 83 59 de 3f
       -0.4856634756411881 0.4742135407060835
0004f0 28 ee 71 18 e0 6f df bf 4f 38 8c 53 25 3f dd bf
       -0.49120333087168655 -0.4569791141410677
000500 b9 7a fd cf 83 63 de 3f 77 3c 3e 0c 64 c5 d4 3f
       0.4748239070085379 0.324547779041445
000510 b4 67 5b 95 70 8b d6 bf 0f d4 8c bc cf a7 e0 bf
       -0.3522607286992028 -0.5204847986811972
000520 d9 63 fa a1 7a 10 d8 bf 06 1f f1 d7 55 de c7 3f
       -0.3760058004204985 0.18647263568913547
000530 61 02 0e 6d c9 fd d8 3f 2c b1 17 17 28 5b ac bf
       0.39048991823077556 -0.05538296968356557
000540 2a 9d 8f 28 d9 1b a0 3f c3 24 b8 b3 ec 7f d8 bf
       0.031462465478222804 -0.38280789900506934
000550 93 49 d0 37 e0 1d cc bf aa 5e 12 6a fc ad cf bf
       -0.21966173863672775 -0.2474971311501027
000560 d5 9f 6c c9 ac 5e d9 3f 12 87 c8 aa 9a 85 d8 3f
       0.396403500274116 0.38315455129678455
000570 18 39 12 2d d1 32 db bf 46 2f c6 d8 8e f8 d3 bf
       -0.42497662927134305 -0.31204577607490014
000580 22 dc 41 41 0c 72 d3 bf 93 5e 64 70 1a b6 db bf
       -0.30383592961101347 -0.43298970199382686
000590 00 ef 33 7d d4 cb cc 3f 5c 7e 9f cf 6b e8 db 3f
       0.22497039903088734 0.4360608604019711
0005a0 80 4a fc 5e b7 d5 c0 3f 1d 67 95 12 8e 9f e0 bf
       0.13152210367168848 -0.5194769251786259
0005b0 b2 a3 2f 6e be 1b df 3f 30 e2 92 6d b5 17 e1 bf
       0.48606835136757376 -0.5341441288101745
0005c0 e6 f4 46 36 f9 49 c2 3f 98 6f 17 fc 0e 18 d5 bf
       0.14288249159100203 -0.3295934163886556
0005d0 f4 17 98 1d 93 f7 d6 3f fc 45 ba dd 7a d9 ba 3f
       0.35886075868654577 0.104880980618212
0005e0 f1 6d 51 9e 07 3f d4 bf 66 4e 2c a9 f0 88 c9 3f
       -0.31634703121900914 0.19949157963184233
0005f0 2a 72 ec 41 8f 56 cd 3f f3 f8 36 55 3f 42 84 bf
       0.22920408934523212 -0.009891981876418465
000600 1c 45 7b a4 04 64 dc 3f 72 b0 49 32 f2 00 c8 bf
       0.44360462248467214 -0.1875288720651756
000610 76 cf 09 46 73 c4 cf 3f df fc 45 8c a9 06 c8 bf
       0.24818268699493345 -0.18770331715857133
000620 01 aa 93 68 8b 2e d7 3f 18 11 89 fe 4b 96 a3 bf
       0.36221585476474166 -0.03825604898568907
000630 99 79 6e 1d 7d c3 c7 3f e4 4e 76 2e 84 15 d4 bf
       0.18565334260069902 -0.31381325280493244
000640 45 a6 da 58 78 1d cd bf 09 26 6a 83 1e fd dc bf
       -0.22746185625628548 -0.4529491694780466
000650 ee e3 c2 20 e9 73 e1 3f 9f b3 c0 77 0b 62 d5 3f
       0.54539925001802 0.334109179445301
000660 76 17 4e 93 b7 6e dd 3f 3d a8 a5 e0 57 14 dd bf
       0.4598826349759898 -0.45436665476029586
000670 54 a4 aa 13 1b 47 e0 bf 1f 82 c0 88 84 87 df bf
       -0.5086799034226126 -0.4926463447064026
000680 77 d2 12 ad d8 f0 d5 bf db fd b4 ea bf 92 d9 bf
       -0.34282509710036585 -0.39958188934903455
000690 3f 0d d3 e4 7a fb c4 3f 59 2a 3a 82 55 12 d2 bf
       0.16392456219737458 -0.2823690196752629
0006a0 2a 9c 69 47 dd 4a c1 3f bb fb b6 a4 d6 bc ca 3f
       0.13509717928829562 0.2088878921767597
0006b0 7b f8 c9 83 61 a2 de bf 46 e1 85 74 8e 5b d5 3f
       -0.478660944652695 0.3337131631774536
0006c0 25 56 59 e6 dd f8 e0 3f 74 f8 c8 14 55 a9 d7 3f
       0.5303792475703558 0.3697102263430516
0006d0 2d 10 f9 f8 f3 96 da bf e5 28 2b 5a 59 cd c3 bf
       -0.4154634410263068 -0.154704255130418
0006e0 6d f2 ff c0 16 6d b4 3f 00 44 6c 39 e9 9c d3 bf
       0.07978956424626356 -0.30645208938318547
0006f0 4c 7f 5f f4 a8 58 d4 3f 0b 9d 8d c2 eb 84 c1 3f
       0.31791137566141425 0.13686892509142753
000700 b1 3c cf c2 8f 06 c5 bf 78 81 6b bb 01 9a db 3f
       -0.16426274311240754 0.43127482702950415
000710 3c 2f 15 86 1d fc 8c 3f ca 6d 88 16 c7 e5 e0 3f
       0.014152746824627742 0.5280490341278263
000720 1a 94 21 fd 51 26 d2 3f 9e a0 00 5a 01 ea c1 bf
       0.28358888358917655 -0.13995377440119666
000730 b9 cb dc f8 c3 d8 9f 3f f0 df 99 fe 9f 2d d7 3f
       0.031100332321510857 0.3621597277010542
000740 60 7b 44 36 ac 07 c4 bf 6c 55 4b 1e 1f 6f b4 bf
       -0.15648415231495516 -0.07982058038336043
000750 c0 ab 2d 61 bc 3a ce 3f ad 9c 0a ce ad 8d da 3f
       0.2361674761299053 0.4148973953364912
000760 1f 44 64 9b 9a 55 ae bf ad e6 b2 00 1d ac c2 3f
       -0.05924685618277458 0.14587748083231614
000770 12 61 57 94 ce 60 a7 bf 2e 92 2c d6 23 22 d3 3f
       -0.04566045342261495 0.29895873942794793
000780 43 6a 59 8e 8d 04 d4 bf 68 8f 7f cf 3c fd c6 bf
       -0.3127778902177491 -0.17960319644691514
000790 ae bc a3 97 7b 37 e1 bf 35 05 b2 56 09 da c5 3f
       -0.5380228006087202 0.17071644528554378
0007a0 6d 5a 42 b0 57 79 c3 bf 93 f8 c5 85 f1 34 cd 3f
       -0.1521405802383983 0.2281782057943401
0007b0 58 30 bb b2 d2 f2 db bf 1a eb 01 5f 06 b5 c8 bf
       -0.43669574217051865 -0.19302444113767409
0007c0 df fe 10 bc 12 13 d3 bf 20 c3 d1 7f 54 3b da bf
       -0.29803913465364745 -0.40987122042047197
0007d0 a4 a2 63 83 ea ed d6 3f f3 9b 6a 04 8a b7 b5 3f
       0.3582712443444882 0.08483183486769956
0007e0 30 dd 35 04 28 db c2 3f 45 fa fb 8e 03 ca dc bf
       0.14731311994158025 -0.4498299499827321
0007f0 3d 10 18 cd b9 11 c7 3f 12 c4 b8 73 a0 6c de 3f
       0.18022844805102692 0.47538005162192676

features.4.block_bias_0 f8 [20]
000000 56 cc 0b 41 e6 60 b2 3f 75 74 cc 24 ab 16 c2 3f
       0.07179106796302057 0.14131678864297084
000010 ca 4e 96 e7 1d 42 c9 bf 4b 5a b6 ae 23 e9 a5 bf
       -0.19733022506681258 -0.04279433734625523
000020 a1 51 c7 78 d6 45 b5 bf c8 4c 47 4f d4 77 c5 3f
       -0.08309688996025112 0.16771940108319527
000030 39 6e 98 d9 80 43 c4 3f b8 72 7f ed 2a 70 c0 3f
       0.15831003784920641 0.128423086133713
000040 0c b2 62 93 81 1e a9 bf 97 31 4e cf 60 07 bf bf
       -0.049060868493459336 -0.12120633183639594
000050 c8 49 31 d4 40 4b c8 3f fb 6b 74 27 80 1b bb 3f
       0.1897965465637539 0.10588837588549886
000060 f2 35 fd d8 fe 2f c2 3f ab 52 72 91 5a dd c9 3f
       0.14208970637484658 0.2020676813305234
000070 f9 12 52 1e b6 6b a2 3f e1 0f d6 5d 23 55 c1 3f
       0.03597802276730095 0.13541071016163556
000080 dd d2 1e d9 6f 1b c9 3f 73 06 17 86 5e 03 c7 bf
       0.19614980794508244 -0.17979032084808785
000090 51 74 68 21 f3 56 c6 3f 0b 35 2b 74 21 f3 c3 3f
       0.1745284951329347 0.15585725948623294
